bc_walker2d_medium_v2_seed2.pt (torch, 290768 bytes, 6 tensors)

net.0.weight f4 [256, 17]
000000 b8 b7 36 3c 6c ef 9f be 0c 25 95 3d 86 e6 9e 3c
       0.0111522 -0.31237352 0.07282457 0.019397032
000010 a5 12 2f 3e c3 8b a1 3d 6b c0 90 bd a5 23 b5 be
       0.17096956 0.078879856 -0.07067951 -0.35378757
000020 12 d5 25 3e 4a 38 b4 be 79 dd 88 3d e7 2c bc bc
       0.16194561 -0.35199195 0.066828676 -0.02297063
000030 a6 83 d4 bd 56 7d 75 3e 74 80 3d 3c c4 b9 44 3e
       -0.103766724 0.23973593 0.01156627 0.19211489
000040 e5 3a 3a bd 3d 18 65 bc f3 2b 72 be b9 12 4e 3e
       -0.045466322 -0.01398283 -0.23649578 0.2012433
000050 d2 8a 64 be 02 c7 89 bc 21 4e ac bd b5 f9 9e 3e
       -0.22318581 -0.016818527 -0.084133394 0.31049886
000060 81 9c 90 bc 37 8e e0 3d 74 20 a1 bd 2c 52 13 be
       -0.017652752 0.10964625 -0.07867518 -0.14386815
000070 a4 34 f0 bd 5b ee 5a be be 0a 3c be c8 dc 16 be
       -0.117287904 -0.21379988 -0.18363473 -0.14732659
000080 18 67 80 bd 10 a1 49 3e e9 e8 98 bd 5f 38 42 be
       -0.062696636 0.19690347 -0.07466299 -0.18966816
000090 8c 33 a2 3d a9 3d 9b bd 22 ce 08 bd 7e a9 0d be
       0.07919988 -0.0758012 -0.03339971 -0.13834187
0000a0 ba f5 04 be 8f 00 91 be e6 be aa 3d d9 c9 65 3d
       -0.12984362 -0.2832074 0.08337192 0.0561007
0000b0 8b 88 b0 3d d6 5d f0 3d ea 30 81 3e 69 e9 31 3d
       0.086197935 0.11736648 0.2523263 0.043435488
0000c0 db 2f 08 3d f3 de 06 3d 16 31 54 3d c5 23 4b 3e
       0.033248764 0.032927465 0.051804624 0.19837864
0000d0 c6 a1 53 3e 2b 68 11 3e 89 47 19 bd 92 85 e2 3d
       0.2066718 0.14199893 -0.037421737 0.11060633
0000e0 0a b5 aa bd bb bf 37 3e ca 6b c4 3d f0 aa 7a 3e
       -0.08335312 0.17944233 0.09590872 0.2447927
0000f0 17 30 44 3e 20 54 a4 be 47 b3 32 3e 81 35 a3 3e
       0.1915897 -0.32095432 0.17451201 0.31876758
000100 47 75 23 3e 1c f8 bf bb 3c b3 5a 3d 63 d1 27 be
       0.15962707 -0.0058584344 0.053393587 -0.16388468
000110 59 c1 33 3d 26 26 8c 3e 23 7d 7e be 69 3d c5 3d
       0.043885563 0.27372855 -0.24852423 0.09630854
000120 a2 a1 a5 bd 25 98 f6 3c c2 9a ef bd c5 ee 2b 3e
       -0.0808747 0.030101845 -0.116994396 0.16790302
000130 b8 f0 7f 3e 52 21 35 be fb a4 ed bc 66 a6 b1 bc
       0.2499417 -0.17688492 -0.029009333 -0.02168579
000140 b0 ab 50 3e 68 0d 0c bd d2 5b 8f be 00 a9 51 bd
       0.20377994 -0.034192473 -0.2799974 -0.05118656
000150 3b 66 8d bc 6b 1b 70 bd 4e f3 26 3e ac da 02 3e
       -0.017260661 -0.058619898 0.16303751 0.12778729
000160 61 fb a2 bd f0 c0 e5 bd 10 c5 ed 3c bb dd 22 be
       -0.07958103 -0.112184405 0.02902463 -0.15904896
000170 b2 8b 8d 3e 54 e5 e7 3c f4 83 7a 3d 6b e1 87 3e
       0.27645642 0.028307594 0.061160997 0.26539168
000180 63 19 7c be 7c b0 31 be ad e4 86 be ba 75 00 be
       -0.2461906 -0.1735248 -0.2634634 -0.12544909
000190 86 f1 ef bd 39 a8 f0 bd 5d 68 1c be 18 b2 72 3e
       -0.11715989 -0.11750836 -0.15274186 0.2370075
0001a0 c9 c6 1c 3e b8 ff ac 3d f9 d5 e2 3d 22 a6 fa bc
       0.15310206 0.08447212 0.11075968 -0.030596796
0001b0 23 09 d6 be 6f 80 95 bc 74 be 2f 3e d9 0e 62 be
       -0.41803846 -0.018249718 0.17162496 -0.22075976
0001c0 ca 71 8a be 26 8a 17 be 4e 3e 42 be 28 df 2d bd
       -0.2703994 -0.14798793 -0.1896908 -0.042449147
0001d0 2c 8b 8e 3e 48 e5 e2 3e 0f 15 45 3c 31 d9 85 3e
       0.27840555 0.44315553 0.012028947 0.26142266
0001e0 6b 35 96 3e e4 fb 0c 3e 53 cb 3d be 3b 13 4f 3e
       0.2933763 0.13767964 -0.18534593 0.2022218
0001f0 5b e2 5a 3d c3 76 24 be 62 c4 71 bd 58 18 c5 3e
       0.053438526 -0.16060929 -0.059025176 0.38495135
000200 92 33 95 be e8 b4 a0 be e5 65 9e bd 0f 71 a6 bd
       -0.29140908 -0.3138802 -0.077342786 -0.08127033
000210 6b fd ba bd e6 1a 9e bd e2 89 26 3e c2 0d 58 3e
       -0.09130367 -0.07719974 0.16263536 0.21098998
000220 87 32 25 3e 61 88 08 bf 37 34 92 3e 5e 1d 04 3e
       0.16132556 -0.533331 0.28555462 0.12901828
000230 18 3b 71 be d3 7b bc 3d b7 db 92 3e e8 3c fd 3d
       -0.23557699 0.09203305 0.28683254 0.123651326
000240 22 7c 6c bc c3 9f 0f 3e 05 46 cc be e5 1e 84 3e
       -0.014433892 0.14025788 -0.3989717 0.2580482
000250 ca 20 55 3e 82 80 e7 bd bb 5d 80 3d f3 46 aa 3d
       0.2081329 -0.11303808 0.06267878 0.08314314
000260 f1 1d 05 bd 38 5d d9 bc d6 c1 6d bd 50 92 78 be
       -0.032499257 -0.026533708 -0.058046184 -0.24274564
000270 33 8e 88 be db 92 ad 3d 5b 58 89 3e 90 69 17 3e
       -0.2667099 0.08475276 0.26825222 0.14786363
000280 40 b1 60 be 90 50 a3 3e b5 34 14 bd 02 24 69 be
       -0.21942616 0.31897402 -0.036183078 -0.22767642
000290 6c d8 1a 3e 88 e0 40 3e 77 4a ab bc f6 5d 07 be
       0.15121621 0.18835652 -0.020909531 -0.13219437
0002a0 bd 73 04 be 7f 23 2c be 79 04 9e be 46 c6 a2 3e
       -0.12934776 -0.16810416 -0.30862787 0.31791896
0002b0 de 3b d5 3d a0 2b 29 bc 2d 58 81 be da 0a 43 be
       0.104118094 -0.010325342 -0.25262585 -0.19047108
0002c0 7c e0 86 be af 95 7e bd 01 5e e1 3e 73 a1 05 be
       -0.26343143 -0.06215447 0.44017032 -0.13049869
0002d0 7f 96 bb bd fa fa 8a 3d f9 26 50 3e 1e 4b 13 3d
       -0.09159564 0.06786151 0.20327367 0.03596031
0002e0 a7 e0 92 bd e0 c2 4f be dd fe b9 3b 9b ad a3 3d
       -0.07171755 -0.20289183 0.005676134 0.07992097
0002f0 c9 33 96 3e 1e a9 ab 3d 58 02 fe bd ef 62 99 be
       0.29336384 0.08381866 -0.12402791 -0.29958293
000300 50 05 55 3e dc 5b 03 3e 3d 49 20 be fc f8 11 be
       0.20802808 0.1282801 -0.15652938 -0.14255136
000310 08 5d df 3d a9 52 ba bd 51 87 1d 3e e0 f7 6d 3e
       0.10906416 -0.090977974 0.1538365 0.23239088
000320 d4 86 26 be 71 04 09 be 96 0d 8e bd 36 8b 63 be
       -0.1626237 -0.133806 -0.06936185 -0.22221074
000330 e8 30 b6 bd 66 6d 36 3f 61 f2 87 bd 56 4e ea bd
       -0.08896047 0.7126068 -0.06638027 -0.11440723
000340 da 96 5a bd f6 fb b0 be ba ac 9f be f2 a0 8c bb
       -0.05336652 -0.3456723 -0.31186467 -0.004291647
000350 b0 c9 c4 3e d3 a4 20 be 42 c1 6d be 5e 2a ce 3d
       0.38435125 -0.15687875 -0.23218253 0.10066675
000360 17 9d 12 bd 2c 2a 4a bd b8 34 af 3d cc 89 07 3e
       -0.035794344 -0.049356624 0.08554977 0.13236159
000370 af de df bd f3 cc 63 be f9 f0 ce 3e e0 df 02 3e
       -0.109311454 -0.2224615 0.40418223 0.12780714
000380 3a 1b a5 bd 72 11 5b be a9 ed 2e be 06 8d 35 3e
       -0.08061834 -0.21393374 -0.17082848 0.17729577
000390 85 6f 50 3e cc bf 1c be bf 10 b7 bd 12 ee 4a 3d
       0.20355041 -0.1530754 -0.08938741 0.049543448
0003a0 69 dc c2 3c e5 69 0b 3c 54 02 08 be 0a f6 88 bb
       0.02378674 0.008509134 -0.13282138 -0.0041797208
0003b0 02 0a 66 bd 2e fa a8 bd 15 e5 8f bd d7 0d 14 be
       -0.056161888 -0.08250843 -0.07026116 -0.14458404
0003c0 ff 79 37 be b8 02 ea 3d 0c 89 c3 be b0 9b af be
       -0.17917632 0.114263 -0.38190496 -0.34298468
0003d0 37 0a bc 3e f0 ef 7f bd 28 98 62 3e 74 43 c8 3d
       0.36726543 -0.06248468 0.22128356 0.09778491
0003e0 07 cd 8e 3d 5e 32 74 be 79 c0 27 be 05 59 a6 3d
       0.069726996 -0.23847339 -0.16382016 0.08122448
0003f0 d8 bc 64 3d 96 e8 24 be 0f b0 2c be aa 47 32 3e
       0.055844158 -0.1610435 -0.16864036 0.1741015

net.0.bias f4 [256]
000000 9c d3 2d be 8c 58 b8 bc 5b b4 9c 3d 20 1f a9 3d
       -0.16975254 -0.02250316 0.076515876 0.0825789
000010 c8 e4 81 be bf aa b7 bd 0c e9 6d bd 59 a9 ab be
       -0.2536986 -0.08968114 -0.05808358 -0.3352764
000020 12 1c e9 3d 41 ad ed bb 74 16 90 be b1 18 87 3e
       0.11382307 -0.0072533195 -0.2814213 0.26386026
000030 d1 4d aa be da f1 69 be 2c 85 59 be 29 21 9f 3e
       -0.33262494 -0.22846165 -0.21242207 0.31079987
000040 58 8c 01 3e 7e fc 07 be 77 4b 9c be fe 63 d3 3d
       0.12651193 -0.13279912 -0.30526325 0.10321806
000050 61 ab 45 bd 79 48 b5 be d4 3b 0c be 88 c3 71 3d
       -0.048259143 -0.35406855 -0.13694698 0.059024364
000060 03 af 86 be ce d9 af 3e 72 23 06 3e d0 f3 5c 3e
       -0.26305398 0.3434586 0.13099459 0.21577382
000070 49 2b a1 bd 6a b1 a9 bc 94 2c 44 3e 76 1e 38 3e
       -0.07869584 -0.02071448 0.1915763 0.1798037
000080 9a ec 96 3e aa d4 bb be a4 2f 0a 3e 57 b5 21 be
       0.29477388 -0.36685687 0.13494736 -0.15791832
000090 23 15 58 be 76 ab 55 3c 6c 1a 57 3d bb 4d 61 3e
       -0.21101813 0.013041368 0.052515432 0.22002308
0000a0 3a f4 50 be 70 5a 70 bd 15 d9 81 bc c0 12 bb 3d
       -0.20405665 -0.058679998 -0.015850583 0.09134436
0000b0 ee 68 98 3d 76 57 81 be 91 a4 1e be 33 60 6e 3d
       0.07441889 -0.2526204 -0.15492465 0.05819721
0000c0 88 63 9c bc 65 c6 88 3e be 15 08 3e 21 96 27 3e
       -0.019090429 0.26713863 0.13289544 0.16365863
0000d0 20 1b 6b 3e dc 85 00 bf 49 ac 81 3e eb 91 3a be
       0.22959566 -0.50204253 0.25326756 -0.18219726
0000e0 00 07 7b be c4 67 4b 3e 04 98 64 3e d5 46 f5 3c
       -0.24514389 0.19863802 0.22323614 0.029941002
0000f0 97 a4 95 3e 03 b9 a0 3e 03 b2 9d 3e ca 1d d4 bd
       0.29227135 0.31391153 0.30799875 -0.10357244
000100 39 fb af 3e f2 96 40 3e 46 b9 96 3e 51 5f aa be
       0.34371355 0.18807581 0.29438227 -0.33275846
000110 b5 fa 2c bb c6 88 41 3d b3 01 ff 3d 38 16 e1 3d
       -0.002639455 0.047249578 0.12451496 0.10990566
000120 db 2d 72 3e d7 f3 a2 3e 32 07 7c 3e 35 d4 a3 3d
       0.23650305 0.3182666 0.2461212 0.0799946
000130 fb 86 c0 3c 72 b7 3c be de d7 cb 3d 6a 15 51 be
       0.023501864 -0.18429354 0.09953283 -0.20418325
000140 0c 92 07 3e 08 68 78 3d 87 de bf 3d 8d b8 64 bd
       0.13239306 0.060646087 0.093686156 -0.055840064
000150 a2 a9 1c 3e 00 d3 24 be c4 ae ce bc c6 16 10 3e
       0.15299085 -0.16096115 -0.02522982 0.14071187
000160 53 fa 88 be 88 d1 38 3e 4e 46 6b 3e 9e 80 c9 bd
       -0.26753482 0.1804868 0.22976038 -0.09838985
000170 89 12 71 be a3 ea b1 bd dd 96 99 3e 85 30 80 3d
       -0.23542227 -0.086873315 0.29997912 0.06259254
000180 36 f6 3d bd 50 c7 f4 bd 04 88 ed 3d 47 9e 6a be
       -0.046377383 -0.11952078 0.115982085 -0.2291194
000190 a3 6d 22 3e e3 54 d1 be 09 95 37 be 10 a8 a2 3d
       0.15862136 -0.40885076 -0.17927946 0.07942212
0001a0 96 de ad be 9a 9f 3c 3e c2 e1 34 3e 5a 44 0b 3e
       -0.33958882 0.18420258 0.17664245 0.13600293
0001b0 3f a7 76 3e 06 d4 ac 3e 5e 38 32 3c 5c 42 39 bd
       0.24087237 0.3375551 0.010877697 -0.0452293
0001c0 4e ab 92 3d dc 05 da 3d 62 dc 1f be 72 63 45 be
       0.0716158 0.10645649 -0.15611413 -0.19276217
0001d0 6e 0f 5f bd c2 d0 5d 3e 5c a8 e3 3a 19 cf 2c be
       -0.054458074 0.21661666 0.0017368901 -0.16875876
0001e0 ac 91 77 3d cb ac 4c be 4b e8 bf 3e fa f4 e5 3c
       0.060441658 -0.1998779 0.37481913 0.028070915
0001f0 a9 70 c0 3d c8 22 e9 bd e7 73 8e 3e 05 f6 9f 3e
       0.09396488 -0.11383587 0.278228 0.31242386
000200 64 03 d3 be f0 06 ce be d1 8e a9 3e b3 a8 50 bb
       -0.41213524 -0.40239668 0.33116773 -0.0031838834
000210 82 d3 34 be c9 18 e0 bc f0 c3 a5 3e 78 9c 48 be
       -0.17658809 -0.027355568 0.3237605 -0.19590938
000220 01 82 4a bd b4 13 a9 bd c2 46 34 be 06 43 3f be
       -0.049440388 -0.08255711 -0.17605117 -0.18677911
000230 e6 61 af be eb 14 89 3e e0 38 ce be e6 97 aa be
       -0.34254378 0.26773772 -0.40277767 -0.33319014
000240 50 9c fc 3c fb 97 53 be 76 3a 4d 3d 33 ff c3 be
       0.030836254 -0.20663445 0.05010458 -0.3828064
000250 10 73 81 bd ca 26 33 3e 77 57 02 be f6 4d d5 be
       -0.063207746 0.17495266 -0.12728678 -0.41661042
000260 4c 18 92 be 9b 84 8f be 3b 84 a0 be f8 eb 4e be
       -0.28534162 -0.28030857 -0.31350884 -0.20207202
000270 d0 40 bf 3c 1a 2c 5e be c2 a0 50 3e a9 54 da bd
       0.023346335 -0.21696511 0.20373824 -0.10660679
000280 dd 9d 4a 3d 8e 23 43 be aa 6f cd be 6f 0f 6a 3d
       0.049466956 -0.19056532 -0.40124255 0.057143625
000290 53 d1 61 be 25 27 f0 bd 01 5c 82 be d9 0a 07 3c
       -0.22052507 -0.11726216 -0.25460818 0.008242332
0002a0 d3 9f d2 bd f4 2e 62 3d c3 a5 ad be 06 ed 34 3e
       -0.1028439 0.05522056 -0.3391553 0.17668542
0002b0 20 a5 56 3e d3 b3 4b 3e a5 80 94 3e 0c 3c 41 3e
       0.20961428 0.19892816 0.29004398 0.18870562
0002c0 35 4a 61 bd a6 6a 13 3d 57 8d 75 bc 95 18 95 3c
       -0.05500241 0.03599038 -0.014987311 0.018200198
0002d0 15 41 83 3e c6 45 7c 3d 4b 63 7f bd cf 92 06 bd
       0.2563559 0.06158998 -0.062350553 -0.03285485
0002e0 67 e4 86 3e ec 11 25 be db c1 6d be 7c e8 78 3e
       0.26346132 -0.16120118 -0.23218481 0.24307436
0002f0 cd 37 fe 3d 05 15 32 be cf 36 3a be 50 01 71 be
       0.12412987 -0.17390831 -0.1818497 -0.23535657
000300 bf 7a 86 bc 44 69 0b be d8 45 f7 bc fb 51 b3 3d
       -0.016415952 -0.13614374 -0.030184671 0.08755871
000310 73 dd a6 bd f6 ce 6e 3e f5 6b 40 be af 00 8e 3e
       -0.08147707 0.23321137 -0.18791182 0.27734897
000320 fe 6d 46 be c4 f1 c5 3c 63 d8 91 be 63 76 66 3e
       -0.19377896 0.024163134 -0.28485402 0.22506098
000330 f2 2f 9f 3d 11 0d 16 be 33 7b 71 be 70 d1 8c be
       0.07772817 -0.14653422 -0.23582153 -0.27503538
000340 78 4c 74 be 60 3d 12 bd 02 e2 3b 3e 88 04 91 be
       -0.23857296 -0.035703063 0.18347934 -0.2832377
000350 09 ef c2 3d 6d 2b 10 be 95 73 63 3c eb e6 14 be
       0.095182486 -0.14079066 0.013882537 -0.14541213
000360 aa f9 8c 3e dc ba 2d be de e0 95 bc 69 55 2b 3c
       0.2753423 -0.16965812 -0.018295702 0.010457375
000370 3b 88 8a 3c 67 1a 0b bd b2 ae 91 be ff 5b 48 be
       0.016910663 -0.033960726 -0.28453594 -0.19566344
000380 33 bc 50 be fb 89 3a be e2 12 0b 3b 18 92 b0 3e
       -0.20384292 -0.18216698 0.0021220972 0.3448646
000390 a1 f1 e0 bd 55 bd 85 be ed 56 1b be 68 ef 46 be
       -0.10983587 -0.2612101 -0.15169878 -0.19427264
0003a0 3b b8 0c 3e 53 e1 a9 be d8 23 8f 3e ca fb a2 bd
       0.13742153 -0.3317972 0.27957034 -0.07958181
0003b0 4d 7c a4 3c ee ef 27 3e fc 94 41 3e 11 01 26 3d
       0.020078802 0.1640012 0.1890449 0.04052836
0003c0 08 1e cd bd d9 e9 03 3e 2a 0d da bd 12 76 c1 3d
       -0.10015494 0.12882175 -0.10647042 0.09446348
0003d0 a7 ff ab bd 68 64 e1 3c b2 6a 9c bd 90 34 b7 be
       -0.08398371 0.027513698 -0.07637538 -0.3578229
0003e0 49 8c 24 bd 18 60 88 3d 8f 96 a9 bd 8b 06 77 bd
       -0.04017285 0.066589534 -0.0828067 -0.060308974
0003f0 de 46 e5 bd a5 d4 b8 bc 57 fa 9c 3e 14 45 85 3e
       -0.111951575 -0.022562334 0.30659744 0.26029265

net.2.weight f4 [256, 256]
000000 aa 35 49 bc de f5 24 bd 18 7f 99 3b 94 7f d2 3b
       -0.012280861 -0.04027354 0.00468434 0.0064239
000010 fc 18 c3 bd e0 a5 fe 3d de f0 08 3d 02 57 f7 3d
       -0.0952625 0.12433982 0.033432834 0.12077142
000020 3e 11 02 3d ec ac 0a bd 67 4d 4e 3d b3 10 17 be
       0.031754725 -0.033856317 0.050366785 -0.14752464
000030 69 3d 7b 3c 6a 17 c4 3c 23 e5 02 bd 3c cb ca 3d
       0.015334466 0.023936946 -0.031956803 0.09902045
000040 16 84 85 3c 60 3f ea bc 21 d4 0c 3d 89 29 ca bd
       0.016298335 -0.028594673 0.03438199 -0.098712035
000050 08 eb 4c 3d de 5b 0c 3e d4 7a 11 3c a4 2d 95 3d
       0.05002883 0.1370692 0.008879382 0.07284096
000060 bf e5 59 3d 59 5a b0 3c 2b b7 c3 3c c4 ef 55 3c
       0.05319762 0.021527456 0.023891052 0.013057653
000070 5d b7 f7 3d 16 6a 12 3d 34 9c ee 39 8b d6 5e bd
       0.12095521 0.035745703 0.00045511278 -0.054403823
000080 1b b9 d1 3c 6f 39 ff bd 4b a6 a5 bd ad 85 3a be
       0.02560096 -0.124621265 -0.080883585 -0.18215056
000090 bb f7 73 bd 24 c3 da 3b 55 16 ad 3d b7 7e 16 3d
       -0.059562426 0.0066760946 0.08451525 0.03674194
0000a0 4c f1 13 3c d6 14 60 3c d1 98 81 bd 31 87 43 3d
       0.009029698 0.013676843 -0.063279755 0.04773635
0000b0 06 b7 a8 3c 13 ab 02 3e 6c 87 19 bd 22 6c 05 bc
       0.020595085 0.12760572 -0.037482664 -0.008143457
0000c0 b1 59 8d 3d 8b dd 9e bd 4a 00 35 bd e8 51 7b bd
       0.06901873 -0.077571 -0.04418973 -0.06135741
0000d0 95 5c c3 bc 62 c0 29 bc 5c d9 91 bd d9 8f 9e bc
       -0.023847857 -0.010360809 -0.07121536 -0.019355701
0000e0 1b 57 0b bd e7 5d fd 3b 74 f1 06 bd c2 70 a1 bd
       -0.034018617 0.0077321413 -0.03294511 -0.07882835
0000f0 46 84 a5 bd 00 44 5a 3c e3 e0 8e bb 97 84 a1 3c
       -0.0808187 0.0133218765 -0.0043603047 0.019716544
000100 af 6c 9e 3c 9a 86 13 3d f4 31 e0 bd b4 22 18 bd
       0.019338934 0.036017038 -0.10947028 -0.03714247
000110 74 df 07 3d 4e 49 80 3d 53 82 2f 3d 25 9c 3f 3b
       0.033172086 0.06263982 0.042848896 0.0029237357
000120 e3 84 df 3b 13 ec 50 3d e0 c6 3a 3d 4d 2a 0e 3d
       0.0068212613 0.051006388 0.04559982 0.03470831
000130 96 92 a5 3d f3 55 92 bd 8b 29 9c 3d 94 ec 5b bd
       0.080846 -0.071453 0.07625111 -0.053692415
000140 95 90 36 bd b9 8a 44 3d 57 6b 10 3d 3a eb 01 3e
       -0.044571478 0.04798386 0.035258617 0.12687388
000150 8c fb ee 3b 8c 89 03 bd 64 19 7c 3c 73 e6 bc bc
       0.0072931703 -0.032113597 0.015386913 -0.023059106
000160 92 0e 04 bc b2 8a 87 3d 85 62 99 3d 75 fd 43 be
       -0.008060114 0.06618251 0.07489494 -0.19139655
000170 3c d5 47 3d 37 71 da 3c cc 39 a6 3d ca 2d 6c 3d
       0.04878734 0.026665313 0.08116493 0.057660855
000180 fc fc c7 3d 1a 0c 84 bd d8 55 2c 3c c7 ae f9 bc
       0.0976505 -0.06447621 0.010518514 -0.030478848
000190 3c e1 32 bc 99 60 4e bd d9 f4 ed 3c 98 31 e5 bc
       -0.010917958 -0.05038509 0.029047417 -0.02797775
0001a0 09 92 d6 bd 72 54 d4 3c 0f 2d 02 bd 73 ae 87 bb
       -0.10477073 0.025919173 -0.031781252 -0.004140669
0001b0 03 de 26 3d fa 5f 33 3c bb aa c7 bd c8 c8 23 3c
       0.04073907 0.010948176 -0.09749361 0.0099966
0001c0 e1 df 6b 3d 47 a5 bd 3d 8f 74 84 bd dc 5f db bc
       0.057586554 0.0926004 -0.06467544 -0.026779108
0001d0 95 07 fe bb d3 6a 26 3c b5 40 8d bc fb 79 74 bd
       -0.0077523687 0.010157305 -0.017242769 -0.059686642
0001e0 74 ba 8e bd 8a 48 16 be 12 f3 fa 3c ef 40 a3 bc
       -0.06969157 -0.14676109 0.030633483 -0.019928424
0001f0 06 72 2c 3b 89 8c 20 bd c1 54 c7 3d e6 d0 08 bc
       0.002631308 -0.039196525 0.097329624 -0.0083505865
000200 a5 92 17 bd 4a 8e a8 bd f7 b0 1c bd ae eb c1 bc
       -0.037005085 -0.082302645 -0.038254704 -0.023671951
000210 d6 75 52 bd e3 68 c0 bc 5a dd a6 bc 42 b4 a1 3d
       -0.05138191 -0.023487514 -0.02036922 0.078957096
000220 1b 7c b7 bb 53 8e b4 bb a8 20 49 be d1 ab b0 3c
       -0.0055995113 -0.0055101304 -0.19641364 0.021566303
000230 94 f7 19 3d 62 a8 11 bd 55 db bb 3d 87 8a e2 bb
       0.037589625 -0.035560973 0.09172694 -0.0069134864
000240 54 88 d2 bc 4d 16 e6 3c d5 c2 98 bd d8 bb 65 bd
       -0.025699772 0.028086806 -0.07459036 -0.056087345
000250 05 fc b9 bd 19 c7 95 3d c2 1a 55 3c cf 3c ae 3d
       -0.09081272 0.073133655 0.013006868 0.08507692
000260 c0 c1 87 bd cd 0d c7 bc 05 d3 4f bd 20 7c 87 3d
       -0.06628752 -0.024298573 -0.050738353 0.06615472
000270 ed 6d 0f bd 55 98 04 3e 6c 7c 88 3d 6a 61 c4 3c
       -0.035016943 0.12948735 0.066643566 0.023972232
000280 21 cd 2e 3d b6 16 0d bd 62 27 80 bc 09 6d 28 3d
       0.042676095 -0.034445487 -0.01564378 0.04111961
000290 04 0e 69 3d 5e e9 6a bd 7c 72 31 3e 63 2d df bc
       0.056898132 -0.057351463 0.17328829 -0.027243322
0002a0 37 f8 68 3d d2 4c 8b bd ea 62 8c 3d 6d c9 91 3c
       0.05687734 -0.06801762 0.06854804 0.017796243
0002b0 88 d7 7c bb 31 40 17 3d d7 7b 38 bb c6 f5 ee bc
       -0.0038580615 0.036926452 -0.0028149986 -0.029169928
0002c0 69 f3 cc 3c bb c8 20 3d af 17 29 bd 0a dd f8 3b
       0.02501841 0.03925393 -0.041282352 0.0075947093
0002d0 09 39 d2 3c a7 30 d8 bd 64 49 d0 bd da 04 9b 3d
       0.025661962 -0.10556155 -0.10170248 0.07569285
0002e0 41 09 8e 3c 26 49 93 bd 6c e0 63 bd bd 1f c6 3d
       0.017338397 -0.07191686 -0.055633947 0.09674022
0002f0 f9 17 48 bd bf a5 03 3d b6 08 5a 3d dc ed 09 bd
       -0.048850987 0.03214049 0.053230964 -0.033674106
000300 83 8e 39 3d 25 e4 14 bd 54 bf 87 ba 88 b0 c1 bc
       0.045301925 -0.036350388 -0.0010356703 -0.023643747
000310 18 26 9a bc 05 42 41 3d c6 54 ac bd 84 dc b5 3d
       -0.018816993 0.0471821 -0.08414607 0.08879951
000320 e9 b7 08 be 67 02 51 3d d4 ba 41 3e e7 f2 b6 3d
       -0.13351406 0.05102768 0.18918926 0.08933049
000330 e4 3f ae bc 40 ea 05 3d 94 49 a1 bc fe 16 6a 3d
       -0.0212707 0.0326941 -0.019688405 0.057150833
000340 15 43 45 3c a7 68 5d 3d 83 dd a4 3c 61 d6 e4 3c
       0.012039919 0.054054882 0.020125156 0.027934255
000350 c3 a1 b7 3d 81 22 f9 3c 55 3e 46 3d 31 64 be bc
       0.089664005 0.03041196 0.04839929 -0.023241134
000360 c7 f6 5c 3d fc c9 ef 3c 23 b2 54 bc 59 ca c8 3c
       0.053946283 0.029271118 -0.012981924 0.02451055
000370 23 09 1b 3c b7 c0 2a bd 27 29 26 bd ca 31 c5 3d
       0.009462628 -0.041687693 -0.04056659 0.09628637
000380 4c 46 d7 bc 80 cd 55 3d 7d 13 c5 bd cc 9c 7e bc
       -0.026278637 0.052197933 -0.09622858 -0.015540313
000390 5e 2a aa bb e1 d2 31 bd 53 88 af 3b 7c 55 9e 3d
       -0.005193039 -0.043414 0.0053568273 0.077311486
0003a0 55 df 3a bd f2 c8 c4 bd e1 51 f4 3c 89 7a ce 3a
       -0.045623142 -0.0960864 0.0298242 0.0015753071
0003b0 23 c4 bc bd eb 77 5c bb b9 16 0e bd 61 c0 d0 3b
       -0.092170976 -0.0033640813 -0.03468964 0.0063705896
0003c0 5d 27 fa 3c 2f a1 90 bc 84 ce 8a bd 60 90 b5 3d
       0.030536348 -0.017654983 -0.06777671 0.08865428
0003d0 87 4e 6a 3d cc f3 c9 bb 6b d1 46 3d 20 ce 05 be
       0.057203796 -0.006163096 0.04853956 -0.13066912
0003e0 f5 e4 be bc 4f b8 ec 3a 0e ca 58 3c 12 28 55 bb
       -0.023302535 0.0018060299 0.013231767 -0.0032525104
0003f0 17 23 fa bb 3f 39 12 3d e9 ab 2b bc c9 5c aa 3d
       -0.0076335776 0.035699125 -0.010477998 0.083184786

net.2.bias f4 [256]
000000 0b 90 f8 3b 5c f3 80 3d a7 a0 d4 3c cd 6d b3 bd
       0.0075855306 0.06296417 0.025955511 -0.08761177
000010 53 3d b1 3d dd fa 71 bd 06 ff 48 bc 5b 14 93 3c
       0.08654275 -0.059077132 -0.012267834 0.017954042
000020 c3 1c 74 3d 51 95 e4 bc b7 21 0e bd fc 9c 87 3c
       0.05959774 -0.02790323 -0.03470012 0.016554348
000030 bb a9 91 bc 40 4e 84 bc 89 c8 83 3d d3 17 90 bc
       -0.01778113 -0.016150594 0.064347334 -0.017589485
000040 b1 c8 cb bd 5d 84 7d 3d 0b 00 16 be c7 2f c9 3c
       -0.09950388 0.06189381 -0.14648454 0.024558915
000050 b9 1b d7 bc 9a 88 5a bc e9 9a cd ba ed 71 95 3d
       -0.026258336 -0.013338232 -0.0015686426 0.0729712
000060 12 b7 cb 3d e7 e4 05 3d a7 51 c2 bd 50 fd 8e 38
       0.09947027 0.032689 -0.0948823 6.818271e-05
000070 b7 7b 5f bc 2e c4 5a 3d e1 e4 8d bd 79 f9 38 bc
       -0.013640336 0.053409748 -0.06928421 -0.011289948
000080 65 9d 37 bd 04 35 5c bd 23 eb 8e bc 18 0c ee 3a
       -0.044827837 -0.053761497 -0.017446106 0.0018161563
000090 66 9c c7 3d cd d7 88 bd 26 67 28 3d e7 55 2f 3c
       0.097466275 -0.06681786 0.041113995 0.010701633
0000a0 68 fa 0f 3c 6d 4f 36 bd 74 c3 a8 bc ed 1c b9 3d
       0.008787729 -0.04450934 -0.020601012 0.0903872
0000b0 38 d9 85 bc 7f 40 64 bd 05 d4 84 3c bf 89 bf bc
       -0.01633893 -0.05572557 0.01621438 -0.023381112
0000c0 e3 84 de 3d 25 28 ab bc a1 3d 14 3e de f7 f7 3c
       0.1086519 -0.020893166 0.14476635 0.03026956
0000d0 69 21 c8 3d d7 cd 94 3c 95 9f 42 3d 6c 72 88 bd
       0.097719975 0.018164558 0.04751547 -0.06662449
0000e0 a7 67 7e 3d a8 43 f4 3c bf 1d fb bd ae 41 54 bd
       0.06211057 0.029817417 -0.12261533 -0.05182045
0000f0 63 e7 a6 bd c1 8f 95 3d b0 d4 a1 3d 13 4b 0b bd
       -0.08149602 0.073028095 0.07901895 -0.034007143
000100 7e 08 db 3d 75 cd cf bd c4 77 ee 3c a7 68 70 3d
       0.10694979 -0.1014661 0.029109843 0.058693554
000110 04 23 73 bb d4 a2 97 bd 9a e5 36 3d 11 d9 75 bd
       -0.0037099728 -0.07404104 0.04465256 -0.060021464
000120 c9 32 e5 3d 50 1b bb bc fb b8 25 bc cb 59 3c 3d
       0.11191327 -0.022840172 -0.010114904 0.04598407
000130 5a d0 95 3d 51 5c bb 3c 82 9a 79 3d e2 23 e5 3c
       0.073151305 0.022871168 0.060938366 0.027971212
000140 ea 4a cc 3d d7 6d c8 bb 77 8d 19 bc 3e 74 4e bd
       0.09975226 -0.0061166096 -0.009372107 -0.050403826
000150 04 39 d6 ba d4 55 0e 3c 02 9c b8 bb 3c 84 82 bc
       -0.0016343896 0.008687455 -0.005633832 -0.015932195
000160 b6 a3 7c 3d 3b 15 74 3d 10 48 0a 3c 53 e2 76 3c
       0.061679564 0.05959056 0.008440033 0.015068608
000170 45 37 0e 3d f7 cc c9 3d aa 6a c3 bd 15 c5 79 3d
       0.034720678 0.09853547 -0.09541829 0.060978968
000180 c2 26 0f 3e 97 5e d0 3b a3 86 ef 3d cb 8b 10 3d
       0.13979629 0.0063589322 0.11695602 0.035289567
000190 36 2c d4 bb 2e 67 c8 bd 0f d1 0c bd 29 5b 60 bd
       -0.006474997 -0.09785305 -0.03437906 -0.054774437
0001a0 72 da 62 bd c9 98 f1 3d 6d 0f 6a 3d 45 92 28 3d
       -0.055384107 0.117967196 0.057143617 0.04115512
0001b0 16 f8 fb bc 38 c9 46 3c 3a c4 03 3c 10 97 28 bd
       -0.030757945 0.012132935 0.0080423895 -0.04115969
0001c0 c7 83 1c bc e4 40 d4 bb e5 47 72 3d 41 f0 8b 3d
       -0.009552903 -0.006477462 0.059150595 0.06832934
0001d0 d7 d1 13 bd 4f 10 94 3c d3 8d 21 3d 7e 02 61 3d
       -0.03608879 0.018074183 0.039441895 0.054934017
0001e0 14 42 72 bd be bc 57 3d a6 86 1c 3d ad 30 ea bc
       -0.05914505 0.052670233 0.03821435 -0.028587664
0001f0 47 76 77 3d 04 05 dc 3c 0e 61 4d 3c af eb 35 3c
       0.060415532 0.02685786 0.012535347 0.011103555
000200 f6 fe ae 3d ac 4e 7d 3d 41 af 04 3e 01 e1 a7 3c
       0.08544724 0.061842605 0.12957479 0.020493032
000210 c9 c6 cc 3d c2 ed d0 3c ae ae ab 3c 89 bc bb bd
       0.09998853 0.025503997 0.020957317 -0.091668196
000220 0d 8b 09 bc bf 10 82 bc c1 0c 57 3d 1a bd 8c 3d
       -0.008394969 -0.015877126 0.052502397 0.06872006
000230 66 39 88 bd 64 c4 c8 3c 73 17 94 3d 3f 98 88 bd
       -0.06651573 0.024507709 0.07231035 -0.06669664
000240 e7 11 46 bc e2 d6 ea 3c d4 4d 32 3c a5 c1 45 3c
       -0.012089229 0.028666917 0.0108828135 0.012070094
000250 cb 05 d4 3c df 03 82 bc b9 75 8f 3d 10 50 69 bd
       0.025881669 -0.015870987 0.07004876 -0.05696112
000260 8d 58 41 bd b2 01 7b 3b fc 16 7a 3d 9f 96 3b 3d
       -0.04720359 0.003830057 0.061057076 0.04579794
000270 bd 3b 5f 3d 07 f4 6e 3d b9 4e cb 3c f7 21 93 3d
       0.05450033 0.05833819 0.024817811 0.07184213
000280 5f 67 72 3c ae 53 8f 3d 8d ea 43 3d 7c ae 3a bd
       0.014795153 0.069983825 0.047831107 -0.045576558
000290 e0 80 46 bd 28 11 a1 3c a2 3b e9 3d 9e 4e 50 3d
       -0.04846275 0.019661501 0.11388327 0.050856225
0002a0 10 c7 4b bb 5c 69 35 bd 97 bf e5 3b e9 58 84 bd
       -0.0031093992 -0.04428993 0.0070113647 -0.06462271
0002b0 a1 d2 4b 3c fc 9c dc bc 34 56 a7 bd b3 a9 c6 3d
       0.012440355 -0.026930325 -0.08170739 0.09700336
0002c0 49 c0 16 be 8d d2 90 3d 9f 5c be 3d c4 f6 88 bd
       -0.14721788 0.070714094 0.0929501 -0.06687692
0002d0 be d3 8f 3d 52 b7 47 3d 38 d8 31 bd 94 c4 d0 3c
       0.070228085 0.048758812 -0.043419093 0.02548436
0002e0 30 be 0d 3e 39 d9 a7 bd 67 04 2a bd c2 57 05 3e
       0.13842082 -0.08195729 -0.041508105 0.13021758
0002f0 63 08 27 bd 26 9d 2b bd 08 92 a0 bd 8e 00 38 3d
       -0.040779483 -0.041897915 -0.07840353 0.044922404
000300 ab 69 96 bd ba 7e e8 bd b2 5f b4 bc 74 48 00 3d
       -0.07344373 -0.11352296 -0.022018287 0.031319097
000310 e1 11 eb 3c 3e f9 48 bd c8 59 20 bd 3a c6 69 3d
       0.028695049 -0.04906582 -0.039148122 0.05707381
000320 b1 81 ed bd 1c 5c 38 3d d7 9e 11 be 5e af 4d 3d
       -0.11597002 0.045009717 -0.14220749 0.05021607
000330 1a ba dc 3c 55 59 04 3e 64 d8 7b 3c a4 cf 8d 3d
       0.026944209 0.12924702 0.015371416 0.0692437
000340 0f 36 85 3d 37 34 43 bd 1e e2 3e 3d c1 b3 72 3d
       0.065044515 -0.047657218 0.04660236 0.059253458
000350 fb 56 95 bd ac 87 09 bc cc 10 3b bd d3 57 56 3c
       -0.07291981 -0.008394163 -0.045670316 0.013082462
000360 9b 22 9c 3d 13 50 81 3d b6 ad 19 bc 1d 5e 87 3b
       0.07623788 0.06314101 -0.009379795 0.004131092
000370 b5 7e c9 3d d3 80 22 bd 5d 2e 8c 3c b4 e0 9e 3c
       0.098386206 -0.039673638 0.017111951 0.019394256
000380 04 47 02 3d 5f ce 75 bd 14 2a b9 3c 99 97 93 3d
       0.031806007 -0.060011264 0.022603072 0.07206649
000390 da fe 29 3d 50 72 88 bc 76 63 07 3d 65 fd 36 3d
       0.04150281 -0.016656071 0.033053838 0.04467525
0003a0 64 15 7a 3d 3c b3 78 bc cc 78 f8 3c af c3 ae 3d
       0.061055556 -0.015179452 0.030331038 0.085334174
0003b0 55 84 ed bb 1b 0e bf 3d 79 df 84 bc fb 1c 0f bd
       -0.007248441 0.09328862 -0.016219841 -0.034939747
0003c0 e6 22 8b bd 89 6c 0f 3e 19 9d 37 bc 8b 70 0f 3e
       -0.06793766 0.14006247 -0.011206889 0.14007775
0003d0 10 d1 40 3d 29 85 f5 bc 48 12 b4 3c a7 52 69 bd
       0.047074378 -0.029970722 0.021981373 -0.05696359
0003e0 fd 5c e6 bd da 26 c9 bd 96 4a 03 bd d9 0a a3 3d
       -0.11248205 -0.098218635 -0.032053553 0.079610534
0003f0 9a 6f d0 3c d0 b1 8d bd 17 b9 bc bc 89 e4 11 3d
       0.02544384 -0.06918681 -0.023037476 0.03561834

net.4.weight f4 [6, 256]
000000 2a 57 b3 bd f1 73 91 bd a0 9c d3 bd e0 5b 29 3e
       -0.087568596 -0.07102192 -0.10332608 0.16538954
000010 cf 46 20 3d 8d 80 a3 be cc 6e 1c 3e 80 94 19 3c
       0.03913003 -0.31934014 0.1527664 0.009373784
000020 f0 e3 eb bc 0a 24 29 be 6a ec ba 3d d9 58 72 bb
       -0.028795213 -0.16517654 0.09127124 -0.0036979227
000030 00 1c 4f 3c 11 22 81 bd e2 bc 86 3d ea a7 bd bd
       0.012640953 -0.06305326 0.06578995 -0.09260543
000040 16 fa 39 bc 99 09 4a 3e 82 13 7c 3d bd 27 6d 3a
       -0.011351129 0.19730224 0.06154204 0.0009046754
000050 dc c6 a9 3c 28 c6 b5 bd 1e 16 88 3d a9 ea 20 3e
       0.020724706 -0.08875686 0.066448435 0.15714516
000060 38 e8 a2 bb 73 3d 33 bd 60 8f 21 3e 01 29 e6 bd
       -0.0049715303 -0.043759774 0.1577735 -0.112382896
000070 21 41 c6 bb 0f b8 f0 3c 4d 99 10 be 51 b2 14 bd
       -0.0060502444 0.029384641 -0.1412098 -0.03630287
000080 f2 0c 8b 3e d7 70 ad 3d 00 ac 73 3d 76 1d 3b 3e
       0.27158314 0.08468788 0.059490204 0.18272957
000090 65 82 2c bd 0c 84 ec ba 78 26 44 3d 4f 8a e5 3d
       -0.04211654 -0.0018044724 0.04788825 0.11208021
0000a0 81 15 8c bc ca e7 d3 bd 3e 52 2e be c2 0d a1 3c
       -0.017100098 -0.10346945 -0.1702356 0.01965988
0000b0 c3 1b 70 bd 53 87 85 3e 3c fb 28 bd df 17 9f 3d
       -0.058620226 0.26079807 -0.04125522 0.07768225
0000c0 af 7a d7 bc 0a 34 ad 3d f2 dd ca bd 06 c3 8d 3e
       -0.026303617 0.08457191 -0.09905614 0.27687854
0000d0 eb 79 df 3c 94 28 71 3b 8f bb 0f 3e a8 b7 39 be
       0.027279815 0.0036797868 0.14036392 -0.18136466
0000e0 8e 43 3f 3c 3a 8c 15 3d d3 d1 ae bd 9b 40 3f be
       0.011673821 0.036510684 -0.085361145 -0.18676989
0000f0 f7 cb 2b bc e5 f1 b4 bc 69 99 28 3e 0f 8d ca be
       -0.010485641 -0.022088 0.16464771 -0.39560744
000100 6f 1a 16 bd 69 96 46 3e 1e a6 9f bd be 9b 33 be
       -0.036646303 0.19393314 -0.07795356 -0.1753988
000110 83 89 d7 bc f6 92 3f 3d 43 a8 0a 3c 7b 0a db bc
       -0.026310688 0.046771012 0.008462968 -0.026738396
000120 0f b6 f6 3d 89 1c 5f bd b6 92 82 be 3c c7 93 bd
       0.12046444 -0.054470573 -0.25502557 -0.07215735
000130 fd de b1 3d 0a 92 ae bd a8 e1 3d 3d 0b d3 4d 3e
       0.0868511 -0.085239485 0.04635778 0.20100038
000140 86 bb 19 3e 1d 66 18 be 4e e8 57 be 02 64 66 bd
       0.15012941 -0.14882703 -0.21084711 -0.05624772
000150 57 eb a6 3c 70 23 a4 bd ab aa c4 be ea f1 48 3d
       0.02037589 -0.08014572 -0.3841146 0.049058832
000160 c6 16 9c bd 07 ce d0 3d 22 ed 87 3d 5c b1 11 3e
       -0.07621531 0.101955466 0.06637026 0.14227813
000170 eb e7 5b 3d 62 5b e9 bc ec 07 d8 bd df d4 12 bd
       0.05368797 -0.028485958 -0.10548386 -0.03584754
000180 87 cd 7e 3d 48 cd d1 3d 1d 5c 09 be 7b a9 98 bd
       0.062207725 0.102442324 -0.13414045 -0.07454201
000190 00 22 ed bd e2 3f 3f be 6e 11 d9 3c e5 93 24 be
       -0.115787506 -0.18676713 0.026497569 -0.16072042
0001a0 5d f0 b8 bc 3e 54 26 3c bb 08 13 be f9 cf 90 3d
       -0.022575552 0.010151921 -0.14358799 0.07070918
0001b0 01 f6 33 bc ec ea 1b 3d 12 f9 35 3d 4f 79 f3 bd
       -0.010983945 0.038065836 0.044426985 -0.11888372
0001c0 ab 68 19 3e 79 cb 8a 3d 9b ef cb 3d af ef 03 3e
       0.14981334 0.067770906 0.099578105 0.12884401
0001d0 67 bd 8d be b8 ab e3 3d 66 c4 65 bd 1d 8d d3 3d
       -0.27683565 0.11116737 -0.056095503 0.103296496
0001e0 ce f3 bc bd 5e 6f a3 3d 68 25 77 3c 55 bd d3 bd
       -0.092261896 0.07980226 0.015084602 -0.103388466
0001f0 9e 55 73 3d 24 24 cd 3c 63 8d c9 bd d2 0e 99 3d
       0.059407823 0.025041647 -0.098414205 0.0747353
000200 dc 31 22 bd be e6 a5 bd df 32 a2 3d b3 7b dc 3d
       -0.03959833 -0.08100651 0.07919859 0.10765781
000210 e0 99 56 3d 8d e4 22 bd fa 34 42 3c 87 f1 f0 be
       0.05239284 -0.039768744 0.011853451 -0.4705927
000220 a6 0b e3 3d d8 c7 aa bd 60 a2 e1 3d 12 95 78 3c
       0.11086206 -0.083388984 0.11017299 0.01517226
000230 09 e2 0d 3c 3c d7 20 bb 92 2c 1c 3e a7 af 9f bd
       0.008659848 -0.0024542352 0.15251377 -0.07797175
000240 82 9d 88 bd db a5 ba 3d 1f ae 5d bc 1d 7e 29 bd
       -0.06670667 0.09113666 -0.013530283 -0.041380037
000250 a0 eb 39 be 74 25 d1 3d 76 63 cd bd e3 e6 b8 bd
       -0.1815629 0.10212222 -0.10028736 -0.09028413
000260 50 0d 26 be ed a8 f2 3d 2d 19 86 3d 86 2d d2 bd
       -0.16216016 0.11848626 0.06547771 -0.10262589
000270 10 a5 c4 bd 8f 4e 96 3d 50 1e a3 3c a9 db a8 bd
       -0.09601796 0.073392026 0.019911915 -0.08245022
000280 4f e8 19 bd 2c 93 99 3d 0c c4 42 3d 84 46 08 3e
       -0.037575062 0.07498774 0.047550246 0.1330815
000290 8f 5e 05 3e 5b f1 64 3c fc ed 5b bc ff aa 06 3e
       0.13024352 0.013973559 -0.013423439 0.13151167
0002a0 cb 69 81 3d bc 0e d3 3c 5f 62 cc 3d ea 18 a3 3c
       0.063190065 0.025763862 0.099797 0.01990934
0002b0 fd 99 a1 3c d0 8f 99 3c 69 0f 3b 3b 7f 96 aa bd
       0.019726748 0.018745333 0.002854312 -0.08329486
0002c0 b4 4e b2 bd b6 da c8 3d 3c 56 0f 3e 9c 8c 02 3e
       -0.08706418 0.09807341 0.1399774 0.1274895
0002d0 01 98 bb 3d 7e e8 f2 3d 81 2e 47 3e 83 8a 56 3e
       0.09159852 0.118607506 0.19451334 0.20951276
0002e0 b3 40 7d bc 98 ca f0 bd 5f 99 4b bd 39 9d 37 bd
       -0.01545732 -0.11757392 -0.049706813 -0.044827674
0002f0 e4 f6 15 3e 6a b7 b1 bc 43 a0 dc bd 35 b7 c8 bd
       0.14644963 -0.021693904 -0.10772755 -0.09800569
000300 d7 e7 16 be f0 c6 9e bc 9c ab 2a bb a0 66 4a bd
       -0.14736877 -0.01938197 -0.0026042229 -0.049414277
000310 39 f8 38 3c 95 99 87 be 08 62 c9 3c 4f 4f f6 bd
       0.01128965 -0.2648436 0.024582878 -0.12026846
000320 6c f3 77 3c 74 49 20 bd b2 c3 32 3b d7 71 c8 bd
       0.01513372 -0.03913255 0.0027277288 -0.09787338
000330 7b 2a b5 3d 21 fd 1f be f8 f2 35 3e 00 3b 52 bb
       0.08845993 -0.15623905 0.17768466 -0.0032078624
000340 19 03 22 3e 29 1f 98 bd 05 22 76 be 97 38 d6 3d
       0.15821494 -0.07427818 -0.24036415 0.104600124
000350 d1 29 64 3d a5 19 cd bd fe f0 21 3d f2 2c 3f bc
       0.05570394 -0.10014657 0.03953647 -0.011668431
000360 eb e1 b8 bd bb 32 43 3d 54 df b6 3d b3 bd 61 bd
       -0.090274654 0.047655802 0.08929315 -0.055112552
000370 8a bd bc 3d a0 1d e9 bc b0 2e e9 3b 5f 4a c3 bc
       0.09215839 -0.02845651 0.0071161613 -0.023839174
000380 2d 00 07 3d ce 58 9b bc c5 95 9b bd e3 bb c6 3d
       0.032959152 -0.018963244 -0.07596926 0.09703805
000390 41 e0 2f be 7f 31 18 3d 84 82 bf 3d 73 dd 03 3d
       -0.1717539 0.03715658 0.09351066 0.032193612
0003a0 cd 51 0a 3e bf bb e3 bc 9f 48 24 3e 88 70 5e bd
       0.13507767 -0.027799485 0.16043328 -0.054306537
0003b0 62 e5 12 bd f5 42 c8 bd 2b 45 40 bc c5 4c 8a bc
       -0.035863288 -0.09778396 -0.011735241 -0.01688231
0003c0 19 dc 2e bd 34 0b 10 3e f5 bd 41 3e 76 88 fa 3d
       -0.04269037 0.14066774 0.18920119 0.12233059
0003d0 b8 64 16 3e 83 2d 94 bd 8e 11 13 bd 31 29 a0 3c
       0.14686859 -0.07235243 -0.035905413 0.019550892
0003e0 73 7e ea 3d 30 bd 16 3e fe fe 3d bc 07 0c a5 3c
       0.114498995 0.14720607 -0.011596439 0.020147337
0003f0 ee a8 df bd 7c cb 45 3d 31 af 8e 3d 88 1f 8a bc
       -0.10920893 0.04828976 0.06967009 -0.016860738

net.4.bias f4 [6]
000000 c5 b3 a1 3d 48 e4 e2 bc 23 9e 35 3d 4c c7 a0 3c
       0.078956164 -0.027696744 0.044340264 0.019626282
000010 46 bf 39 3d f7 1b 42 bc
       0.04534843 -0.011847488
