iql_hopper_medium_replay_v2_seed2.pt (torch, 842140 bytes, 16 tensors)

backbone.net.0.weight f4 [256, 11]
00000000: 0f42 e4be b768 9d3d 6633 afbd a610 873e
00000010: 7ca1 ab3e 2f05 01be 30c2 053e 73cf 4abe
00000020: 0b5c c33e 1fcc 0ebe 6443 4cbf c3a5 c93d
00000030: 619b 1bbe e608 323d ebfb 393f 3816 5f3e
00000040: 2cf1 8b3d 7f37 04bf 26b3 623d afc5 52be
00000050: 3491 2f3e 12d9 e2be 1cdd 643e ec09 7c3e
00000060: 1d3f c2bd 0301 ae3d 7a51 2d3e ecee ecbd
00000070: 1b0d e6be 1352 9e3e 6db8 cebe f755 89be
00000080: 8027 babe 817e dfbe 5c64 15be ec06 113c
00000090: c132 e53c 8657 653e 81c1 9f3b f296 923e
000000a0: bb6a aabd effa 253e 743a fe3d 3688 753e
000000b0: 77b8 a4be 1023 97bd 94f7 b93e bc07 7a3d
000000c0: bbf4 6a3e 336a 653e 7d7a 703d 7812 06bc
000000d0: 8567 343e f04b 4cbd f744 a63e f237 673e
000000e0: dc7f 153e 96ab 9dbd 8448 46bc 8953 29be
000000f0: cb79 80be e90e 8c3d 9cdf 3fbd b736 7cbe
00000100: 5659 27be 60bb d63d 005d 87be 21c5 92be
00000110: 7dac 3b3e c36f 1c3e 98f6 223e 40a5 52be
00000120: 993e ecbe 5d1d 73be b0d3 b73c 4c34 b83e
00000130: 896f 65be 4963 8ebd 89f5 b5be 51d3 503e
00000140: 32b5 3fbe e91b 9abd aff3 db3d 81b6 44be
00000150: 4a62 7abd b9b4 86be f878 f93d 7e11 89be
00000160: c271 2a3e 101b 4bbe 7daf 343e fc3c df3e
00000170: 3734 e4bb effe b6be cace c53e 9230 10be
00000180: 33f9 0abe 0e05 58bd fef2 b1bb 7b77 853e
00000190: 8018 493d 4691 79bd 2073 2dbd 9bc6 c23e
000001a0: 3315 103d 9d16 0cbf 9931 0cbe 480b f7bc
000001b0: 37b7 033e c5ad 28be 2369 0bbc d571 f1bd
000001c0: f95f 54bd ac22 8abd ee68 a4bd fde1 a43e
000001d0: 6f43 54be 56d0 edbd ea2e b63e edd3 9c3e
000001e0: 3fea 153e 94c7 09be 9fa8 be3d fa4b 103f
000001f0: 1cb2 34be 1f27 823e db24 b6be 8123 59be
00000200: 6332 b1be 4120 833e 5626 cc3e e42c 213e
00000210: 9f25 3abe da5a adbc 5864 103e 5f13 a63d
00000220: 7eca 5abe ab70 e9bd 1b9c 3ebe 1901 703e
00000230: 7ce0 8abe 90cc 97be c796 62be c49c 01be
00000240: 2ab5 b7bd 6bae 5abe 63b9 98be 853d 7b3e
00000250: 1646 733e c40a 0e3d cb8b 593c 3a0d 04be
00000260: 0d3f b2bd 7341 8cbe 0d37 213e d703 98bd
00000270: 9433 b2bd 4498 153f e4e3 483d 427e 133e
00000280: a00b 29be 8b77 60be 5b3b 5a3d 7ead 943e
00000290: c5c5 1e3d 0814 6abd d8bb 283e 2ea5 633d
000002a0: 0af9 fd3e 5eff a13e 71a8 973e 91a0 fd3d
000002b0: 622d dd3d df1a cdbd 7261 193d 2e80 a3be
000002c0: 4307 9f3e 87c2 0b3f 349c 2c3c 4b4d 8dbe
000002d0: f32f d43d e8db d63d 0af2 2bbf 054d 5bbd
000002e0: 2389 863e 66b3 773e 5c94 31be 4ace f43d
000002f0: 196f b5be 3ac7 3e3e 5ead 2e3e 81bc a1bd
00000300: a3f7 a2be 2216 873e f7da 89be 9ba0 023f
00000310: 4071 943e 1980 0cbf 8530 9f3e 3878 373e
00000320: e1d7 283e e427 c5bd 8f96 72be 90d4 4a3f
00000330: bf6a d53e 8d0a fcbc 84f9 babd 32fe 0abd
00000340: f95d 7dbe d288 03be bb58 103d 1215 00be
00000350: c32b 433e 9249 743e 5299 8bbd 2ff2 553e
00000360: 44bd 81be 161a a93e 7db7 033e 63e9 4abd
00000370: 1c7c a7bc 892a 763c 0a89 9c3e 5d1f 293e
00000380: ed48 653d b590 d73e c4e2 1ebe a5ea 8d3d
00000390: 18a0 383e 7e91 50be b646 23bd 72ed 853e
000003a0: 1462 4d3d b764 03bf e808 cd3d 628e 783d
000003b0: 4c74 9dbe e1d7 c93e d509 093e 132b abbe
000003c0: 4c9a 713e 6401 003f 623e 223f 4dab 21bd
000003d0: d48c ac3e b3b2 5bbe fdab a83e 9b1b 8f3e
000003e0: c916 993e 23bf 51be 4bc1 11bd 0dd1 703e
000003f0: 612b cd3e 5ad2 133c 0863 95bd 437e 04bc
-0.4458165 0.076859884 -0.08554725 0.2637989 0.3352164 -0.12599634 0.13062358 -0.19805698
0.3815616 -0.13945054 -0.7979033 0.0984607 -0.15195991 0.043465517 0.7265002 0.2178582
0.06833109 -0.5164718 0.05534663 -0.20583223 0.17145234 -0.44306237 0.22349972 0.2461316
-0.09484694 0.08496287 0.16925612 -0.11569008 -0.44931874 0.30921993 -0.4037508 -0.26823398
-0.3635826 -0.43651202 -0.14589065 0.008851748 0.027978303 0.22396669 0.0048753624 0.28630787
-0.083211385 0.16209005 0.12413493 0.23977742 -0.32171986 -0.073797345 0.363217 0.061042532
0.2294492 0.22403793 0.058710564 -0.008183114 0.17617615 -0.049877107 0.3247449 0.22579935
0.14599556 -0.07698743 -0.01210225 -0.16535772 -0.2509292 0.068387814 -0.04684411 -0.24630247
-0.16342673 0.10484958 -0.2643814 -0.28666022 0.18327518 0.15277009 0.1591438 -0.2057085
-0.46141508 -0.2374167 0.022439808 0.359774 -0.22405829 -0.06952531 -0.3553889 0.20393111
-0.18721464 -0.07524855 0.10739838 -0.19210245 -0.061128892 -0.26309755 0.12181276 -0.26771158
0.16644958 -0.19834542 0.17645068 0.43601215 -0.0069642323 -0.35741374 0.3863433 -0.14081028
-0.13571624 -0.052739196 -0.0054305783 0.2606772 0.04909563 -0.06092956 -0.04234612 0.3804215
0.035176467 -0.54722005 -0.13690795 -0.030156747 0.1286286 -0.16472538 -0.008508953 -0.1178929
-0.05184934 -0.067448944 -0.08027826 0.32203665 -0.20728849 -0.116120026 0.35582668 0.30630437
0.14640139 -0.1345504 0.09309506 0.5636593 -0.17646068 0.25420472 -0.35574993 -0.2120495
-0.34608755 0.25610545 0.39872998 0.1573978 -0.18178414 -0.021161485 0.14100778 0.081091635
-0.21366307 -0.11398443 -0.18614237 0.23437919 -0.27124393 -0.29648256 -0.2212783 -0.12657458
-0.08970101 -0.21355598 -0.2982894 0.24535187 0.23757204 0.034678236 0.013277958 -0.1289567
-0.08703432 -0.27393684 0.15743656 -0.074226074 -0.08701244 0.58435464 0.04904546 0.14403632
-0.16508341 -0.21920602 0.053279262 0.29038614 0.038762826 -0.05714801 0.16477907 0.05557745
0.49604064 0.31640142 0.29620698 0.12384141 0.10799672 -0.10014891 0.037446447 -0.3193373
0.31060228 0.545937 0.010535289 -0.27598032 0.10360708 0.104911625 -0.671662 -0.05354025
0.26276502 0.24189529 -0.17341751 0.11953409 -0.35436323 0.18630686 0.17058322 -0.078972824
-0.31829557 0.26384073 -0.2692487 0.51026314 0.28992653 -0.5488296 0.31091705 0.17916954
0.16488601 -0.09626749 -0.23690246 0.79230595 0.41683003 -0.03076675 -0.091296226 -0.033933826
-0.24742879 -0.12845162 0.03524087 -0.12508038 0.19059663 0.2385619 -0.06816353 0.20893167
-0.2533971 0.33027714 0.12862964 -0.04953898 -0.020444922 0.01502479 0.30573303 0.1651587
0.05597775 0.4210259 -0.15516192 0.069295205 0.18029821 -0.20368001 -0.039862357 0.2615772
0.050142363 -0.51325554 0.10011464 0.06068266 -0.3075279 0.39422515 0.13382657 -0.334313
0.23594016 0.5000212 0.6337644 -0.039470006 0.33701193 -0.21454887 0.32943717 0.2795075
0.29900196 -0.20483069 -0.03558473 0.23517247 0.40072158 0.00902232 -0.07294279 -0.008086744

backbone.net.0.bias f4 [256]
00000000: fe35 17bf eb25 14bf 47d2 03bf 9e62 4f3d
00000010: 61d5 013e 00b5 813e f6c6 9fbd 6e16 c0bc
00000020: dc90 88bd 9500 1b3e 2f95 463e 904f 07bf
00000030: 3515 253d 4f24 28be 8d48 03be 407f 03bd
00000040: 1da5 e5be 4a99 fabd 7c2f 3abf e857 dd3d
00000050: 344f 393e 73e9 acbe 9c65 b9be db51 31bd
00000060: ec09 bf3c 4aeb f5bd 50d8 7cbe b611 9dbd
00000070: 1a70 91be 10b8 8ebd e9ad 15bf e349 053d
00000080: 7531 3b3e 0ae6 68be 594b bfbe 1f14 09bf
00000090: 0b8e e93d 3c31 033e cfb2 adbd e20c 08be
000000a0: fee4 1fbf 5148 a03d e1b0 e13d 3baa 87be
000000b0: a5fb 12be 9206 e3be 1749 c1bd 458f 9ebd
000000c0: 99d2 30bf 1120 1d3e c088 89be 0775 c7be
000000d0: e88f 59bd 9dbc 0c3e 462b 96be 8bb8 14bf
000000e0: 2c50 593e 2f84 cbbe db22 303e 54ef 17be
000000f0: b9a4 38bf db1a b3be e3b6 9a3b 6ea1 c9bd
00000100: a5fc 93be a888 0ebf dd04 fabe f5e2 90be
00000110: c0fc 723c 4413 cdbe 5087 d1be 345e bdbe
00000120: 34c1 ea3d e35d 8d3d ecf5 8bbc 4e96 9cbe
00000130: c799 17be 5d88 203e 9bfc 9abe d7a2 1bbe
00000140: 5d48 5ebd e34d 45be b3be 263e d0cc 0bbe
00000150: a48f f9be e6a5 b7be 0725 0cbf e313 323e
00000160: 19d9 05bf f781 0dbe 39b0 34be 118e 133e
00000170: 8a98 993d e01d 0ebf 23e2 5dbe 3377 0a3e
00000180: a320 b8be 7e51 bebe d797 06bf e255 bfbe
00000190: 3a08 8ebe f9e8 93be f918 36be 5716 5cbe
000001a0: e7e9 8a3c 2b84 2e3d 6979 7d3d 861f fdbd
000001b0: b8f6 1cbf 1428 d3bd a53f 313d bec4 57bd
000001c0: 4327 033e f7dc 323b b79b 26bf 123c c5be
000001d0: ba2c 0c3e bfcd 01bf 1bf6 acbd 90fd 86be
000001e0: 2ca8 ba3d 2079 adbe 41ca ddbd 5355 87be
000001f0: ad84 05bf e876 f0be 91b5 d13d fa6f 5fbe
00000200: 2f15 b2be 87ce bdbe 8699 8bbe b3ce d5be
00000210: 024c 0b3e 6d0e 433d a1f3 4c3e c983 bfbe
00000220: 0c34 dbbb f4db d7be f2ec 16bd f006 94be
00000230: 507f 09be bad8 0dbd 4d7a 37bd 3324 00bf
00000240: 16b1 6ebe 4e94 85bd 1da9 a1bd 9982 72be
00000250: a34d 4abe e2de e9be 65a5 6cbd 3ca4 d1be
00000260: 7b91 553e d75e d3be e5f6 453e 387e 2fbf
00000270: cb28 e5be a8d3 99bb 2ad0 fbbc b7bf 33bd
00000280: cc31 d1be 824a 4a3e 44c2 6abe 3daf 833c
00000290: eb01 fdbe d5ed 84be 3bd9 693e 43c0 4fbe
000002a0: d924 9cbe d11e d43d f274 d8bd 3920 6a3c
000002b0: 9753 d6be 2f86 713c 0c13 afbe 17e0 6f3e
000002c0: 0084 e1bd 93fe 6abe 7c39 2f3e 6567 e53c
000002d0: a484 e6be 0895 a5be 29bd 523d 12e6 dbbd
000002e0: 8fd0 5fbe b721 aa3d c33a a5be a41b 93be
000002f0: d722 23be cd90 0dbf 5f48 20bf 1aab 65bb
00000300: 7fab fd3d 3680 e0bd 4065 fcbe e613 bfbd
00000310: 9ab3 f1be 91af d3be 0e6c 87be c504 1dbf
00000320: f9c4 393e 3662 333e 9de8 db3e c066 f4be
00000330: 5c41 6d3e 4664 32bf 1f11 393d dc29 473e
00000340: 8027 833d d346 04be d28f b4be f9e9 bbbd
00000350: 964d 0dbe 8722 a23d 312a 97be ef0c 873e
00000360: 6172 33be 0d2e 1bbf a3f1 bd3c dbb9 38bf
00000370: 857c 323d a0bc 16be b2b6 19be e070 69bd
00000380: 97d8 20be 7b17 ff3b 5d66 cebe 16d1 49be
00000390: 8126 87bd f322 0dbf ee2f f5bd 4ddb f7be
000003a0: 4c6d 77bc 831b d9be 7f07 1dbf ac28 c8be
000003b0: 7682 a5be 341b ecbd cad7 56be edc2 aebe
000003c0: 13ce 3cbd c9f2 1c3e 325f fa3b 2b6c 1bbf
000003d0: 3cd5 1abf dcc5 d5be 3701 29bf 6fff 2ebe
000003e0: da82 713e 2374 ebbe 33d8 103e 1cf3 0ebf
000003f0: 39de 04bf c6ec 3f3d 0ad4 98be 012a 36bd
-0.5906676 -0.5787036 -0.5149273 0.050631158 0.12679054 0.25333405 -0.07801621 -0.023448195
-0.06668255 0.15136941 0.19392847 -0.5285578 0.040303428 -0.164201 -0.12820645 -0.032103777
-0.44852534 -0.12236269 -0.72728705 0.108077824 0.1809662 -0.33771858 -0.36210334 -0.043290954
0.02332016 -0.120077685 -0.24691892 -0.07669394 -0.2840584 -0.06968701 -0.5846849 0.032541167
0.18280585 -0.22744003 -0.37362173 -0.5354633 0.11404046 0.1281175 -0.08481371 -0.13286164
-0.6245879 0.07826293 0.11020065 -0.26497063 -0.14353807 -0.4434095 -0.09437769 -0.0774217
-0.69071347 0.15344264 -0.26862144 -0.38956472 -0.053115755 0.13743825 -0.2932989 -0.5809409
0.2122199 -0.39749286 0.17200796 -0.1483739 -0.72126347 -0.34981427 0.004721509 -0.098452434
-0.2890369 -0.5567727 -0.48831835 -0.28298154 0.014830768 -0.4005376 -0.40923548 -0.36985934
0.11462632 0.06902673 -0.017085038 -0.30583423 -0.14804755 0.15677018 -0.30270848 -0.15198837
-0.05426823 -0.19267993 0.16283683 -0.13652349 -0.48742402 -0.35868758 -0.54744 0.17390399
-0.5228439 -0.13819109 -0.17645349 0.14409663 0.07499798 -0.55514336 -0.21668296 0.13522033
-0.359624 -0.3717155 -0.5257544 -0.3737021 -0.2774065 -0.28888682 -0.17782964 -0.21492897
0.016957236 0.042606514 0.061883364 -0.12359528 -0.6131396 -0.10310379 0.043273587 -0.052677862
0.12807946 0.002729235 -0.6508135 -0.38522393 0.13688937 -0.5070457 -0.084453784 -0.26365328
0.091141075 -0.33881474 -0.108295925 -0.26432285 -0.5215557 -0.46965718 0.10239709 -0.2182006
-0.34781787 -0.3707163 -0.27265567 -0.4175926 0.13603213 0.04762118 0.20014812 -0.37405232
-0.006689554 -0.42159998 -0.036847062 -0.28911543 -0.13427472 -0.034630515 -0.04479437 -0.50055236
-0.2330974 -0.065224275 -0.07893584 -0.23682632 -0.19756179 -0.4567786 -0.05777492 -0.40945613
0.20856278 -0.41283295 0.19332464 -0.6855197 -0.44757685 -0.004694421 -0.030738909 -0.043884005
-0.40858305 0.19754985 -0.22925669 0.016074771 -0.49415526 -0.259627 0.22836773 -0.20288186
-0.30496863 0.1035744 -0.105691805 0.014289909 -0.4186065 0.0147414645 -0.3419422 0.23425327
-0.11011505 -0.22948675 0.17111772 0.028003404 -0.45023072 -0.32340264 0.05144993 -0.10737242
-0.21856903 0.08307212 -0.32271394 -0.28732026 -0.15931259 -0.55299073 -0.6261043 -0.0035044611
0.12386226 -0.10961954 -0.49295998 -0.09329967 -0.47207338 -0.41344884 -0.26449627 -0.613354
0.18141545 0.17517933 0.42950907 -0.47734642 0.23169464 -0.69684255 0.045182344 0.19449562
0.064040184 -0.12917642 -0.35265976 -0.09175486 -0.13799128 0.07916742 -0.29524377 0.26377055
-0.17524101 -0.6061714 0.02318651 -0.7215859 0.043575782 -0.14720392 -0.15011099 -0.05699241
-0.15707622 0.0077847815 -0.40312472 -0.19708666 -0.06599141 -0.55131453 -0.119720325 -0.484095
-0.015101742 -0.42403802 -0.61339563 -0.3909353 -0.32326096 -0.11528626 -0.20980754 -0.34133092
-0.046094965 0.1532699 0.0076407427 -0.60711926 -0.6048162 -0.41752517 -0.6601748 -0.17089628
0.23585072 -0.45987043 0.14144973 -0.55839705 -0.51901585 0.046856664 -0.29849273 -0.04447365

backbone.net.2.weight f4 [256, 256]
00000000: 94c1 64bd c600 833e fbd6 6b3d 1a55 08be
00000010: 0ad0 b1bd b9c6 79bd 0df2 9bbe df21 9cbe
00000020: 46f2 1ebc 4f5b 863b 1956 163d 115b e2be
00000030: 5f97 1fbe 3fb7 eabd 096d 6c3e 96a0 3c3e
00000040: 124a b03d abbb 3f3e 2a07 bbbd 4c27 26b9
00000050: 220f cd3d bf1d 803d 08ec 19be 32db 8dbd
00000060: 0650 00bd e37e e5bc 7c15 0dbd 4ec0 1abc
00000070: a499 af3d 825a cc3c e072 debd a103 b43d
00000080: ee28 943c 5583 563e 0bac 453e f3fc 0a3e
00000090: 6b26 20be fce2 24bd a45b 473d fd4f a23e
000000a0: 1bb1 16bf 453d 76be 0013 883d dbf9 aabd
000000b0: 0852 35be c2d9 08bc 9412 71be 55ef 00be
000000c0: 2f93 143d 9164 cf3c 3a46 3a3e 402d 90be
000000d0: cb0b 413c 3714 c03d e799 823d 7fad a5bd
000000e0: 990a a9be bfb1 2f3e 0e74 80be 38b8 bb3b
000000f0: 639f c0bc 6dd9 2d3e 3138 1c3e d057 e13d
00000100: a540 b0bd 61e3 e23d f4a9 dd3d 4d60 323e
00000110: 3dcf 7f3d 02db 1dbe c07d 463e 6a14 03bd
00000120: 3e09 8dbd dc17 dfbd 733b 84bc 5ce7 95bd
00000130: 46ec a6bc b08c 183d dacd 9bbd fe2f 2f3e
00000140: 8148 77bd d4d1 113e 1f84 ac3d c2fa 88bd
00000150: 351f e53c cdbd 3c3e 2280 7f3d 06cf 90be
00000160: 50b7 923d e3ad b03d 76f1 0b3e 41ac bdbd
00000170: cdff 3d3d 039d b3bd 46aa 423e 0120 d93d
00000180: 1b74 7a3e 7086 14be 632a 2d3e 2a6d 22bd
00000190: 2af7 103d eac2 903d a907 6d3e 322c 27be
000001a0: 6d31 753d 7a5b 103e c10a 2d3d 3a2a 6f3e
000001b0: 73ea 0fbe a62c 9cbe bbae 273d d151 a8bd
000001c0: f92b e53d bad0 8abd 9eba e1bc 77e5 3d3e
000001d0: 36ac a53c 7358 813e 2ffe 26bd 1091 a6bd
000001e0: bc0d f13d 5ec1 39be 9f4e f33d 3565 abbd
000001f0: 9d9d a63d 6ad6 c0bb a679 bebe 48bf d3bd
00000200: f977 923d 62ed 633e 801e 793c 73ea a4bd
00000210: db5b 9dbd 6607 cf3d 3d4d 5cbe 1e2f eabe
00000220: e227 48be 40c1 083e a42c 0d3e 4384 543d
00000230: c15f 3fbd 877b 0e3c 27af 6cbd 6414 e53c
00000240: 8440 f83c a725 003e de32 153e c798 53bd
00000250: d5bc 32bc f57a 903e 253e c9be 5290 063e
00000260: df17 3cbe d6fc b0be c664 a83d fcd7 66be
00000270: 9623 35be aac8 b7bd 435a 8b3c 45aa db3d
00000280: cd9f 8b3d 2147 f13d 91bd 5fbe 702d 213e
00000290: a418 3c3e 6412 4a3d 3384 2fbd ec85 b23d
000002a0: 5c81 2dbc 1df1 f53c 6c8c 2f3e 6033 873d
000002b0: 192c 973d 1f94 fdbb ac74 bbbd 3192 c7bd
000002c0: f28e de3d 7799 07bd d8af bf3a a45b 583e
000002d0: dd89 febd dddd b1bd 4438 a1bd 0ed1 523b
000002e0: 2a5a 86be b5f3 663e ef43 263e fdf4 e93d
000002f0: b0d7 1c3c 206a 92bd 825f b03d b53b 77be
00000300: ee88 f4bc 025b 203e 1a15 603e eb42 93be
00000310: 6867 a4be ad9f 8fbe 1104 7ebc 1a5c ee3d
00000320: e2f3 aa3d 119b a53d 3c0c 46bd 2b01 96bd
00000330: a1c1 8d3c 9c72 e83d 7e38 da3c ad17 003e
00000340: 9892 ad3c c897 ef3d d434 0abe d4fa ed3d
00000350: bead 9b3d 0b86 75be 8276 09be 9850 2d3e
00000360: 07f3 0b3e ce9e ce3d 03b5 cb3d 665e 933d
00000370: ccc0 68be e643 11be 6016 083e c149 aebc
00000380: d15d ffbe c3f2 8f3c 3467 50bd 1cd6 07bd
00000390: 3200 7bbc af0e a23d fb7f 1ebd 04e4 58bc
000003a0: 348b b8bd 3c98 9dbd 7d04 543e 535e 0e3d
000003b0: 49bd e9bd 4d8c 49bd f829 4f3d 1829 9ebd
000003c0: 6d65 18be 0d67 c4bc 24c1 cbbb 6e57 7f3d
000003d0: 4c25 a8be d760 6ebc 3bfc d03d cb4f d83d
000003e0: 75f9 3dbe 2f57 6c3d 09ff a13d a08e 433e
000003f0: 4948 843d f83e 20bd 4f48 383d a89a 5fbd
-0.055848673 0.25586528 0.05757807 -0.13313714 -0.086822584 -0.060980532 -0.30458108 -0.30494592
-0.009701317 0.0041002403 0.036703203 -0.44210103 -0.15585087 -0.11460733 0.23088469 0.18420634
0.08607878 0.18723933 -0.09132226 -0.00015845633 0.10012652 0.062556736 -0.15031445 -0.06926574
-0.031326316 -0.028014606 -0.034444317 -0.009445263 0.085742265 0.024945501 -0.108617544 0.08789755
0.018085923 0.20948537 0.1930391 0.13573055 -0.15639655 -0.04025553 0.04867138 0.3170165
-0.5886399 -0.2404681 0.06644249 -0.083484374 -0.17707074 -0.008352699 -0.23542243 -0.12591298
0.036273178 0.025316508 0.18190852 -0.28159523 0.011782597 0.09378856 0.06377011 -0.080897324
-0.33015898 0.17157649 -0.25088543 0.0057287477 -0.023513502 0.16977473 0.1525581 0.11003077
-0.0860608 0.11078525 0.108234316 0.17419548 0.062453497 -0.15415576 0.19383907 -0.03200189
-0.068865284 -0.10893223 -0.016141629 -0.07319519 -0.020376336 0.037243545 -0.076076224 0.17108151
-0.06037188 0.142402 0.084236376 -0.06688453 0.027968982 0.18431778 0.062378056 -0.28282946
0.0716387 0.08626916 0.13666329 -0.092613705 0.04638653 -0.08770182 0.19010267 0.106018074
0.24458353 -0.14504409 0.169107 -0.03965489 0.035391964 0.07068427 0.23147453 -0.16325453
0.05986159 0.14097396 0.042246584 0.23355952 -0.14054279 -0.30502814 0.04093812 -0.0821873
0.11190028 -0.06778093 -0.027554806 0.18544565 0.020223718 0.25262794 -0.040769752 -0.08133137
0.11770198 -0.1814017 0.1188023 -0.08368913 0.08135531 -0.005884935 -0.37202185 -0.103392184
0.07151789 0.22258523 0.015205026 -0.0805253 -0.07683536 0.10108833 -0.21513839 -0.45739073
-0.19546464 0.13354969 0.1378656 0.051883947 -0.046722177 0.008696443 -0.057784226 0.027963825
0.030304201 0.12514363 0.14570186 -0.05165937 -0.010909279 0.2821881 -0.39305225 0.13140991
-0.18368481 -0.345679 0.08222346 -0.22543329 -0.17689356 -0.089738205 0.017010814 0.10725836
0.06817589 0.11781145 -0.21849658 0.1573999 0.18368775 0.049333945 -0.042850684 0.0871695
-0.010589924 0.030022198 0.1714341 0.06601596 0.07381458 -0.0077386047 -0.09153113 -0.09744681
0.108671084 -0.03310534 0.0014624549 0.21128708 -0.12428639 -0.08684895 -0.0787206 0.0032168063
-0.26240665 0.22553904 0.16236852 0.11423681 0.009572908 -0.07149148 0.08611967 -0.2414387
-0.02985045 0.15659717 0.2188305 -0.28761992 -0.32110143 -0.2805151 -0.015503899 0.11638661
0.08347298 0.08086217 -0.04835151 -0.073244415 0.017304244 0.11349985 0.026638266 0.12509032
0.021188065 0.11698872 -0.13496715 0.11620107 0.07601498 -0.23976915 -0.13424113 0.16925275
0.13666926 0.10088883 0.099466346 0.071957394 -0.22729796 -0.14186057 0.13289785 -0.021275403
-0.49876264 0.017571812 -0.050879672 -0.033163175 -0.015319871 0.07912957 -0.03869627 -0.013237957
-0.09010926 -0.07695052 0.20704837 0.034757923 -0.114130564 -0.049206067 0.050577134 -0.07722682
-0.14882441 -0.02397492 -0.0062180925 0.06233924 -0.32840955 -0.014549456 0.10204359 0.10562094
-0.18552192 0.057700332 0.07909972 0.19097376 0.064591 -0.03912255 0.044990834 -0.05459085

backbone.net.2.bias f4 [256]
00000000: a4bf 83bc 62be de3d 2e54 093e 7d7d babd
00000010: f45d 32be 9161 06be 6d7a 0dbd 97f9 883d
00000020: c58e b93c 6bc9 733b de35 f6bd a261 3f3e
00000030: d8d5 acbc 03e7 c53d 1ee6 93bd e595 80bd
00000040: 1d60 163d 7ab8 bd3d 63cb ac3c 6964 fa3a
00000050: f6ca 583e 4c81 423e a1bb b7bd 42d8 783d
00000060: ff5a f2bd 14f3 7f3c 2008 cfbd 5aa6 0cbe
00000070: 6b46 1f3d 8cb3 33bd 760a d33d 558b c3bd
00000080: 93d7 64bd b784 b43a a4ff 2c3e d3b3 223d
00000090: f810 253d 7ce9 663d c93f 453e b5c0 d23c
000000a0: 5b5f a23d d524 91bd 2fb6 2f3d 74cf 34bd
000000b0: a128 43be 7bb2 0c3d 7c39 edbd 46d5 753e
000000c0: e2f1 1e3e da7d f4bd ad7f 463d 5cc8 403d
000000d0: cfaf 4fbb 2dd2 823d f2d4 41bc 5de0 663c
000000e0: 876a 34be fe6d bebd daac 02bc 1250 883d
000000f0: 4e7c 8bbc 748d a4bc 25cb 4b3c 3053 43bd
00000100: f055 6bbe a617 bebc 8120 383e 751d 1e3d
00000110: 21da 00bc da5d de3c a4f9 9a3d a9b9 8abe
00000120: ba2d 4ebc c640 053e cc46 693d ea35 923d
00000130: 6ad2 a83d 39d9 9a3d 3d71 3f3e c3a9 8dbb
00000140: 90a7 9abd 68f1 6f3d 5486 253c 7f2a d03c
00000150: 3bdf debc a065 8a3d 93f2 ab3d 4747 74bd
00000160: 687d c03b 8f4d 4e3d 13ea c5bd 19e9 38be
00000170: 117d 6b3d 1bc6 b5bb c877 66bd 1376 ff3c
00000180: a3f2 7f3d f19c 3d3e c333 d93d 0277 d0bb
00000190: d0de bbbd 8df3 673d ba7f 8abb d539 b83d
000001a0: 56fe e13d 7828 39bc bb46 63bb 27d2 ce3b
000001b0: 4e5b 9a3d 6d0d 98bd 4da4 fbbb da45 43be
000001c0: d2c8 673d f99b dc3d dfe8 8b3c 363e 053c
000001d0: 76a6 8dbc f945 16be 181b 0c3e a5d7 68be
000001e0: 259c c1bd 72d2 393d 66d9 c43d f3a9 c13d
000001f0: 96bc 4ebe e02f 483d 21c9 4fbc 3df0 8cbd
00000200: 8cad af3d 769f f1bc d60b 0fbe 841b 353c
00000210: 4c4f f3bc 04d9 bebb 2b04 5ebe 4442 30be
00000220: 6708 e23d 8d45 8abd 1484 07be a15b cdbd
00000230: 4968 983d 95db 0fbe 2d7f 02bd 6253 783d
00000240: 3f7e 7cbc 144d 833d a5d0 b43a d2bd e6bd
00000250: 763c a83d e3cf c33d d240 353d 7e2b f03d
00000260: c5f6 283d 0ef5 68be 88d2 093e 597e f93d
00000270: 6a81 23be 72c2 8a3c 6960 af3c 1cc6 9dbb
00000280: 45b9 d13d 7306 16be 076a b1bd e3cb 1b3e
00000290: addf b2bd 5521 063d da5f 3e3e ac20 823c
000002a0: 29a1 9f3d 2daa e33c 5355 f4bd 80fb 81bd
000002b0: 142d 9b3b 1035 16bd 79eb 33be 6394 243d
000002c0: efb6 0bbe 09fa 47bc 5912 363e f037 d4bb
000002d0: d6bc b33d cb33 063e 5982 70bc 1a7d 96bd
000002e0: 0546 b73d e2a3 1b3d 2f5f 023e 4ce2 6d3d
000002f0: b6fe 873d 1e42 473e 93e2 1d3e e7d6 04bd
00000300: 3607 013c fcb4 c13d 3e4e 883d ea1e 8abd
00000310: f758 a33d 0d8d b43d d862 313e 9798 ac3d
00000320: 4bed 4cbb 8ff9 80bd 1335 12be 6ab9 24bd
00000330: 5887 84bd 001f 1f3e 2843 463d 921e 49be
00000340: 830a 02bd f2c6 303c 1e24 39be 96cb 173e
00000350: 40f7 493d 2848 fbbd 548b 113e 6c5d cd3d
00000360: 07a4 dd3d 1b5d 7e3d e305 033e 021e ef3d
00000370: b097 f93d c502 ec3d 4dbb 9c3c 4390 3a3d
00000380: 131d cb3d bcbc 653e 06de 4f3d 2328 83bd
00000390: d916 713d 6058 263e 83fd babc 11e2 b9bc
000003a0: 9af1 053e c6f7 0fbe bc72 f73c 94ba 2c3d
000003b0: 7d3a 47bd 80c6 5e3d 130d 0dbe fedc 4f3c
000003c0: 1cce 21bd 6f1b 2c3e a7ac 2fbd 4771 90bd
000003d0: 1a79 eebc f3e3 d13b 40e0 4abd b4e3 af3d
000003e0: cfea 27bc dfcb c1bd 8e2a 85bc ba53 4fbd
000003f0: c6cb f5bd 9a57 debd 0bba 213e 55d8 923d
-0.016082592 0.108761564 0.13411018 -0.09105966 -0.17418653 -0.13123156 -0.034540582 0.066882305
0.022651086 0.0037198912 -0.12021993 0.18689588 -0.021098062 0.096632026 -0.07221626 -0.0627859
0.036712755 0.09263702 0.021093076 0.0019103411 0.21171173 0.18994635 -0.08971334 0.060753115
-0.118337624 0.015621919 -0.101089716 -0.13735333 0.038885515 -0.0438724 0.1030473 -0.0954806
-0.05586965 0.0013772462 0.16894394 0.039722275 0.040299386 0.05637501 0.19262613 0.025726655
0.07928344 -0.07087103 0.042898353 -0.044143155 -0.19058467 0.0343499 -0.1158323 0.24007139
0.15521958 -0.11938067 0.048461605 0.047066078 -0.0031690483 0.06387744 -0.011830555 0.014091578
-0.17618762 -0.09298323 -0.007975781 0.06655897 -0.017027047 -0.020086981 0.01243857 -0.047686756
-0.22982001 -0.023204636 0.1798115 0.03860231 -0.007864506 0.027144361 0.075671464 -0.27094772
-0.012584144 0.1301299 0.056952283 0.071391895 0.08243258 0.07560963 0.1869554 -0.0043232157
-0.07551491 0.058579832 0.010102827 0.025410889 -0.027206054 0.06757665 0.08395877 -0.059638288
0.0058743246 0.050366934 -0.09663787 -0.1805767 0.05749232 -0.0055472977 -0.056266576 0.031184232
0.062487256 0.185169 0.10605576 -0.006361843 -0.091733575 0.056628752 -0.004226652 0.089954056
0.11034839 -0.011301152 -0.003467961 0.006311673 0.07536946 -0.07424436 -0.0076794983 -0.19069615
0.056588 0.10771937 0.017078815 0.008132508 -0.017291289 -0.1467513 0.1368221 -0.22738512
-0.0945361 0.045366712 0.09611778 0.09456243 -0.20189127 0.048873782 -0.01268223 -0.06881759
0.08578023 -0.029494982 -0.13969359 0.0110539235 -0.029700898 -0.00582421 -0.21681277 -0.17212778
0.11036759 -0.06751547 -0.13233978 -0.100272425 0.07441766 -0.14048608 -0.031859566 0.060626395
-0.015410959 0.06411186 0.0013795091 -0.11266674 0.08214657 0.095611356 0.04425127 0.117270455
0.041250963 -0.22749731 0.13459218 0.12182302 -0.15967336 0.016938422 0.021408277 -0.0048148762
0.102404155 -0.14650898 -0.08662801 0.15214495 -0.08734069 0.03274663 0.18591252 0.01588472
0.07794411 0.027791107 -0.11930337 -0.06346798 0.0047355983 -0.036671698 -0.17570294 0.040180575
-0.13644002 -0.012205609 0.17780437 -0.006476395 0.08776252 0.13105695 -0.014679515 -0.0734808
0.08948902 0.037998088 0.12731622 0.05807714 0.06640379 0.19458815 0.15418462 -0.03243151
0.007875254 0.09458348 0.066555485 -0.06744178 0.07975953 0.08815966 0.17322862 0.08427542
-0.0031269367 -0.062975995 -0.14278059 -0.040215887 -0.06471127 0.1553917 0.04840389 -0.19640568
-0.031748306 0.01078962 -0.18080184 0.14823756 0.04930806 -0.12269622 0.14213306 0.100275844
0.10822301 0.06210051 0.12795214 0.116756454 0.12187135 0.11523966 0.01913228 0.045547735
0.09917655 0.22435278 0.050748847 -0.0640414 0.05885968 0.1624465 -0.022825962 -0.022690805
0.13080445 -0.14059362 0.030206077 0.042170122 -0.048639763 0.054388523 -0.13774519 0.012686966
-0.0395032 0.1680734 -0.042889263 -0.07052856 -0.02911048 0.0064053475 -0.049530268 0.08588353
-0.010248854 -0.094627135 -0.016255643 -0.050616957 -0.12001757 -0.108565524 0.15793626 0.07170168

backbone.net.4.weight f4 [3, 256]
00000000: 4482 2a3e 3560 d1bc d28a 62be ed57 e73c
00000010: c88c 5fbe c8c5 86bb af23 9fbb 11a5 b4bd
00000020: c3d4 c2bd ba9b 883e d2ec 2ebd 3d0a 18be
00000030: 13a5 603c 9037 8a3d 529f f0bd 3bc6 a93b
00000040: 8b38 76bc 0377 96bd 4d76 bcbe 6369 f2bc
00000050: ca32 b1be 5653 213e 6dff 8f3d 6365 c6bd
00000060: 087a 6c3c 6222 20be 621f 8cbc e161 d83d
00000070: 8de7 ffbd 519c 9abe 7512 aa3d 7211 f6bd
00000080: 3ac7 733d b41c 013e 2d85 67bc 7753 76be
00000090: c7c9 843d 1e2e 873d 5b81 123e 4e54 7c3d
000000a0: 090e 0d3e 0ff5 e23d 44d8 1cbe 507f 0bbd
000000b0: b467 6f3d d6d2 9bbe dd1a 17bd b057 333c
000000c0: f915 69be e0ce 063d ca5a 42bd 0f29 683e
000000d0: e473 42bc 6ccf 033e 8b00 a03e 40ac 153e
000000e0: f38b 37be 647f 433e 7567 b1be ecf2 003f
000000f0: 9399 253e a4f8 163e 342a fabb c891 ddbe
00000100: 7a5c 053e 4c99 f13d f05f 803d c2c8 af3d
00000110: c24f 103e 41f0 8e3e df40 e1bb 799d 1fbe
00000120: eab7 d53c 1c81 c7bd bd76 04be 0e71 a0bd
00000130: df59 86bd bcce 4abe a670 913e a7bb 19be
00000140: 0239 8b3e e0bf 4c3e 2dc6 cb3d 88a8 4b3b
00000150: 2658 4b3e a660 d0be fdcb 193e a0c7 73be
00000160: 1bef 373e a5b4 97bd 5f0e 2fbe 4cbd 5bbe
00000170: 09ee 193c eb31 dcbd d5a0 c8bd 34e3 41bd
00000180: 6510 813e bf30 8dbd ae4a 9b3d 727f b33e
00000190: 344e 18bf 0a33 0e3e 94f1 a23e 78b7 273e
000001a0: 2d65 8f3e f455 96bd 724c afbe bc5c 853d
000001b0: 8058 3d3e bb3d 5fbe 40d4 5dbe e275 19be
000001c0: de8f 84be 99b3 b53d 6482 81bd 65d6 40be
000001d0: bdb3 9dbd 5ec7 08bd 4f7d 0abe 4255 d33d
000001e0: 35fb 29be c556 fcbc 0d28 4bbe 94b9 96be
000001f0: ba49 693e c48a 163e 1e97 023e 6565 18bd
00000200: 0e36 ca39 5930 823d 6b0c c23e 7924 793e
00000210: bd3e e6ba 96fe 4ebd da34 5d3e fc0b 0e3e
00000220: c161 40bd 8c67 34be 5392 963d 905d 26be
00000230: 3a73 353e dff1 bcbc 7c54 833c 2642 8dbc
00000240: cb19 a5be e3ed bc3d f0b8 0b3c f530 ebbd
00000250: 8794 80bd 5fda 17be d0e1 30bd 9f14 8b3d
00000260: 7fd7 923d 83c9 133f c761 e0be 3f44 f1bd
00000270: 2459 983e e030 c0bd c3f3 acbd 8e7c 2abd
00000280: f855 8cbe 282a 6abe c416 933c 4678 e03d
00000290: 6304 af3e 7f11 ef3d 7d08 f5bc 1cd5 c53d
000002a0: 47c5 05be 00c0 f2bd 4d70 60bc 1e63 6a3d
000002b0: c2de cabd 502d 68bd a976 17bf fbc8 71be
000002c0: aaad 83be 1ca4 19be a0d8 623d b929 063c
000002d0: d30d b5bc 86dd 553d 354f 6fbe d9c0 a43c
000002e0: 1ea1 873e 957f 783e 415f 943e f2f3 7c3b
000002f0: c36f 3b3e ffcf f4be 84ee 1e3f e273 3a3e
00000300: 5091 cfbe 4cc2 833d 2803 91bd 65be ddbe
00000310: 2c91 623c ff8d 8dbe aa0b 923d 792d 7d3a
00000320: 2332 f0bd 190a d53d 637d 85bd dafe 0d3e
00000330: f73a 30be 6bd8 17bd 324a 6ebc 79bf e23e
00000340: 8de9 37bd d09e 143e 8742 cfbc 4421 a23e
00000350: cb07 85be 2813 863e 906a b0bd 91d4 b23d
00000360: a749 e13d 86fb f53e 3545 60be 0b41 a13e
00000370: 7c6a 9e3e e5f3 21be 6097 463e 1ba7 4ebe
00000380: 0779 81be 8666 13bc 5fb8 063e 27ac ea3d
00000390: bdc1 663e ac59 cf3e e696 3dbe 71f4 903e
000003a0: df4f c73b 174e 5c3e 62a7 91bd 7ecb ab3b
000003b0: b5fb 71bd 2eb2 2d3d ae8f 6cbe 7f98 e43d
000003c0: 7f0c 2cbd 0268 0a3e 4afc 40bb c05b 293c
000003d0: a639 753d ed83 253e ca38 773b 4233 11bf
000003e0: 6a5a 453e 4902 8dbe 2240 d8bd 8739 8fbe
000003f0: 4ca4 4b3d 4697 063e 5cfc 5f3e 7f4a 373e
0.16651255 -0.02555857 -0.22123268 0.028240168 -0.21831048 -0.004112933 -0.0048565487 -0.088205464
-0.09513237 0.2668131 -0.04270632 -0.14847656 0.013711232 0.06748879 -0.11749138 0.0051811016
-0.015028129 -0.073469184 -0.36809006 -0.029591268 -0.3460906 0.15754446 0.070311405 -0.09687307
0.014433391 -0.15638116 -0.017104808 0.10565544 -0.12495337 -0.30197385 0.08304302 -0.12015046
0.05951617 0.12608606 -0.014130873 -0.24055277 0.064837985 0.06600593 0.14307158 0.061603837
0.13774885 0.110818975 -0.15316874 -0.03405696 0.05844851 -0.30434293 -0.036890853 0.010946199
-0.22762288 0.032912135 -0.047449864 0.22671913 -0.011868451 0.12872094 0.31250414 0.1461649
-0.1792448 0.19091564 -0.34649244 0.5037067 0.16171865 0.14743286 -0.0076344255 -0.43275285
0.13023558 0.11796817 0.062682986 0.085832134 0.14092925 0.27917674 -0.0068741883 -0.15587415
0.026088674 -0.097414225 -0.1293592 -0.078340635 -0.0656011 -0.19805425 0.28406256 -0.1501299
0.2719193 0.1999507 0.099499084 0.0031075794 0.19857845 -0.40698737 0.15019222 -0.2380662
0.17962305 -0.07407502 -0.17095326 -0.2145893 0.009395131 -0.107517086 -0.09796301 -0.04733582
0.2520782 -0.06894063 0.075826034 0.3505817 -0.5949433 0.13886657 0.31824934 0.16378582
0.28006878 -0.07340613 -0.3423801 0.06511828 0.18490791 -0.21800892 -0.21662998 -0.14986375
-0.25891012 0.08872146 -0.06323698 -0.18831785 -0.07700298 -0.033393256 -0.13524364 0.10318996
-0.16599734 -0.030803094 -0.19839497 -0.2943846 0.2278203 0.14701372 0.12752959 -0.037206072
0.00038568716 0.06356878 0.379001 0.2433032 -0.0017566305 -0.05053576 0.21602193 0.13871759
-0.046968225 -0.17617625 0.07352128 -0.16246629 0.17719737 -0.023064552 0.016031496 -0.017243456
-0.3224624 0.09225061 0.008527979 -0.11483947 -0.06278329 -0.14829396 -0.0431841 0.067910425
0.07170009 0.5772936 -0.43824598 -0.11780595 0.2975551 -0.09384322 -0.08444931 -0.04162269
-0.2740934 -0.22867644 0.017955191 0.1096044 0.34183034 0.11673259 -0.029911274 0.09659788
-0.13063537 -0.11853027 -0.01369865 0.05722343 -0.09905769 -0.05668384 -0.59165436 -0.23611824
-0.25718433 -0.15004009 0.05538237 0.008188658 -0.022101318 0.052213214 -0.23370059 0.020111488
0.2649011 0.24267419 0.28978923 0.0038597551 0.18304352 -0.47814938 0.62082696 0.18208268
-0.40540552 0.064335436 -0.0708068 -0.43309322 0.013828557 -0.27647397 0.07131131 0.000965796
-0.11728313 0.104023166 -0.06518056 0.1386675 -0.17209993 -0.037071627 -0.014544057 0.44286707
-0.044900466 0.14513707 -0.025300277 0.31666005 -0.25982508 0.2618649 -0.08614075 0.0873195
0.11000376 0.4804346 -0.219014 0.31494936 0.30940616 -0.15815695 0.19393682 -0.20180933
-0.2528765 -0.008996611 0.1315627 0.11458617 0.22534843 0.40498102 -0.18514594 0.28311494
0.0060825194 0.21514164 -0.07112004 0.005242764 -0.059077937 0.042406254 -0.23101684 0.11161899
-0.042004105 0.13516238 -0.002944725 0.010336816 0.05986943 0.16163607 0.0037723058 -0.5671884
0.19272771 -0.27540806 -0.10559107 -0.27973577 0.049717233 0.13143644 0.21873611 0.17899512

backbone.net.4.bias f4 [3]
00000000: b79f 69bd dc7c f8bd 7f94 98bd
-0.05703708 -0.1213319 -0.074501984

net.net.0.weight f4 [256, 14]
00000000: a883 963e e782 5ebd 7566 883d 156b 803e
00000010: b1e8 d03d 8132 cf3d e464 a4bd 8931 68be
00000020: eac7 a73d 4278 2dbe 71ea 413e 0876 81be
00000030: c709 d6be 0d65 eabb b8ec 773e 2b45 e13b
00000040: f536 c23d b787 71be 28ec 2dbe 4df0 1d3f
00000050: 13ae e5be 1c19 46be 8081 6b3e 1d6c 483e
00000060: 95a4 86bd a132 2cbd bf95 133e faaf db3c
00000070: 7da5 a4bc 76e7 f0bd 86f7 13bf c2c8 88be
00000080: aba7 4bbe af72 1a3f c915 c3be a9aa 45be
00000090: fb64 413d 24a3 3d3c cbc1 9c3d 8c2e 0d3c
000000a0: bb26 82bc 256a 71be 12c8 183e ae05 303e
000000b0: e9bf ab3e 5a4c 003f dd3b c03e 38e0 e5bd
000000c0: 16a6 d63e 3186 0a3e ae98 113d 9341 d13e
000000d0: ea49 163e 72f5 233e 75a8 2b3e bc03 b63d
000000e0: 745d e2be 85bc 693e 6864 f33e 19c9 973e
000000f0: a0e8 643d f0cb be3c 44c8 26be caf5 6d3e
00000100: c5c9 cf3d 6ca3 513d 2ab8 5b3d 1dca a53e
00000110: 9fd3 563e 89f2 173e ada0 4cbf dd02 203e
00000120: c14a ddbd bb05 223e a575 693e ac8d 963d
00000130: 4e61 983d 05a0 8fbe c7a8 38be d142 91be
00000140: 4629 003f 76f1 d5be a5f6 28bf be8b 5b3d
00000150: bfd8 7bbc 6369 b1be 1048 a43e 8115 f93e
00000160: a531 3abf df2b 1cbe 5382 d2bd b012 7dbe
00000170: 2f23 973e 1c2c ac3d 4ba6 cb3e 06f7 d1bc
00000180: 8870 31be c9ea 9ebe bcc6 f1be 951c 8c3e
00000190: f9ef 25bf 4ede 81be 2cf9 c5bd 6c0b 8abe
000001a0: 58ce f13e dcc9 91be 6d62 873e 524f 003f
000001b0: 44cd 4bbf 223d e0bd 2212 163c 6b18 7fbe
000001c0: fb1d 6d3e 6ceb 1c3d 3c54 e9be 2e34 01be
000001d0: 47c2 1f3c e881 083f e551 b6be e090 463e
000001e0: 69d9 103e 792c 5dbd c103 4bbf 8701 023f
000001f0: 489b 443e 8f20 a0bd f743 acbd 6aad 3a3e
00000200: de32 28bf 1acb c6be ad82 54be 2b09 653e
00000210: d61c ccbe 58c4 3dbd 7ac5 663e 4c78 11be
00000220: 60d7 3abe a446 303e 8787 e3bd 5a30 d7bd
00000230: 276b 6dbe 1612 6a3d be05 133e edc9 343f
00000240: 6b18 b7bd eaca 403f 8c10 c9be 52e2 38be
00000250: 96b3 a53e a910 9d3a efed bb3d 5665 913d
00000260: a6e6 dd3c a1ab 88bc 6284 41be eed7 1ebf
00000270: 4e18 0fbf bc58 14be e1ad d73e 6890 b53e
00000280: 2d9f 38bb 6764 183e 99f2 2abd 8dfe 5dbe
00000290: df98 113e 7aaf 543e e08a 48bd e6d1 013e
000002a0: 3253 283d 88e5 9bbe cd07 cfbe 39f6 27be
000002b0: 31cb 863e a166 9a3e 83a4 1dbf af83 513e
000002c0: 473f c0be 94f7 13be b149 9e3e 45fc d1bc
000002d0: 0601 d43d a7e5 3e3e 369b 833e 2688 433e
000002e0: 62a9 0bbf ea36 7bbe 53b3 8cbe 7fd1 683e
000002f0: acf6 0a3f 2973 8b3c 9863 913d e071 82bd
00000300: 3d70 18bd cbe7 043e f9be f63c 3d6e 4abd
00000310: 355f 99bd 5f2d 2abf bd72 493f faad 433f
00000320: 14e2 22bd ac13 ffbe 29a9 e73e 164c a8be
00000330: a2b1 1f3c 0d35 ae3c 9a8a 7c3e be38 b1be
00000340: f78b 81be ba8f 4ebc 9f17 e6be 3575 d8bc
00000350: aa35 553e afa4 89be 146a cabe 019f 363e
00000360: dc1c 833d c82f 93be a205 ba3e acf4 a03e
00000370: 44eb 843e 5193 2ebe 09f0 aa3d 0f2f 033e
00000380: 8ed6 c33b d3ad 36be aec6 283f 3c9a a23e
00000390: 9ed7 fd3e b88c 9bbe 2a7a c33d dede bc3b
000003a0: cb96 88bd e992 bb3d ec41 6fbe 5239 b7bd
000003b0: 4e08 083c 7de5 f1bc 8589 f63c e878 bcbe
000003c0: 8e13 94bd d14c 443f 70ef 1fbf 7b0a 04bf
000003d0: 3289 7d3e 2274 57be 0212 e73e ad53 423d
000003e0: 0896 b5be 39c2 0c3e fdc1 99bd c730 8f3d
000003f0: 205e 123f 6045 9fbe 925d 2bbf 0b1f fdbc
0.2939732 -0.054324057 0.06660167 0.25081697 0.10200632 0.10117055 -0.08027056 -0.22675146
0.081924275 -0.16940406 0.18937089 -0.25285363 -0.41804335 -0.0071531595 0.24211395 0.0068747005
0.094831385 -0.23586927 -0.16984618 0.61694795 -0.4485937 -0.19345516 0.22998619 0.19572492
-0.0657436 -0.04204047 0.14412592 0.02681731 -0.020098442 -0.11762898 -0.57799566 -0.26715666
-0.19888179 0.60331243 -0.38102558 -0.19303383 0.047215443 0.01157454 0.076541506 0.008617055
-0.015887609 -0.23575647 0.14920071 0.17189667 0.33544853 0.50116503 0.37545672 -0.11224407
0.4192359 0.13527752 0.035545997 0.40870342 0.14676633 0.16011599 0.1676348 0.08887431
-0.44211924 0.2282582 0.4753754 0.29645613 0.05588591 0.023290604 -0.16287333 0.23238292
0.10145906 0.051181242 0.05364243 0.32380763 0.20979165 0.14838614 -0.7993267 0.15626092
-0.10805274 0.15822499 0.22798784 0.073512405 0.074404344 -0.28051773 -0.18033133 -0.2837129
0.5006298 -0.41785783 -0.6600135 0.053600065 -0.0153715005 -0.34650716 0.3208623 0.4864922
-0.72732 -0.1525111 -0.102787636 -0.2471416 0.2951903 0.08406851 0.3977531 -0.025630485
-0.17328084 -0.31038502 -0.47221935 0.27365556 -0.64819294 -0.25364918 -0.096666664 -0.2696184
0.4722774 -0.2847432 0.2644228 0.50121033 -0.79610085 -0.1094916 0.009159597 -0.24911658
0.23155968 0.038310453 -0.45572078 -0.12617561 0.009750909 0.5332322 -0.35609356 0.19391203
0.14145435 -0.05399749 -0.79302603 0.5078358 0.1919986 -0.0781871 -0.08411401 0.18230215
-0.6570262 -0.3882683 -0.20752974 0.22366779 -0.3986575 -0.046329826 0.22536269 -0.14206046
-0.18246222 0.17214447 -0.11109834 -0.10507269 -0.23185407 0.057146154 0.14357659 0.70620614
-0.08940204 0.7530962 -0.39270437 -0.18055084 0.32363576 0.0011983115 0.091762416 0.070994064
0.02708752 -0.016683402 -0.18898156 -0.6204823 -0.5589646 -0.14486974 0.42124847 0.35461736
-0.0028171048 0.1488205 -0.041735265 -0.21679135 0.14218472 0.20770064 -0.048960567 0.12677726
0.041094966 -0.30448556 -0.4043564 -0.1640252 0.26326898 0.30156425 -0.6157915 0.2046039
-0.37548277 -0.14449912 0.30915597 -0.025632987 0.10351758 0.18642293 0.25704354 0.19094905
-0.5455533 -0.24532667 -0.27480564 0.22736166 0.5428264 0.017022686 0.07099074 -0.06369376
-0.037216414 0.12979047 0.03012036 -0.049421538 -0.074888624 -0.6647548 0.786907 0.7643734
-0.039766386 -0.49819696 0.45246246 -0.3287055 0.009746941 0.021265531 0.24662247 -0.34613603
-0.25302097 -0.012607509 -0.44939896 -0.026423076 0.20821252 -0.26883456 -0.39534056 0.17834093
0.06401989 -0.28747392 0.36332422 0.3143667 0.25960743 -0.17048384 0.08346564 0.1281092
0.0059765046 -0.17839746 0.6592816 0.31758296 0.49578565 -0.30380797 0.09544785 0.0057638725
-0.066693865 0.0915888 -0.23364991 -0.0894648 0.008302761 -0.029528374 0.030094871 -0.36810994
-0.07230292 0.7667971 -0.6247473 -0.5157849 0.24759367 -0.21040395 0.45130926 0.04744308
-0.35466027 0.13745965 -0.075077035 0.069917254 0.57174873 -0.31107616 -0.6693965 -0.030898592

net.net.0.bias f4 [256]
00000000: d3fd ee3e 9ae4 9f3e 4d0e 03be eb80 32be
00000010: ddaf 1e3f 927c e6be 0f0b 4cbe ced7 02bc
00000020: 8262 02be 510c ee3e ceea 993d 7e6f 4fbe
00000030: e7dd bf3e 41f0 213f 315d 3abe 6bed c13e
00000040: 5720 293f 62bd b4be b93e 6a3e df67 b93e
00000050: 1e2e cabe 5c25 ad3e 08b4 e4be 5878 003f
00000060: b166 973d d328 0e3f e74d 4ebe fd31 083e
00000070: 9486 c43e 004e ae3e 7ad9 dabe d2f7 e2be
00000080: 6429 17be cb27 41be bad5 b7be 7630 5dbd
00000090: add8 793e a907 2dbe a720 71be 48a9 8dbe
000000a0: f6c0 19be 4844 f03e ba2f 64be 629b 373e
000000b0: c10e af3e f284 c0bc 4517 2d3f 282e 003e
000000c0: 3b65 303f 0df3 97be ca2f c83d 8f0b eebd
000000d0: 88e3 e73e b95c 1fbd 3776 7bbe 2ede 0f3f
000000e0: 9e5f 213f 28df f6be b3b7 f53e f5f4 b03e
000000f0: 7863 3a3f 5993 3a3f 5bc1 babe a580 f73e
00000100: 3d03 0dbe f45a 073f 5fed 533e adb3 7bbe
00000110: 2988 35be 7aa2 853e 969d b93e c93f ed3d
00000120: aedc fdbe f047 ebbe 8b9c aebe 3d20 c4bd
00000130: 12e2 bfbe 63c6 b0bd 3ff0 20be b2c0 7bbe
00000140: 8214 e33e e376 593c f1e1 d7be 5e10 cd3e
00000150: c0ec db3e ff69 153f c907 4a3e 0256 1e3d
00000160: 7e68 4d3f 71c0 52bd 3066 5e3e a066 09bf
00000170: 9aad 103f d4f6 46be 23c9 d83e ccb6 86be
00000180: b111 463f 97a2 973e 9913 26be dc97 c73e
00000190: 6186 e33e cc90 55be 83bd 8dbf 9efd babe
000001a0: 65d1 193f 3614 67bc 38f8 98be 515d 36bf
000001b0: c37f 0a3f daf9 713d 2948 5f3e b958 0e3f
000001c0: f635 203f 9251 04be 8f49 413d 59f3 563d
000001d0: af56 193f b14c 1b3f 32a6 06bf fe55 123f
000001e0: a9aa e13e 04e4 e83d 3aa3 94be 1792 01bf
000001f0: 0d9e 44be e5f5 013f 6b3e 5f3e 4b31 b9be
00000200: ef0f d6be 2cbf 73be 9726 c33e d40b 7c3e
00000210: b03e dabc d9c4 1b3d e084 0a3f 5ea5 2d3f
00000220: 72df c53e 27d9 023f 71f4 a3be b46a 1d3f
00000230: 8ef9 b43e fcf6 143f ead3 f2be 1a0d ebbe
00000240: 6612 abbe f5d7 17bf fbb3 49be 8149 eabe
00000250: bc5c c03e 4cc6 353f c165 83be d164 3ebe
00000260: 0f18 4dbe de03 433f 2a2d a53e 26e6 1c3f
00000270: 42ca bc3e 03fa 813e c4d0 0a3f 1c49 f8bd
00000280: 91f9 04bf 9aa5 2a3e 1b36 513f b225 0a3f
00000290: 1eaa 203e 808a e23e 9442 fa3e afad 153f
000002a0: 6958 323f 198c 1abe a1da 193f 0fb8 333f
000002b0: 3fbb 1f3f 59db 1b3f a4b4 003f 7355 383f
000002c0: a798 8dbe cb0d 4d3e 240c f13e db11 88be
000002d0: 8a77 f23e b1f7 953e 9034 0b3f 9af9 063f
000002e0: 5684 953d c891 93bc 86fc afbe a8e0 093f
000002f0: ed68 2dbf 2346 55be 38cf 8c3e 4927 193f
00000300: 0f32 d83c 38c1 203d 8c20 113f 1e93 273f
00000310: db16 323f e805 5bbe 8eff b6be 9d41 023f
00000320: ac60 203f c09f 933e 4684 0e3f 2304 b53e
00000330: 8b2a a8be 4b39 02bf 6cec 0fbe c22e b93d
00000340: d5bc b1be adde e2bd 5d04 39bf 8fa8 d8be
00000350: 3366 d53e 78f4 f3be 208d 373d 8b12 1a3f
00000360: 1573 fd3c eb9f 1e3f 651e 48bf 422a 2b3e
00000370: fe32 e63d 3293 223f e234 103d 9139 3fbe
00000380: b274 d0bc 5477 30bf e76b 013f 8284 18bf
00000390: 8715 0b3f b702 d8be 7fe8 293f 9e83 91bd
000003a0: 5a6f 35be 9bd5 72bc 86bb 94be 5efa 49bf
000003b0: 0824 153f 9c81 0ebf ecbc 2a3f 5def fdbe
000003c0: 2db6 94be abe1 0b3f 9c02 10bf d881 843e
000003d0: e458 f43e 3141 84be 02e7 b1be 5f7c 00be
000003e0: 55bf d2be a8ad b1bd c0b3 f6bc 0c9d e83d
000003f0: e11e 11be a122 0e3f 060e 2a3f afb5 203f
0.46678028 0.31229097 -0.12798424 -0.17431991 0.61987096 -0.45016915 -0.19926094 -0.007986022
-0.1273289 0.46493772 0.075154886 -0.20257375 0.37473986 0.63257223 -0.18199612 0.37876448
0.6606497 -0.35300738 0.2287549 0.3621206 -0.3948831 0.33817565 -0.44668603 0.5018363
0.07392634 0.5553104 -0.20146905 0.13300319 0.38383925 0.34043884 -0.42744046 -0.44329697
-0.14761883 -0.18862836 -0.35905248 -0.054001294 0.24399062 -0.16897453 -0.23547612 -0.27668214
-0.15015015 0.46927094 -0.22283831 0.17930368 0.34190944 -0.023500893 0.6761363 0.12517607
0.68904465 -0.2967762 0.0977474 -0.116232984 0.4529078 -0.038906787 -0.24556814 0.56198394
0.63036525 -0.4821713 0.47991714 0.34561887 0.7280803 0.72881085 -0.36475644 0.48340335
-0.13770767 0.5287316 0.20696019 -0.2458026 -0.17727722 0.26100522 0.3625304 0.11584432
-0.49582428 -0.4595332 -0.34103808 -0.095764615 -0.37477165 -0.08631589 -0.15716647 -0.24585226
0.44351584 0.013272974 -0.42164567 0.4005155 0.42954063 0.5836486 0.19729532 0.038656242
0.8023757 -0.051453058 0.21718669 -0.5367222 0.56514895 -0.19430095 0.42340955 -0.26311338
0.77370745 0.29616234 -0.16218413 0.38983047 0.4443846 -0.20856017 -1.1073459 -0.3652162
0.60085136 -0.01410394 -0.29876876 -0.7123614 0.541012 0.059076168 0.2180487 0.5560413
0.6258234 -0.12921742 0.04718929 0.05247817 0.59897894 0.60663897 -0.52597344 0.57162464
0.44075516 0.113716155 -0.29030782 -0.5061354 -0.19200917 0.5076583 0.21801154 -0.3617042
-0.4180903 -0.23803395 0.3811538 0.24613887 -0.02664122 0.038029525 0.54109 0.67830455
0.38647038 0.511126 -0.32022431 0.6149094 0.35346645 0.5818937 -0.47427303 -0.45908433
-0.33412474 -0.593139 -0.19697563 -0.45759204 0.3757075 0.710057 -0.2566357 -0.18593146
-0.20028709 0.76177776 0.3226102 0.6128868 0.3687306 0.25386056 0.542248 -0.121233195
-0.5194331 0.16664734 0.81723183 0.5396377 0.15689895 0.44246292 0.4887892 0.58468145
0.69666153 -0.15092506 0.60099226 0.70202726 0.6239509 0.6088157 0.50275636 0.72005385
-0.27655527 0.20024793 0.47079575 -0.26576123 0.47356826 0.29290536 0.5437708 0.5272461
0.07300632 -0.01801385 -0.34372348 0.53858423 -0.6773823 -0.20827536 0.27501845 0.5982557
0.026391057 0.039246768 0.5669029 0.6545886 0.69566125 -0.21388972 -0.35741848 0.5088137
0.6264751 0.28832817 0.55670583 0.3535472 -0.32844958 -0.5086867 -0.14055032 0.090421215
-0.3471438 -0.11077628 -0.7227228 -0.423161 0.41679534 -0.47647452 0.04481232 0.60184544
0.030938664 0.61962765 -0.7817138 0.16715339 0.11240195 0.6350585 0.035206683 -0.18674304
-0.02544627 -0.6893208 0.5055527 -0.5957719 0.54329723 -0.4218957 0.66370386 -0.07105182
-0.17718259 -0.014821435 -0.2904932 -0.78897655 0.58258104 -0.5566652 0.6669452 -0.49596682
-0.2904524 0.54641217 -0.5625398 0.25880313 0.47724068 -0.25830987 -0.34746557 -0.12547444
-0.411616 -0.086757004 -0.030115008 0.11358079 -0.14171936 0.5552159 0.6642765 0.6277723

net.net.2.weight f4 [256, 256]
00000000: f06d cc3d 5d79 99bd d8be 953d 36a2 f6bc
00000010: fb48 2e3e 6a1a 2ebe 1572 48be 68c2 60bc
00000020: 9644 bc3d 5bb4 dd3d a92e 8f3c 5324 c6bd
00000030: 13ef a03c 438d d23d 0e0e adbe 5381 2b3e
00000040: bb2e af3e 3df2 4cbe 2ad7 0e3e b810 4f3d
00000050: 6dbf 10be 3898 4c3d e141 833c badd 793e
00000060: 3fab a33d 5920 463e 4fc1 573d 71a7 813d
00000070: 6888 9b3e d6f6 a03e e9be e4bd 66b7 5b3d
00000080: a2a1 19be 83f7 acbd 0117 e93d 85d3 81be
00000090: 3cfc 123e 87e9 cb3d 548e 76be c92d abbd
000000a0: a2c1 43bd 8161 513e 573c 8bbd 0729 003e
000000b0: 46f9 1a3e e307 fb3d 3fda 9c3e a8ab 6d3c
000000c0: db83 703e ba96 32bd 36e3 573e e68c 813d
000000d0: f947 b13d 53d1 0ebe b55f 053d 64a1 0e3e
000000e0: da5b 813e ba0d debe 4e75 9ebd 78d1 363c
000000f0: 0e18 623e 302e 153e 2ddd 2fbe 3e36 5e3e
00000100: 72f0 00be e05e b93d fcf8 243e 4fb8 56be
00000110: 154f cdbd 600c 183e daf8 373e a83f b6bd
00000120: c07e 33be cd73 333b 6caa babe 66a1 a73c
00000130: c5ad e53b a0cf b63d 3cd6 e33d 697f 87bd
00000140: 3990 063e 8ce7 0abe d03e 433b d679 6c3e
00000150: 0281 8b3e 7d3d 163e 0590 f53d 414d 103c
00000160: d120 3c3e 6580 0abd 8729 21bc b058 2a3e
00000170: 674a 183e 0c30 adbe 74aa 9a3d e8bc d1be
00000180: e967 2d3e 08af e93d 4d8c 34be 8c2c ca3d
00000190: af92 d83d c232 cf3c a11e 91bf a76d 973c
000001a0: 11f5 cb3b 7be6 813d 7f57 a5bd a2dd eebe
000001b0: ff19 0e3e dc2d 4fbd cb0d c5bd f9b1 373e
000001c0: c8b0 003e b28b 173e 889d 773c ec2a ba3d
000001d0: cdf2 d33d 02b3 153e f737 c7be 2f4a fa3d
000001e0: 5493 033e 50d6 3a3e 8637 15be bbb1 3dbe
000001f0: ffc3 9cbd 544f 7e3d c86b b33b 9ee4 82be
00000200: 5aa5 d3be 3954 5ebd 7df6 ae3c c58c 3e3e
00000210: d09c 213d e474 863e 53de 3a3e ca5f c43c
00000220: 20a7 a53d db2d d53d 88af 61be f79c 633d
00000230: 8f7a ac3c 7e90 323d 6dd1 383d 2964 7a3e
00000240: 7deb 46bd 977d aabc ea84 19be 51c7 743d
00000250: 5169 ccbd 2b21 6a3e f523 84bd cacc b4bd
00000260: f210 513d 9fbc cc3e 1d3b 233e e9f9 913e
00000270: 895e 0a3e 8c4e de3d 1e7f fd3d 9de1 2c3d
00000280: 74a2 debd 4f4e 833c e182 2c3e de91 9c3e
00000290: 392f b63d d9dc c63d 6fa9 623d 7ce5 b63d
000002a0: a345 493e 5877 4dbd a56e ec3d b4c7 003e
000002b0: 2010 4d3e 7a19 423e 8f88 3f3e a6d4 4d3e
000002c0: fe4d 9abe 162b cf3c 2871 d93d 2d65 67be
000002d0: 683b e23d 0d80 c7bd e397 b93d 34c5 2a3e
000002e0: 7652 13be 0d1d 2bbd d6e9 75be 05a5 f63c
000002f0: cf57 97be 14db 99be e900 04bd 00ae ed3d
00000300: 07f9 c7bd 16c4 9b3d 5a6e 633e 1be6 ad3d
00000310: cd24 183e 56a8 ffbd ad69 39be 4fa3 e83c
00000320: 101f 883e c952 063e b424 943c cad6 8a3d
00000330: e6fb cbbe 3442 90be a4f9 cbbc deb7 963d
00000340: 95f6 e0bc 09ab 99bd 7151 4fbf 1f9f a1bc
00000350: cafc ae3d a176 49bd f687 b13d f6ea 0d3e
00000360: 7e08 513a b4ff 1b3e f303 29bd 433b bcbc
00000370: 53bd 153e 8105 2b3e 9000 1cbe 3fcc d23b
00000380: 85cb a13d 792c db3d 1f89 1b3e 1b49 89bd
00000390: 4b94 b33d 289c 543a 7600 743e 3b0b e13d
000003a0: ed84 fc3d 089f b23c 9bcf 0cbe 3f5a 03bf
000003b0: b394 263e 7298 2abc 0876 f63d a72d e6b9
000003c0: 97cc 803c 5f0d bf3d efa7 cfbe 37b9 4fbd
000003d0: 1f81 0b3d fc94 943c 3c29 b5bc 2261 713d
000003e0: 1a90 99be d383 1c3e 122c c83c 71af 463e
000003f0: 0edc 243e fcb1 163e 64a1 633e c7a5 123e
0.099819064 -0.07493851 0.07311791 -0.030106645 0.17020027 -0.17002264 -0.19574769 -0.013718225
0.09192769 0.10825416 0.017478304 -0.09674897 0.01964525 0.1028085 -0.33799785 0.16748552
0.3421534 -0.20014282 0.13949266 0.050553054 -0.14135523 0.049949855 0.016022624 0.24400988
0.07991647 0.19348277 0.052674588 0.06330765 0.30377507 0.3143832 -0.11169226 0.0536417
-0.15003064 -0.084456466 0.11381341 -0.2535669 0.14354032 0.09956651 -0.24077731 -0.08358342
-0.047792085 0.20447351 -0.06798618 0.1251565 0.15134153 0.12257364 0.3063526 0.014506258
0.23487799 -0.043600775 0.21082768 0.06325702 0.08656306 -0.13947038 0.032561976 0.13928753
0.2526539 -0.43369848 -0.07737218 0.01115834 0.22079489 0.145684 -0.17174216 0.21700379
-0.12591723 0.09051299 0.16110605 -0.20968746 -0.10024849 0.1484847 0.17966023 -0.0889886
-0.1752882 0.0027382255 -0.36458147 0.020462703 0.0070092403 0.0892632 0.11124846 -0.066160984
0.13140954 -0.1356489 0.0029792078 0.23093352 0.27246863 0.14671893 0.1199036 0.008807481
0.18371893 -0.033813853 -0.009836561 0.16635394 0.14872132 -0.3382572 0.075520426 -0.40964437
0.1693417 0.11410338 -0.17631646 0.09871778 0.10574853 0.025292758 -1.1337472 0.018484903
0.0062242826 0.06342789 -0.08073329 -0.46653467 0.13877104 -0.050580844 -0.096217714 0.17938985
0.12567437 0.14799383 0.015113242 0.09090218 0.10349045 0.14619067 -0.38909885 0.12221181
0.1284917 0.18245816 -0.14571962 -0.1852483 -0.07654571 0.062087372 0.005475495 -0.25565046
-0.4133709 -0.05427954 0.02135777 0.18608387 0.03945619 0.26261055 0.18248872 0.023971457
0.08088517 0.10409137 -0.22039616 0.055569615 0.021054534 0.04359483 0.0451216 0.2445227
-0.048564423 -0.020811839 -0.14992109 0.059760395 -0.09981025 0.22864215 -0.06452171 -0.08828123
0.05104155 0.39987656 0.15940519 0.2851098 0.13512625 0.108548254 0.12377761 0.04220735
-0.10870829 0.016028551 0.16846801 0.30580038 0.08895726 0.09710092 0.055337366 0.089304894
0.1965547 -0.050162643 0.11544541 0.1257618 0.20025682 0.18955031 0.18704437 0.2010065
-0.30137628 0.0252891 0.10617286 -0.22597189 0.11046487 -0.097412206 0.09062173 0.1667679
-0.14386925 -0.04177575 -0.24014983 0.030107984 -0.2955918 -0.30049956 -0.03222743 0.116054535
-0.09764295 0.0760576 0.22210065 0.08491155 0.14857788 -0.124832794 -0.18106718 0.028398184
0.265862 0.13117518 0.018083908 0.06779249 -0.3984062 -0.2817551 -0.024899311 0.07359289
-0.02746133 -0.075033255 -0.80983645 -0.019729195 0.085443094 -0.0491854 0.086685106 0.13859162
0.0007973983 0.15234262 -0.041263532 -0.022977477 0.14623003 0.16701318 -0.1523459 0.0064330394
0.079001464 0.10701842 0.15189026 -0.06703397 0.08768519 0.00081104273 0.23828301 0.1098847
0.12330041 0.021804348 -0.1375107 -0.5130958 0.16267662 -0.010412322 0.120342314 -0.00043903032
0.015722556 0.09328722 -0.4055781 -0.050713744 0.034058686 0.018137448 -0.022114389 0.058930524
-0.29992753 0.15284662 0.024435077 0.19402863 0.16099569 0.14716333 0.22229534 0.14321052
