iql_hopper_medium_replay_v2_seed1.pt (torch, 842140 bytes, 16 tensors)

backbone.net.0.weight f4 [256, 11]
0	0x3da26d11	0.07930959
1	0xbe5becfe	-0.21477124
2	0xbeec9912	-0.46210533
3	0xbe255044	-0.161439
4	0x3d297aef	0.041377004
5	0xbe949531	-0.29020074
6	0xbcb68e95	-0.022284785
7	0x3d8bde4c	0.06829509
8	0x3e3af03c	0.18255705
9	0xbd2a4956	-0.041573845
10	0x3ef4ffcd	0.4785141
11	0x3d37e462	0.044895537
12	0x3e01b625	0.12667139
13	0xbe9b0983	-0.30280694
14	0x3e289a1b	0.16465037
15	0x3e5aaf45	0.21355923
16	0xbef41714	-0.47673857
17	0x3ec8aab0	0.39192724
18	0xbdd2f259	-0.103001304
19	0xbdd4b1b9	-0.103854604
20	0xbcc15ced	-0.02360388
21	0x3e9c6959	0.30549124
22	0x3e73088f	0.23733734
23	0x3e33a6f8	0.17544162
24	0xbd9768ed	-0.0739306
25	0x3e47b7d3	0.19503717
26	0x3db751a0	0.089511156
27	0x3e01f6fb	0.12691872
28	0xbe4a8443	-0.19777016
29	0x3dfe163e	0.12406586
30	0xbe140764	-0.14455944
31	0x3dd00ff2	0.10159291
32	0x3db1f824	0.08689907
33	0xbd99c6e0	-0.075086355
34	0xbdcc4f6d	-0.09976087
35	0x3d3680dc	0.044556484
36	0x3e240181	0.16016199
37	0x3e0bcfd6	0.13653502
38	0xbe482188	-0.19544041
39	0x3f5d24fc	0.8638456
40	0x3df78993	0.12086787
41	0x3d0cf6b6	0.03441497
42	0xbe861e7e	-0.2619514
43	0xbe866afd	-0.262535
44	0xbe67dcc3	-0.22642808
45	0xbdf62ec0	-0.120206356
46	0xbe09891f	-0.13431214
47	0x3d520bcf	0.051280793
48	0xbc3aae25	-0.011394058
49	0xbecc47f1	-0.39898637
50	0x3e877dfb	0.26463303
51	0x3ddaf12d	0.10690532
52	0xbe36c89b	-0.17849962
53	0xbd445b3a	-0.047938563
54	0xbe3c5668	-0.18392336
55	0x3e854922	0.26032358
56	0x3e4a0332	0.19727781
57	0xbf0980b3	-0.53712004
58	0x3e7bdd7e	0.24596211
59	0xbdbec0c7	-0.09314113
60	0x3ec17b9f	0.37789628
61	0x3dda0959	0.10646314
62	0x3e16feb1	0.14745595
63	0xbe413881	-0.18869211
64	0xbdfd339f	-0.123633616
65	0xbe9cd174	-0.3062855
66	0xbd6ffb9a	-0.058589555
67	0xbdd23b38	-0.10265201
68	0xbe3b44d7	-0.18287979
69	0x3d80d6ea	0.062909916
70	0x3d13d58f	0.036092337
71	0x3ea6795c	0.32514465
72	0x3dc61375	0.0967168
73	0xbebfebb6	-0.3748452
74	0x3f0a850a	0.5410925
75	0x3eaa1213	0.33216915
76	0xbed39667	-0.41325685
77	0x3e083c20	0.13304186
78	0x3cfc9121	0.030830922
79	0xbeabfb17	-0.33590004
80	0x3ed20dfd	0.41026297
81	0xbe073389	-0.13203253
82	0xbcda81ec	-0.02667328
83	0x3e021ba0	0.1270585
84	0xbd5f5a5d	-0.054529537
85	0xbe444d3c	-0.19170088
86	0x3e85f168	0.2616074
87	0x3e8874e3	0.26651677
88	0x3ed00e91	0.40636113
89	0xbac4df8a	-0.0015020233
90	0x3e16cb70	0.14726043
91	0x3e6c00b3	0.23047142
92	0x3e67609e	0.2259545
93	0x3e0f9097	0.1402
94	0xbed1a5c5	-0.40946785
95	0x3dc9a411	0.09845746
96	0xbe326fec	-0.17425507
97	0x3e0f07eb	0.13967864
98	0x3da5c55b	0.08094283
99	0xbe1ea1e3	-0.15491442
100	0xbf031247	-0.51199764
101	0x39963530	0.00028649857
102	0x3e136bd2	0.14396599
103	0xbeffd3f4	-0.49966395
104	0x3e8ff77c	0.28118503
105	0x3df0b78d	0.117537595
106	0xbe104208	-0.14087689
107	0x3c85f798	0.016353413
108	0xbd560363	-0.052249324
109	0x3c0fa4f3	0.008767354
110	0xbdcb4725	-0.09925679
111	0x3d6813fc	0.056659684
112	0x3eaa28fd	0.33234397
113	0x3f010fd5	0.5041478
114	0xba9c9c64	-0.0011948464
115	0x3efc1e5d	0.49241915
116	0x3df52dd6	0.11971633
117	0xbe15af12	-0.14617565
118	0xbdcb71db	-0.099338256
119	0xbe6868ae	-0.22696182
120	0xbf0435a3	-0.51644343
121	0xbe3fd2f7	-0.1873282
122	0xbdaabac8	-0.08336407
123	0xbe11a133	-0.14221649
124	0xbe5df500	-0.21675491
125	0x3cbca959	0.02302997
126	0xbe67bb05	-0.22629936
127	0xbe726edf	-0.23675106
128	0xbdc3127a	-0.095250085
129	0xbe92cfee	-0.28674263
130	0x3e4ad868	0.19809115
131	0x3f25f770	0.64830685
132	0xbdf36efe	-0.118864045
133	0xbe32c515	-0.17457993
134	0xbeb8511d	-0.35999385
135	0xbe0c1f81	-0.13683893
136	0x3f0de853	0.55432624
137	0xbb2ebe5d	-0.0026663758
138	0xbebaf049	-0.36511448
139	0xbe9c9af6	-0.30586976
140	0x3e980a73	0.29695472
141	0x3e5efa83	0.2177525
142	0xbe709a2c	-0.23496312
143	0xbe610956	-0.21976218
144	0x3c826be2	0.015920583
145	0x3dcd0d52	0.10012306
146	0xbd80ebe2	-0.06294991
147	0x3e4c68d8	0.1996187
148	0x3eeae3d1	0.45876935
149	0xbe4b8056	-0.19873175
150	0xbe91db4e	-0.2848763
151	0x3e2dedc6	0.16985235
152	0xbdc74795	-0.0973045
153	0x3ecff07d	0.40613165
154	0xbeb75f4d	-0.35814896
155	0xbef859ac	-0.48505914
156	0x3e94c58c	0.29056966
157	0x3f25f565	0.6482757
158	0x3e98a48c	0.2981304
159	0xbe5b6f21	-0.21429111
160	0x3e06d6a0	0.1316781
161	0x3e9a40d9	0.301276
162	0x3dce8612	0.10084166
163	0xbced2435	-0.028947929
164	0xbdd609c6	-0.10451083
165	0x3d6f3aac	0.058405563
166	0xbe5a65a0	-0.2132783
167	0xbe71038d	-0.23536511
168	0x3e66eb22	0.22550634
169	0xbe42b6c5	-0.19015034
170	0xbca6cc17	-0.02036099
171	0xbe66e608	-0.22548687
172	0xbe2b551d	-0.16731687
173	0xbe612a49	-0.21988787
174	0x3e848625	0.25883594
175	0xbeff96cc	-0.49919736
176	0xbf0a0cde	-0.53925884
177	0x3dda547a	0.10660644
178	0x3e978904	0.29596722
179	0x3e5cb957	0.21555077
180	0xbe541125	-0.20709665
181	0xbe816f0d	-0.25280038
182	0x3d743223	0.059618127
183	0x3e52e715	0.20595963
184	0xbeaac3c8	-0.33352494
185	0xbe9136e1	-0.28362182
186	0xbe81ba6d	-0.25337544
187	0xbdac3b73	-0.084097765
188	0xbef2c2d5	-0.4741427
189	0xbd6980b9	-0.057007525
190	0xbde8d8a5	-0.11369447
191	0xbebfce27	-0.3746197
192	0xbe683891	-0.22677828
193	0x3e95bfe6	0.2924797
194	0x3d892019	0.06695575
195	0x3e53af03	0.2067223
196	0x3e8158ca	0.25263053
197	0x3f274960	0.65346336
198	0x3e6ede7a	0.23327056
199	0x3eb3938e	0.35073513
200	0x3eed3893	0.46332225
201	0xbe0f6593	-0.14003591
202	0xbd65b307	-0.056078937
203	0xbc55f522	-0.0130589325
204	0x3e914bbe	0.283781
205	0xbdd6bd1c	-0.104852885
206	0x3e7f66e7	0.24941598
207	0x3d0e5865	0.03475227
208	0x3e452cc6	0.19255361
209	0xbc55165e	-0.013005821
210	0x3dac18be	0.08403157
211	0xbe977e55	-0.2958857
212	0xbc226742	-0.009912314
213	0xbe0b6502	-0.1361275
214	0xbe5da2f3	-0.21644191
215	0x3f255348	0.645802
216	0x3e6cf831	0.23141553
217	0xbeae47b7	-0.3403909
218	0xbe95ea0b	-0.29280123
219	0x3e3a5cbc	0.18199438
220	0xbe4788c9	-0.19485773
221	0xbe374acc	-0.17899626
222	0xbe779dd8	-0.24181306
223	0xbdd76d49	-0.10518891
224	0xbe421bff	-0.18955992
225	0xbe18d150	-0.14923596
226	0x3e9dd434	0.3082596
227	0x3e9e4698	0.30913234
228	0xbea7045c	-0.32620513
229	0xbd49ec1c	-0.049297437
230	0x3eae5a2a	0.34053165
231	0xbe91db11	-0.28487447
232	0x3dfe4bb6	0.124167845
233	0xbf1f8b8c	-0.62322307
234	0x3f0807ba	0.5313679
235	0xbd5595a4	-0.05214466
236	0xbf0c0fca	-0.5471159
237	0x3ec7a517	0.3899314
238	0x3e362293	0.17786627
239	0x3cbda1a0	0.023148358
240	0xbcf0879b	-0.029361537
241	0xbe023719	-0.1271633
242	0xbe452b7c	-0.19254869
243	0xbe2f39d7	-0.17111908
244	0x3eca5425	0.39517322
245	0x3e3b03c2	0.18263152
246	0xbdb6a354	-0.08917871
247	0xbedb9eee	-0.4289469
248	0xbf005e27	-0.50143665
249	0x3d27195b	0.040795665
250	0x3ed726a0	0.42021656
251	0x3dc1784e	0.094467744
252	0x3e0ae0a7	0.1356226
253	0x3d82a27f	0.0637865
254	0xbdcdeeaf	-0.10055291
255	0x3e9100b8	0.2832086

backbone.net.0.bias f4 [256]
0	0x3d642a6a	0.05570451
1	0xbd86f55b	-0.065897666
2	0x3e203794	0.15646201
3	0xbf316fa2	-0.69310963
4	0x3de8d490	0.11368668
5	0xbec35572	-0.38151127
6	0xbe204383	-0.15650754
7	0xbddc342d	-0.10752139
8	0x3dac7b14	0.08421913
9	0xbe7e6060	-0.24841452
10	0xbef0ee66	-0.47056884
11	0xbedf824a	-0.4365409
12	0xbf0822ee	-0.531783
13	0xbe540292	-0.20704105
14	0xbf00b76c	-0.5027988
15	0xbf136d49	-0.5758863
16	0xbe3adc44	-0.18248087
17	0xbde4e249	-0.11175973
18	0xbf3c8805	-0.7364505
19	0xbcd696e0	-0.02619499
20	0xbc8d6b87	-0.017263187
21	0xbe50ab2f	-0.20377801
22	0xbeeda486	-0.46414584
23	0xbebff1da	-0.37489206
24	0xbf2f93b4	-0.6858475
25	0x3d9142db	0.0709283
26	0xbf0670b3	-0.52515715
27	0xbc54ed06	-0.012995964
28	0xbebe5882	-0.371769
29	0x3d893a2f	0.06700551
30	0xbedc13c9	-0.42983845
31	0xbe00d1d1	-0.12580039
32	0xbec7c3a3	-0.39016446
33	0xbeb2afb4	-0.34899676
34	0x3d5d004a	0.053955354
35	0x3d8a29b1	0.06746233
36	0xbd6d5695	-0.0579439
37	0xbea5881a	-0.323304
38	0xbd973b56	-0.07384364
39	0xbed994d5	-0.42496362
40	0xbe19943f	-0.14997958
41	0xbd91c7cc	-0.07118186
42	0xbe53ccdf	-0.20683621
43	0x3cf59aaf	0.029980985
44	0xbd74bc9b	-0.05975018
45	0x3e04a6b3	0.12954216
46	0xbe6b9f6e	-0.23010036
47	0xbed91d68	-0.42405248
48	0xbef4c8d4	-0.4780947
49	0xbe828729	-0.25493744
50	0x3c7dcf05	0.015491252
51	0xbee04220	-0.4380045
52	0x3d729d86	0.059232257
53	0xbe740fdf	-0.2383418
54	0xbd6501be	-0.055909865
55	0x3d30efa0	0.043197274
56	0xbda8a19e	-0.08233951
57	0xbeaffe45	-0.3437368
58	0xbe4d7d5e	-0.20067355
59	0xbeeea08f	-0.4660687
60	0x3de83688	0.11338526
61	0x3d88d541	0.066813
62	0xbed12eff	-0.40856168
63	0xbe990f4f	-0.29894492
64	0xbc74cf75	-0.01494204
65	0x3dfd6fa5	0.1237481
66	0xbea7e48a	-0.3279155
67	0xbd9957cc	-0.07487449
68	0xbef2e081	-0.47436908
69	0xbe40c51c	-0.18825191
70	0xbec448bf	-0.3833675
71	0xbef770c2	-0.48328215
72	0xbe09c985	-0.1345578
73	0x3daa9f95	0.08331219
74	0x3d8b4742	0.06800701
75	0x3afdebef	0.0019372682
76	0x3e834059	0.2563503
77	0xbe5c7224	-0.21527916
78	0x3bffb8ea	0.007804026
79	0xbea0cc9a	-0.314061
80	0xbedb02be	-0.4277553
81	0xbe96efde	-0.2947988
82	0xbd335fff	-0.04379272
83	0xbe8d9308	-0.27651238
84	0xbe8c29cb	-0.27375636
85	0xbeb16fd1	-0.34655622
86	0xbf119021	-0.5686055
87	0xbe9c96a8	-0.30583692
88	0xbed8e139	-0.4235933
89	0xbec98038	-0.39355636
90	0x3d987d87	0.074458174
91	0xbcc61b28	-0.024182871
92	0xbe6143c3	-0.21998505
93	0xbcf076c5	-0.029353509
94	0xbd8ca67c	-0.06867692
95	0xbe5ffa0a	-0.21872726
96	0x3dc76b8f	0.09737312
97	0x3da3b5e7	0.079936795
98	0xbed6de11	-0.41966298
99	0xbee0da7b	-0.43916687
100	0x3e1ee0fe	0.15515515
101	0xbf2833df	-0.6570415
102	0xbe6c2ab4	-0.23063165
103	0x3d3b66d5	0.045752365
104	0xbc629b51	-0.013830976
105	0xbe397457	-0.18110786
106	0xbd6d792c	-0.057976887
107	0xbde8b64a	-0.11362894
108	0xbe0bc180	-0.13648033
109	0xbeea0e20	-0.45713902
110	0xbeb3d3be	-0.35122484
111	0x3e38842f	0.18019174
112	0xbecfb421	-0.40567115
113	0xbd3415a9	-0.04396597
114	0xbce073a8	-0.0273989
115	0x3daf46e3	0.085584424
116	0x3da497b0	0.080367446
117	0x3e00baa9	0.12571205
118	0xbec07b37	-0.37594005
119	0xbe9fe960	-0.31232738
120	0xbdbf3ec2	-0.09338142
121	0xbb9e8356	-0.004837434
122	0xbe245d50	-0.16051221
123	0xbe82e96d	-0.25568715
124	0xbde5ca8a	-0.11220272
125	0x3e007deb	0.12548034
126	0xbdda3d67	-0.10656243
127	0x3e9a5062	0.30139452
128	0x3ad359c5	0.0016124776
129	0xbd9a1c68	-0.07524949
130	0xbdfcf8b4	-0.12352124
131	0xbdf287b7	-0.11842292
132	0x3e2de062	0.16980127
133	0xbed44269	-0.41456917
134	0x3d3d4245	0.046205778
135	0xbeecf6f4	-0.4628216
136	0x3da390d9	0.07986612
137	0xbf143877	-0.5789866
138	0xbeed9996	-0.4640624
139	0xbd223481	-0.039600853
140	0xbec0298a	-0.37531692
141	0x3e235abe	0.15952584
142	0xbe21ff84	-0.15820128
143	0x3e50a23a	0.20374385
144	0xbe53cac4	-0.20682818
145	0x3e03e99f	0.12882088
146	0x3dc4eca4	0.09615448
147	0xbee763b6	-0.4519326
148	0xbddb95fd	-0.10721967
149	0xbea2380b	-0.31683382
150	0x3d24bb31	0.040217582
151	0xbeabd61a	-0.33561784
152	0xbe3c89ee	-0.18411991
153	0xbd4ae75b	-0.049537044
154	0x3e2f1de9	0.17101254
155	0xbe26b322	-0.16279271
156	0xbe10e5c5	-0.1415015
157	0xbed8a0b8	-0.4231012
158	0xbed9d9ca	-0.42548972
159	0x3cb3a556	0.021929424
160	0x3e9c5b19	0.30538252
161	0xbe9852da	-0.2975071
162	0xbda1094c	-0.07863101
163	0x3dfc1d31	0.12310255
164	0xbedb1836	-0.4279191
165	0xbdb034fe	-0.086038575
166	0xbede2ade	-0.4339208
167	0x3e22c51b	0.15895502
168	0x3cc678e6	0.02422757
169	0x3c0a110c	0.008426916
170	0xbed6b769	-0.41936806
171	0xbf255f0b	-0.6459815
172	0xbed1acd7	-0.4095218
173	0xbe3f263b	-0.18666928
174	0x3cc3c6c7	0.023898495
175	0xbddec16a	-0.108767346
176	0xbec4d9a0	-0.38447285
177	0xbe184f0b	-0.14873902
178	0xbedb1425	-0.42788807
179	0xbf1c0f57	-0.60960907
180	0x3e468265	0.19385679
181	0x3e9f1b8f	0.31075713
182	0xbe63a1bc	-0.22229666
183	0x3e0fc15b	0.14038603
184	0xbeb9f001	-0.3631592
185	0xbe215841	-0.15756322
186	0x3ddc126e	0.10745703
187	0xbd3026d2	-0.043005772
188	0xbe0f9dc4	-0.14025027
189	0xbea5ff7f	-0.3242149
190	0xbe1e549f	-0.15461968
191	0xbeaad713	-0.33367214
192	0xbeaf4e90	-0.34239626
193	0xbde177cc	-0.110091776
194	0x3e602460	0.21888876
195	0xbdf41db5	-0.11919729
196	0xbe76d095	-0.24103005
197	0xbf02dadd	-0.5111521
198	0xbdc6af9d	-0.09701464
199	0xbf0fad99	-0.56124264
200	0xbee61bab	-0.44942984
201	0xbe85fae7	-0.26167986
202	0xbeb04052	-0.34424073
203	0xbe835cd7	-0.2565677
204	0x3e782b50	0.24235272
205	0xbd604f87	-0.054763343
206	0xbf083c70	-0.5321722
207	0xbe29dc8a	-0.16588035
208	0x3d8bc3cc	0.06824455
209	0xbe9e1994	-0.3087889
210	0x3df0b816	0.117538616
211	0xbbfc4029	-0.007698078
212	0xbe306027	-0.17224179
213	0xbd1dc668	-0.038519293
214	0xbe78135a	-0.24226132
215	0xbee78511	-0.4521871
216	0xbf2f2ccc	-0.6842773
217	0xbea1cd07	-0.31601736
218	0x3d84ec74	0.06490412
219	0x3e2d4410	0.16920495
220	0xbf25f565	-0.6482757
221	0xbcb996aa	-0.02265485
222	0xbec7d5ac	-0.39030206
223	0xbe2fad9f	-0.17156075
224	0x3dee8377	0.11646169
225	0xbe72c92f	-0.23709558
226	0x3d126625	0.035741944
227	0x3ced86ba	0.028994907
228	0xbf160bec	-0.5861194
229	0xbd88099e	-0.06642459
230	0xbd9e2e0c	-0.077236265
231	0xbf01e1ad	-0.5073498
232	0xbf0aacb9	-0.54169804
233	0xbd36dd2d	-0.044644523
234	0xbd419812	-0.047264166
235	0xbebf3963	-0.3734847
236	0xbee0490a	-0.43805724
237	0xbeff40e2	-0.4985419
238	0xbec311b5	-0.38099447
239	0x3ccccd81	0.025000336
240	0xbe1802f4	-0.14844877
241	0xbf25529b	-0.6457917
242	0xbd3cd83f	-0.046104666
243	0x3e6bfffc	0.23046869
244	0xbe0e1cf2	-0.1387823
245	0x3e0d3b96	0.13792261
246	0xbde775f9	-0.113017984
247	0xbe024ccb	-0.12724607
248	0xbea16cab	-0.3152822
249	0xbf24b2ea	-0.643355
250	0xbf0cef00	-0.55052185
251	0x3d862752	0.065504685
252	0xbf0febf7	-0.5621943
253	0xbe490fb0	-0.1963489
254	0xbed5d8a5	-0.4176685
255	0xbeec5a7d	-0.46162787

backbone.net.2.weight f4 [256, 256]
0	0xbe92e5de	-0.28691
1	0xbe57197c	-0.21005815
2	0x3dc47466	0.09592514
3	0xbea33a43	-0.31880388
4	0xbe55e04f	-0.20886348
5	0x3e4fe689	0.20302786
6	0xbe10a20f	-0.1412432
7	0x3d35f6d5	0.04442485
8	0x3dac9949	0.08427674
9	0x3d9aacea	0.07552512
10	0xbdac2a9f	-0.08406567
11	0xbd341d51	-0.04397327
12	0xbeb490b1	-0.3526664
13	0x3cfeb76e	0.031093325
14	0xbeca4cf8	-0.39511847
15	0xbe5dd4a1	-0.21663143
16	0x3de85954	0.11345163
17	0x3d83dc5f	0.06438517
18	0xbd347ae0	-0.044062495
19	0x3dfb1164	0.122591764
20	0x3be1c13e	0.0068894913
21	0x3ca07890	0.019588739
22	0x3e746b9f	0.23869179
23	0xbd350a2a	-0.044199146
24	0xbe81d6c8	-0.25359178
25	0xbeae1211	-0.3399816
26	0xbdeb1d4c	-0.11480197
27	0x3e41a1a3	0.18909316
28	0xbd85c08f	-0.06530868
29	0xbdc2f7c1	-0.095199116
30	0xbe0d0b49	-0.13773836
31	0x3dd4dca4	0.10393646
32	0x3d3b0566	0.045659445
33	0x3c6de7e3	0.014520618
34	0x3d2915f4	0.0412807
35	0xbd652ea6	-0.05595269
36	0xbf05365f	-0.5203609
37	0x3c10c1b7	0.008835248
38	0xbe08dcc3	-0.13365464
39	0xbd603f60	-0.05474794
40	0x3da14ff7	0.0787658
41	0xbe25a6e0	-0.16176939
42	0xbd59b94b	-0.053155225
43	0x3c7cc489	0.015427717
44	0x3cfd8fc5	0.030952344
45	0x3e42394a	0.18967167
46	0x3dac7a73	0.08421793
47	0xbd46cd8b	-0.048535865
48	0xbebf8370	-0.37404966
49	0xbe0c4340	-0.13697529
50	0xbea8425d	-0.3286313
51	0xbe36ed34	-0.17863923
52	0xbba439d4	-0.0050117765
53	0xbefa7ff4	-0.48925745
54	0x3e0159e1	0.12631942
55	0x3e49e7db	0.19717352
56	0x3e07eeb2	0.13274649
57	0x3e186741	0.14883138
58	0xbcbaa9db	-0.022786072
59	0x3cbae96b	0.02281638
60	0xbd8e2ea3	-0.06942489
61	0x3b82d8e1	0.003993139
62	0xbe0d85ec	-0.13820618
63	0xbdffe1b5	-0.12494222
64	0x3e2c4dc3	0.16826539
65	0x3dfb68df	0.12275862
66	0x3e196da8	0.14983237
67	0x3d9ad0e1	0.07559372
68	0xbe5554ce	-0.20833132
69	0xbf652c41	-0.8952065
70	0x3dd97e36	0.10619776
71	0xbd8efebb	-0.0698218
72	0x3cb011f2	0.021492932
73	0x3d5734d7	0.052540626
74	0x3df032d9	0.117284484
75	0xbcb5dce8	-0.022200063
76	0x3d665b05	0.056239147
77	0x3d822ac2	0.06355812
78	0xbd82e251	-0.06390823
79	0x3d0af756	0.033927284
80	0x3ec64f2c	0.38732278
81	0xbd8ec8ff	-0.06971931
82	0xbce1a068	-0.027542308
83	0x3e012bd6	0.12614378
84	0x3dca4842	0.09877063
85	0x3e3f251b	0.18666498
86	0x3d83de39	0.0643887
87	0x3d962be0	0.07332587
88	0x3cb32135	0.02186642
89	0xbd64cc3b	-0.05585883
90	0xbca50e17	-0.02014832
91	0xbd034874	-0.03205152
92	0x3e4163f5	0.18885787
93	0x3b85746d	0.004072717
94	0x3e04493b	0.1291856
95	0xbdfe5ef7	-0.12420457
96	0xbd4b2d23	-0.049603593
97	0x3d9058f0	0.070482135
98	0x3c78ad43	0.015178028
99	0x3d905300	0.07047081
100	0x3d7b9975	0.061425645
101	0xbe807f95	-0.25097337
102	0x3dcba522	0.09943606
103	0x3caecef3	0.021338915
104	0x3d5624f1	0.052281324
105	0x3d2a2a74	0.041544393
106	0xbd2d51a6	-0.042314194
107	0x3e054d89	0.13017859
108	0x3d557d28	0.05212131
109	0xbe7ce999	-0.24698485
110	0x3e1a647c	0.15077394
111	0xbc7a9555	-0.015294393
112	0x3d44bfa9	0.048034344
113	0x3d8f4f34	0.06997529
114	0x3dceb9d3	0.10094037
115	0xbc7f263e	-0.0155730825
116	0x3e17b83a	0.1481637
117	0xbd91b684	-0.0711489
118	0x3d39cf8d	0.04536395
119	0xbdd3adc0	-0.103358746
120	0x3ca7cf49	0.020484583
121	0xbd5dbec9	-0.054137025
122	0x3e215c3b	0.1575784
123	0xbd8bbdd1	-0.06823314
124	0x3cce7982	0.025204424
125	0x3ae212cf	0.0017248037
126	0x3ce389d7	0.027775688
127	0x3d0c5084	0.034256473
128	0x3ce84d4f	0.028357176
129	0x3dbf4f6e	0.09341322
130	0x3e60c592	0.21950367
131	0x3c2477bd	0.010038313
132	0x3bf1177d	0.0073575363
133	0xbd02c94b	-0.03193025
134	0x3de0160d	0.10941706
135	0x3e72a453	0.23695497
136	0xbe08d6a9	-0.13363136
137	0xbe24905d	-0.16070695
138	0xbd484f78	-0.048903912
139	0xbe4eb800	-0.20187378
140	0x3d0e1544	0.03468825
141	0x3c8251f2	0.015908215
142	0xbd7a9673	-0.061178636
143	0x3ea03f9f	0.3129854
144	0xbdd32275	-0.103093065
145	0xbe15e28e	-0.14637205
146	0x3d9ebb8e	0.07750617
147	0xbd0b7e79	-0.03405616
148	0x3e356599	0.17714538
149	0x3e853b93	0.26022014
150	0xbd861b0b	-0.06548127
151	0xbe302220	-0.17200518
152	0x3e1456c4	0.14486223
153	0x3e14c81b	0.14529459
154	0x3ca44655	0.020053068
155	0x3de20285	0.11035637
156	0x3e435ef0	0.19079185
157	0xbe2a1606	-0.16609964
158	0x3e54742b	0.2074744
159	0x3dc0709e	0.0939648
160	0x3e123dc1	0.1428137
161	0x3d99090c	0.07472429
162	0xbe974d26	-0.29551047
163	0xbd3437f1	-0.043998662
164	0xbde95db3	-0.11394825
165	0xbccef20e	-0.025261905
166	0x3d99f0a2	0.075166
167	0xbe928398	-0.28616023
168	0x3db785e4	0.089610845
169	0xbde31670	-0.11088264
170	0xbd956fe3	-0.07296731
171	0x3d9d36b0	0.076764464
172	0x3df78922	0.12086703
173	0xbe07018f	-0.13184188
174	0xbd4708a2	-0.048592217
175	0x3df5bbfc	0.11998746
176	0x3cf09aa7	0.029370619
177	0xbd2588fb	-0.040413838
178	0xbf11eb81	-0.56999975
179	0x3de12119	0.10992641
180	0x3e33b830	0.1755073
181	0xbb7a1a2b	-0.003816257
182	0xbb05a7db	-0.002039424
183	0x3da974c8	0.082742274
184	0xbd97261b	-0.07380315
185	0xbc752fbb	-0.014964993
186	0x3b1d853b	0.002403571
187	0x3c45e4f5	0.012078513
188	0x3ce7c4a3	0.028292006
189	0x3e5160f1	0.20447136
190	0xbcf8ae5a	-0.030356575
191	0xbc7dec90	-0.015498295
192	0xbe992328	-0.29909635
193	0xbb2dfe9c	-0.0026549464
194	0xbe53e941	-0.20694448
195	0x3dba1758	0.09086484
196	0x3d96e8f9	0.07368655
197	0xbcc57fb3	-0.024108743
198	0xbcad72f3	-0.021172976
199	0x3d2ba39e	0.041904084
200	0x3dfa72f1	0.122289546
201	0x3d041c71	0.032253686
202	0xbe842e54	-0.25816596
203	0x3e183612	0.14864376
204	0xbb98c3d2	-0.0046620155
205	0xbdff1ae7	-0.12456303
206	0xbd53d490	-0.051716387
207	0x3d04c23c	0.0324118
208	0xbd952981	-0.07283307
209	0xbd449fd2	-0.04800398
210	0xbe02e1c4	-0.12781435
211	0xbc9d4df0	-0.019202203
212	0x3d841f9b	0.06451341
213	0x3d0e06d5	0.034674484
214	0xbe92affb	-0.28649887
215	0xbd3f4eed	-0.04670613
216	0x3e6d3fcb	0.23168866
217	0xbe0b0c8b	-0.13579004
218	0xbd84cf86	-0.064848945
219	0x3d6f8dd7	0.05848488
220	0x3e884a04	0.2661897
221	0x3dc28e25	0.09499768
222	0xbe81b746	-0.2533514
223	0x3d601c44	0.054714456
224	0x3ca245e0	0.01980871
225	0x3dc2c2a6	0.095097825
226	0xbd2f3cc2	-0.042782553
227	0x3d5b085c	0.05347477
228	0xbf174720	-0.59092903
229	0xbd5080da	-0.050904132
230	0x3e08e58c	0.13368815
231	0xbe836767	-0.25664827
232	0x3d32a8ce	0.043618016
233	0x3d95a1fa	0.07306285
234	0x3e07df3a	0.13268748
235	0xbad15c9a	-0.0015973032
236	0x39f3b1e5	0.00046481114
237	0xbef57353	-0.47939548
238	0xbf010b04	-0.50407434
239	0x3ddeb3b2	0.10874118
240	0x3e4b3b7c	0.1984691
241	0xbdff9f4a	-0.12481554
242	0x3e5ad070	0.21368575
243	0x3de548b4	0.11195508
244	0x3def20ad	0.11676154
245	0x3ec39dee	0.38206428
246	0xbc82ae3c	-0.015952222
247	0xbe0d9190	-0.13825059
248	0x3d937f85	0.07202057
249	0xbe28ec46	-0.16496381
250	0xbe3713bd	-0.17878623
251	0xbdebcab6	-0.115132734
252	0x3dd3a198	0.10333556
253	0x3db92e62	0.0904205
254	0xbd530bd9	-0.05152497
255	0xbd82acac	-0.06380591

backbone.net.2.bias f4 [256]
0	0x3e12c888	0.14334309
1	0x3cbd351d	0.023096615
2	0x3da404d3	0.08008733
3	0xbcecd56a	-0.028910358
4	0xbd57fd76	-0.052731954
5	0x3da01c36	0.07817881
6	0xbe59be55	-0.21264012
7	0x3bef0e9f	0.007295444
8	0x3d97d551	0.07413734
9	0x3cd81a72	0.026379798
10	0x3d543b8b	0.051814597
11	0x3c998cba	0.018743861
12	0x3d707b83	0.05871154
13	0x3d488f3a	0.048964716
14	0xbd983db9	-0.07433648
15	0x3dbfa884	0.09358314
16	0xbe075ceb	-0.13219039
17	0x3e067561	0.13130714
18	0x3df2455d	0.11829636
19	0xbdc293e7	-0.095008664
20	0xbdbc3913	-0.091905735
21	0x3e075071	0.1321428
22	0x3d0c42ba	0.034243323
23	0x3e1fb605	0.15596779
24	0x3d93c7be	0.07215832
25	0x3d3be0a9	0.04586855
26	0x3c12e3c5	0.008965437
27	0x3e3cf3e8	0.18452418
28	0x3e287be5	0.16453512
29	0x3e0a0902	0.13479999
30	0x3d550610	0.052007735
31	0xbdf53594	-0.1197311
32	0x3d957484	0.07297614
33	0x3e6d107a	0.23150817
34	0x3e21cf65	0.15801771
35	0x3d25ab21	0.040446404
36	0x3d6c1796	0.05763968
37	0x3e099852	0.13437012
38	0xbdf3f71b	-0.11912366
39	0xbd87e6fb	-0.06635853
40	0x3e02aa00	0.12760162
41	0xbdeea851	-0.116531976
42	0xbd0cd5c4	-0.03438355
43	0xbb7d6c25	-0.0038669195
44	0x3d0950f5	0.033524472
45	0xbe6771a6	-0.22601947
46	0x3d60d0a3	0.05488647
47	0x3dcffdb9	0.10155816
48	0x3bad8ef5	0.005296583
49	0x3d72007d	0.059082497
50	0xbe4605c9	-0.19338144
51	0x3da087d8	0.0783841
52	0x3dcb7532	0.099344626
53	0x3d9c0a7b	0.076191865
54	0x3d907618	0.070537746
55	0xbda22833	-0.07917824
56	0xbe194987	-0.14969455
57	0xbdfe4d8e	-0.12417136
58	0xbe166878	-0.14688289
59	0xbd1bcfec	-0.038040087
60	0x3dc12700	0.09431267
61	0x3d8810c7	0.06643825
62	0x39f300e3	0.00046349232
63	0x3d6f1145	0.05836608
64	0xbc62c088	-0.013839848
65	0x3dab69db	0.083698
66	0x3d69e425	0.05710234
67	0x3e3369e0	0.17520857
68	0x3dfdc1b7	0.12390464
69	0xbb8db3ca	-0.004324411
70	0xbddb2fd3	-0.10702481
71	0xbcba914f	-0.022774367
72	0x3d3878a3	0.045036923
73	0x3da507ad	0.08058105
74	0x3dc0aa61	0.09407497
75	0x3e4ac186	0.19800386
76	0x3d17d505	0.037068386
77	0x3d850162	0.064944044
78	0x3e21ad16	0.15788683
79	0xbe12e95f	-0.14346837
80	0xbc891e55	-0.016738096
81	0xbd02767e	-0.031851284
82	0x3d1a70df	0.0377053
83	0x3ddca07b	0.10772797
84	0xbd02c0c4	-0.031922117
85	0xbd767c6f	-0.060177263
86	0x3da5d8bb	0.08097979
87	0x3dc5ab62	0.09651829
88	0x3ca8fa7a	0.020627249
89	0x3dc1b51d	0.09458373
90	0x3dd18441	0.102303036
91	0x3d12f567	0.035878565
92	0xbc877cdf	-0.016539035
93	0x3db9e362	0.09076573
94	0xb9f5962d	-0.0004684193
95	0xbe18d81b	-0.14926188
96	0xbdd41218	-0.103550136
97	0xbdbd4258	-0.0924117
98	0xbc62fda9	-0.013854423
99	0xbe220935	-0.15823825
100	0x3e24d4c3	0.16096787
101	0xbdfe68e1	-0.12422348
102	0x3ca67725	0.020320484
103	0xbb633044	-0.003466622
104	0x3da3f783	0.080061935
105	0x3c681bb8	0.014166765
106	0x3ca733b5	0.020410398
107	0xbaeba8c4	-0.0017979373
108	0x3dfae2dd	0.12250302
109	0x3cdd2f0e	0.026999976
110	0x3dd50280	0.104008675
111	0xbe719bed	-0.23594637
112	0x3db8e2e8	0.09027654
113	0x3d2ae849	0.04172543
114	0x3d9a53a4	0.075354844
115	0xbc435065	-0.011921023
116	0xbcc26a16	-0.023732226
117	0x3d8659ce	0.06560098
118	0x3e2f1832	0.17099074
119	0x3dcc4c39	0.09975476
120	0x3d338de8	0.043836504
121	0x3db036bb	0.08604189
122	0x3ddb9040	0.10720873
123	0x3d518d99	0.05116043
124	0xbe18cce4	-0.1492191
125	0x3e33f8d2	0.17575386
126	0x3df2d27f	0.11856555
127	0xbd57c87a	-0.052681424
128	0x3da2d305	0.07950405
129	0xbd1be158	-0.0380567
130	0x3e333226	0.17499599
131	0x3d5b4b72	0.053538747
132	0xbde0cf3d	-0.109770276
133	0xbda68af5	-0.08131973
134	0xbdb7dc34	-0.08977547
135	0x3e112867	0.14175569
136	0xbdeef6fd	-0.11668203
137	0x3d50b08d	0.050949622
138	0x3e43d719	0.19125022
139	0xbdafccde	-0.08583997
140	0x3d2564d6	0.040379368
141	0x3cb02388	0.021501318
142	0x3db48a60	0.088154554
143	0xbe1b23ef	-0.15150426
144	0xbbe583d0	-0.0070042387
145	0xbe8ef7b8	-0.2792337
146	0x3d6d2a3e	0.057901613
147	0x3c66f7fe	0.014097212
148	0x3d8ee662	0.06977536
149	0x3e4570c6	0.19281301
150	0x3e285277	0.16437708
151	0xbd615e0f	-0.055021342
152	0xbe443ed5	-0.19164594
153	0xbc45f1cd	-0.012081576
154	0x3cf77df7	0.030211432
155	0x3c6bd32d	0.01439361
156	0x3cf2872a	0.029605467
157	0x3c086e47	0.008327073
158	0xbdc06be9	-0.09395582
159	0xbea98ce6	-0.3311531
160	0xbcb39bff	-0.02192497
161	0x3d300941	0.042977575
162	0x3e268f01	0.16265489
163	0x3ca0b68b	0.019618293
164	0xbe77cf5f	-0.242002
165	0x3e5c250f	0.21498512
166	0x3d905184	0.07046798
167	0x3d0b0214	0.03393753
168	0xbd824376	-0.063605234
169	0xbcac560b	-0.021037122
170	0xbbdaa46a	-0.0066724317
171	0xbd878cea	-0.06618674
172	0x3e10437e	0.14088246
173	0xbdb3203a	-0.08746381
174	0x3d5bfc4a	0.0537074
175	0xbe736df1	-0.23772408
176	0x3c6f767c	0.014615651
177	0x3e17531b	0.14777796
178	0xbcb57c14	-0.022153892
179	0xbe4775b4	-0.19478494
180	0xbca8592a	-0.02055033
181	0xbceae9e6	-0.028675985
182	0x3d376f10	0.04478365
183	0xbc0a3a7e	-0.008436797
184	0x3da826ac	0.08210501
185	0x3e2f0f4a	0.17095676
186	0x3b85b660	0.0040805787
187	0x3ccfd24d	0.025368834
188	0xbe167aa6	-0.14695224
189	0x3ba19fad	0.004932365
190	0xbe51b575	-0.20479377
191	0xbe0b1ca5	-0.13585146
192	0x3e57259d	0.21010442
193	0x3ded3906	0.11583142
194	0xbd6cbbc1	-0.057796244
195	0x3e17fe09	0.14843
196	0x3dec3496	0.115334675
197	0x3ddb95f2	0.10721959
198	0x3d0c902b	0.034317177
199	0x3dd99cae	0.106255874
200	0xbdbfd438	-0.093666494
201	0x3d35902c	0.044326946
202	0x3dbbb8ff	0.091661446
203	0x3e45f76f	0.1933267
204	0x3d8339c4	0.06407502
205	0xbd692392	-0.056918688
206	0x3e2b1b76	0.16709694
207	0xbe80d9bc	-0.25166118
208	0x3c0dbfad	0.008651656
209	0x3d9fb328	0.07797843
210	0xbbe49155	-0.0069753327
211	0x3b1fcc3d	0.002438321
212	0xbe6434da	-0.22285786
213	0x3c85cf1b	0.016334107
214	0x3e010d87	0.12602817
215	0x3dfe18b2	0.12407054
216	0xbd26d776	-0.040732823
217	0xbc123f4e	-0.008926226
218	0xbdc1ce42	-0.09463169
219	0x3db89c6c	0.0901421
220	0x377de515	1.5133312e-05
221	0x3e02fc6d	0.12791605
222	0x3cf4a535	0.029863933
223	0x3c4f4ce3	0.012652609
224	0xbdee584c	-0.11637935
225	0x3d8eae5c	0.0696685
226	0x3e0a65ca	0.13515392
227	0x3e84df23	0.2595149
228	0xbd83ecfa	-0.06441684
229	0x3d0d8fef	0.034561094
230	0xbe4b8d47	-0.19878112
231	0xbdcd64d6	-0.100289986
232	0xbb958378	-0.0045627914
233	0xbaa4920f	-0.0012555736
234	0xbe1040a0	-0.14087152
235	0xbde9a236	-0.114078924
236	0xbdc94903	-0.09828379
237	0x3d2c2c1e	0.04203426
238	0x3e23ba26	0.15988979
239	0xbd86d978	-0.065844476
240	0xbdabce02	-0.08388902
241	0xbda0283d	-0.07820175
242	0xbe2cf767	-0.16891252
243	0x3e82fe52	0.25584656
244	0x3d697344	0.05699469
245	0x3db0ad78	0.086268365
246	0x3d6753f3	0.056476545
247	0xbc8141f5	-0.015778521
248	0xbdb7f446	-0.08982138
249	0xbd494606	-0.049139045
250	0x3d91d384	0.071204215
251	0xbd384a56	-0.044992767
252	0x3dc3090c	0.0952321
253	0x3d2e8399	0.04260597
254	0x3e38d9ee	0.18051884
255	0x3df2cbca	0.11855276

backbone.net.4.weight f4 [3, 256]
0	0xbe1dc8d9	-0.15408649
1	0x3d82e2d7	0.063909225
2	0x3e531b59	0.20615901
3	0x3e918b22	0.28426462
4	0xbdde3f14	-0.10851875
5	0xbd1309df	-0.035898086
6	0x3fc53af8	1.5408621
7	0xbe508b8c	-0.20365733
8	0x3d321831	0.043480102
9	0x3b845288	0.004038159
10	0x3ed1c9d7	0.40974304
11	0x3d4a603e	0.04940819
12	0xbd9680a3	-0.07348754
13	0x3d484eff	0.04890346
14	0x3d9b2725	0.075758256
15	0x3e220998	0.15823972
16	0x3a34d40b	0.0006898052
17	0xbdfd7a4d	-0.12376843
18	0x3e65fe47	0.2246028
19	0xbaabe0bd	-0.0013113242
20	0xbd96fe18	-0.07372683
21	0x3dac25e8	0.084056675
22	0xbe4362bf	-0.19080637
23	0xbe863bd2	-0.26217514
24	0x3e443975	0.19162543
25	0x3ea06934	0.31330264
26	0xbd0c16db	-0.034201484
27	0xbe8d525c	-0.27601898
28	0x3dae8be9	0.085227795
29	0x3d199ac0	0.037501097
30	0x3e706220	0.23474932
31	0x3e0be2cb	0.13660733
32	0x3d595ea6	0.05306878
33	0xbe3cd74f	-0.18441509
34	0xbd9b00b5	-0.07568494
35	0x3dc60d34	0.09670487
36	0xbc77861b	-0.015107657
37	0x3d4bcdb9	0.04975674
38	0x3db610c3	0.08889916
39	0x3e5fc938	0.21854103
40	0x3efa6b0e	0.489098
41	0xbd9e9b22	-0.07744433
42	0xbdbb68ea	-0.0915087
43	0x3e168c6d	0.14702006
44	0xbe86e64f	-0.26347587
45	0x3e1f097d	0.15530963
46	0x3d3061a0	0.043061852
47	0xbda19e03	-0.078914665
48	0xbe08d164	-0.13361126
49	0x3c4e7641	0.012601436
50	0xbdcc72a6	-0.09982805
51	0x3f0a137e	0.5393599
52	0xbe846842	-0.25860792
53	0xbbe341a0	-0.0069353133
54	0x3ea0994f	0.31366965
55	0xbe117406	-0.14204416
56	0x3e1913dc	0.14948982
57	0xbd085972	-0.033288427
58	0x3d97ad58	0.074061096
59	0x3dcb38fd	0.09922979
60	0xbe104c19	-0.14091529
61	0xbf1d10f2	-0.6135398
62	0xbce7b057	-0.028282328
63	0xbdd182b1	-0.102300055
64	0xbe465499	-0.19368209
65	0x3e721988	0.23642552
66	0xbec19a16	-0.3781287
67	0xbc8e2454	-0.017351307
68	0x3e987788	0.29778695
69	0x3e4fbe3c	0.20287412
70	0xbe87484f	-0.26422355
71	0x3d55c979	0.052194092
72	0xbe34882d	-0.17630072
73	0xbe4abeae	-0.19799301
74	0x3e09eeb5	0.13469966
75	0x3dc65c91	0.096856244
76	0x3e585728	0.21126997
77	0x3a68f394	0.00088863936
78	0xbe0c7ac7	-0.13718711
79	0xbd769d8c	-0.060208842
80	0xbc8b302d	-0.016990745
81	0x3dac08ce	0.08400117
82	0x3d31da6c	0.043421194
83	0x3e83f222	0.2577067
84	0x3cca20fd	0.024673933
85	0xbd8783e4	-0.06616953
86	0x3e047830	0.12936473
87	0x3e1ac220	0.15113115
88	0xbe4205d6	-0.18947539
89	0xbe322e57	-0.1740049
90	0x3d911d0b	0.07085618
91	0xbd1dafdb	-0.038497787
92	0x3e6e1225	0.23249109
93	0xbec1937b	-0.3780783
94	0x3e073bb5	0.1320637
95	0x3d238a62	0.039926894
96	0x3d3449b8	0.044015616
97	0x3e4be063	0.19909815
98	0x3da5794f	0.080797784
99	0x3e31da89	0.17368521
100	0x3d7a1fb0	0.061065376
101	0x3d711b1d	0.058863748
102	0xbe8ab7ee	-0.27093452
103	0xbed8a665	-0.4231445
104	0xbe6de458	-0.23231637
105	0x3cbf1e65	0.023329923
106	0xbd60b811	-0.05486304
107	0x3e36a427	0.17836057
108	0x3e261dd7	0.1622232
109	0x3d1585f5	0.036504705
110	0xbcdf96bc	-0.027293555
111	0x3e80cc87	0.25156042
112	0xbddd1121	-0.10794283
113	0xbde3a437	-0.11115306
114	0x3df71eab	0.12066396
115	0x3da586e5	0.0808237
116	0x3e5a0b03	0.21293263
117	0x3dac1d3b	0.08404013
118	0x3ab59105	0.0013852423
119	0xbe82bf36	-0.25536507
120	0x3d0aa259	0.033846233
121	0x3e8a9d87	0.2707331
122	0xbdae6fc7	-0.085174136
123	0xbf3787d2	-0.7169162
124	0x3e5d6c76	0.21623406
125	0x3e60a940	0.21939564
126	0x3d061c08	0.032741576
127	0x3da72e9b	0.08163186
128	0x3e32e999	0.17471923
129	0x3e1e4ebc	0.15459722
130	0xbd135847	-0.03597286
131	0xbd75a8ad	-0.059975315
132	0xbe1ec444	-0.15504557
133	0xbc0d0c0c	-0.008608829
134	0xbe6ef7a3	-0.23336653
135	0xbdc9aaec	-0.09847054
136	0xbd299da5	-0.041410107
137	0x3d8fbca4	0.07018402
138	0xbe72910b	-0.23688142
139	0x3dbcd428	0.09220153
140	0x3e88fab8	0.26753783
141	0x3eaa355f	0.33243844
142	0xbdf33113	-0.118745945
143	0xbd0b3922	-0.033990033
144	0xbe8aafe9	-0.27087334
145	0xbe05a811	-0.13052393
146	0xbe1acc32	-0.15116957
147	0x3e7dc1d4	0.24780971
148	0x3e9d95cf	0.30778357
149	0x3e75b6c5	0.23995502
150	0xbdef2114	-0.11676231
151	0x3cc7e6b1	0.024401994
152	0xbe15fe70	-0.14647841
153	0xbda361da	-0.07977648
154	0xbe1def7e	-0.1542339
155	0xbd491b9d	-0.0490986
156	0x3e22ab1e	0.15885589
157	0x3d0995c6	0.0335901
158	0x3c08e49c	0.008355286
159	0x3e8b3c50	0.27194452
160	0xbde0daa9	-0.10979206
161	0xbde9ae37	-0.11410182
162	0xbe8cccaf	-0.2749991
163	0xbc81750c	-0.015802883
164	0xbcb23f3a	-0.021758664
165	0xbdcae2d9	-0.09906549
166	0x3e3e0609	0.1855699
167	0xbd2580c4	-0.040406004
168	0xbcc6382f	-0.024196712
169	0x3e45b743	0.1930819
170	0xbf0444d3	-0.5166752
171	0xbe4080d0	-0.18799138
172	0x3dd9be39	0.10631985
173	0xbe3a54c0	-0.18196392
174	0xbe1212da	-0.14265004
175	0x3bcf1ca4	0.006320553
176	0x3dadea8b	0.08492001
177	0x3d532c2e	0.051555805
178	0xbeb78a09	-0.358475
179	0xbd2197b3	-0.039451312
180	0xbd26a77c	-0.04068707
181	0xbba1e544	-0.0049406607
182	0xbe2b6be9	-0.16740383
183	0x3d7b097f	0.061288353
184	0xbb306e91	-0.0026921371
185	0xbe263a5b	-0.16233198
186	0x3d6be109	0.057587657
187	0x3eb45f60	0.35229015
188	0xbe540d13	-0.20708112
189	0x3d621afa	0.055201508
190	0x3d5b7099	0.05357418
191	0xbe811dce	-0.25218052
192	0x3e02858b	0.12746255
193	0xbe66a547	-0.22523986
194	0xbdc04416	-0.09387986
195	0xbeac6275	-0.33668867
196	0x3e0a26c0	0.13491344
197	0x3d690e50	0.056898415
198	0x3d25278d	0.04032092
199	0xbe3e9824	-0.18612725
200	0xbdae7bae	-0.08519684
201	0xbcf0da36	-0.029400926
202	0x3e30b79f	0.17257546
203	0xbc9cb88f	-0.019130973
204	0xbe39fa6e	-0.18161938
205	0x3cb6a9b3	0.022297716
206	0x3cc1923e	0.023629304
207	0x3f445be1	0.76702696
208	0xbe08df7f	-0.13366507
209	0x3e68145e	0.2266402
210	0x3c9cc024	0.019134589
211	0x3e828e81	0.25499347
212	0x3e6ce2d3	0.23133402
213	0xbce5a23c	-0.028031461
214	0x3cfc63ce	0.03080931
215	0xbdd2c4b5	-0.10291425
216	0x3e5313bc	0.20612997
217	0xbde87c3d	-0.113518216
218	0xbe5329e3	-0.20621447
219	0xbd98bcc6	-0.07457881
220	0x3eed7612	0.46379143
221	0x3c487ecb	0.012237261
222	0x3d83d301	0.0643673
223	0xbc207071	-0.009792433
224	0xbe271d0b	-0.16319673
225	0x3e0ee469	0.13954319
226	0xbe2db25c	-0.1696257
227	0xbe9c0f5d	-0.3048047
228	0x3e18c9f1	0.14920785
229	0xbd8ffa2c	-0.070301384
230	0x3e21baea	0.15793958
231	0xbd8837e7	-0.066512875
232	0x3e05fb68	0.13084185
233	0xbe494b34	-0.19657594
234	0x3b8c7ac3	0.0042870953
235	0x3e70272f	0.23452447
236	0xbe5f174f	-0.21786235
237	0x3e651f08	0.22375119
238	0x3d1ac1cc	0.037782475
239	0xbe257ae8	-0.16160166
240	0xbe44b510	-0.19209695
241	0xbd9a35a4	-0.075297624
242	0x3de44bdc	0.111472815
243	0xbe1cc10e	-0.1530802
244	0xbd0ceae6	-0.034403704
245	0xbeca65ed	-0.39530888
246	0xbcbfc10e	-0.023407485
247	0xbe22ebab	-0.15910213
248	0xbea2d15d	-0.31800357
249	0xbce07b25	-0.02740247
250	0x3c924aa6	0.01785786
251	0xbe88352e	-0.26603073
252	0xbe5dd4e1	-0.21663238
253	0x3d8b8866	0.06813125
254	0xbe3f4c16	-0.18681368
255	0xbe63b0d3	-0.22235422

backbone.net.4.bias f4 [3]
0	0x3d99d57b	0.07511421
1	0xbde6218f	-0.112368695
2	0x3bdcb206	0.0067350892

net.net.0.weight f4 [256, 14]
0	0x3f2997d6	0.6624731
1	0xbec50cf5	-0.38486448
2	0xbebdbe0b	-0.37059054
3	0xbe15b451	-0.14619567
4	0xbe769f5a	-0.24084225
5	0x3d610134	0.054932788
6	0x3eea4321	0.4575434
7	0xbe99641f	-0.299592
8	0x3e75c003	0.23999028
9	0x3e471493	0.19441442
10	0xbc532f8e	-0.012889756
11	0xbddf8a85	-0.109150924
12	0xbd32e933	-0.043679427
13	0xbd1de5cb	-0.038549226
14	0xbd8b60ae	-0.068055496
15	0xba4ef0af	-0.0007894141
16	0x3ead6b75	0.33871046
17	0x3da144e3	0.07874467
18	0x3e93a9a4	0.28840363
19	0x3f1910e6	0.5979141
20	0xbf2b71e9	-0.6697069
21	0x3d6540dd	0.05597006
22	0xbe23c101	-0.15991594
23	0xbe4c83f4	-0.19972211
24	0xbe7b4a48	-0.24540055
25	0xbc887f15	-0.01666216
26	0xbc8e8e49	-0.017401831
27	0x3c7a7195	0.015285869
28	0xbf566c97	-0.83759445
29	0xbb9d29c0	-0.0047962368
30	0xbd7325dd	-0.05936228
31	0x3e1f3adc	0.15549797
32	0x3e43be77	0.19115625
33	0xbdd7be34	-0.10534325
34	0xbf077227	-0.5290856
35	0x3df82d5b	0.12118026
36	0x3e6d53ee	0.23176548
37	0xbbc4c573	-0.006004983
38	0x3e763166	0.24042282
39	0x3e972673	0.29521522
40	0x3d70b3f7	0.058765378
41	0x3e351a4f	0.17685817
42	0x3ee83416	0.45352238
43	0x3e52b492	0.20576695
44	0xbf0d19db	-0.5511758
45	0xbd0017c3	-0.03127266
46	0xbed37857	-0.4130275
47	0x3eae5e3a	0.34056264
48	0xbda6c12c	-0.08142313
49	0x3e651a6a	0.22373357
50	0xbebb3fcf	-0.3657212
51	0xbe8669de	-0.26252645
52	0x3e8256c4	0.25456822
53	0x3cd20fb9	0.025642263
54	0x3dd10f55	0.102080025
55	0x3ea92420	0.33035374
56	0xbd46ace9	-0.048504744
57	0xbd86d042	-0.06582691
58	0x3ec6886f	0.38775966
59	0x3e05e926	0.1307722
60	0xbea5df42	-0.32396895
61	0xbd9a2242	-0.075260654
62	0x3dd473c1	0.10373641
63	0x3dceb84b	0.10093745
64	0xbe4866c3	-0.1957045
65	0xbe0abada	-0.1354784
66	0xbd41ef9e	-0.047347657
67	0xbd07aad0	-0.033121884
68	0xbcd8ae43	-0.026450282
69	0xbe8baa86	-0.27278537
70	0x3e8bdfc1	0.27319148
71	0xbe4254db	-0.18977682
72	0x3e051e0e	0.12999746
73	0xbe17a13a	-0.14807597
74	0x3e9c5313	0.3053213
75	0x3e236fa5	0.15960558
76	0xbdb95fc0	-0.09051466
77	0xbd911e62	-0.07085873
78	0xbea12eab	-0.31480917
79	0x3e0580dc	0.13037437
80	0xbe4fa355	-0.2027715
81	0xbee68c34	-0.45028841
82	0x3e003da0	0.12523508
83	0x3c1d68cb	0.009607504
84	0x3f0d508b	0.55201024
85	0xbe00bf07	-0.12572871
86	0xbf3dd5dd	-0.74154454
87	0x3f9eb669	1.2399417
88	0xbe87f750	-0.26555872
89	0x3e5bd190	0.2146666
90	0x3e7c5914	0.24643356
91	0xbe52f5fb	-0.20601647
92	0x3d651084	0.055923954
93	0xbdbbb561	-0.09165455
94	0xbf2a6d9e	-0.6657351
95	0xbe220943	-0.15823846
96	0xbdb13570	-0.086527705
97	0xbe3fea67	-0.18741761
98	0xbda63f27	-0.08117514
99	0xbd804d4f	-0.062647454
100	0x3ec583a3	0.38576993
101	0x3e48fd04	0.19627768
102	0x3e759a2c	0.23984593
103	0x3e90f8a4	0.28314698
104	0xba57d6cb	-0.0008233606
105	0xbe8e58ed	-0.2780222
106	0x3ebba046	0.36645716
107	0x3e1004d0	0.14064336
108	0x3ee3f35f	0.44521615
109	0xbd478c66	-0.04871788
110	0xbd613de6	-0.05499067
111	0x3e3105de	0.17287394
112	0x3ea7b876	0.3275792
113	0xbeaff1d8	-0.343642
114	0xbe256e32	-0.16155317
115	0xbd0a1dce	-0.03371983
116	0x3e87e1ce	0.26539463
117	0xbc064270	-0.008194551
118	0x3f531078	0.82447004
119	0xbe249bf9	-0.16075124
120	0xbd51e1f1	-0.051240865
121	0xbd9f7553	-0.0778605
122	0x3f7f8967	0.99819034
123	0xbe9836cb	-0.29729304
124	0xbe0fc0c8	-0.14038384
125	0x3dae7ecf	0.085202806
126	0xbf6d2333	-0.92631835
127	0xbee3f897	-0.44525596
128	0x3e369938	0.17831886
129	0x3f098cd4	0.5373051
130	0xbf3da601	-0.74081427
131	0x3c4ed13b	0.012623127
132	0x3f3be480	0.7339554
133	0xbd840066	-0.064453885
134	0x3ebac891	0.36481145
135	0x3f2a753e	0.6658515
136	0x3f0ba85b	0.54553765
137	0x3eb5097b	0.35358796
138	0x3e32eed2	0.17473915
139	0xbd8049e9	-0.06264097
140	0xbea3d648	-0.3199942
141	0xbda43c34	-0.08019295
142	0xbe96475e	-0.29351324
143	0x3e4475bb	0.19185536
144	0x3e498fbf	0.19683741
145	0xbde71247	-0.11282783
146	0xbda13e87	-0.07873254
147	0x3dbc3768	0.091902554
148	0x3e8acbb9	0.27108553
149	0x3e68b69b	0.22725908
150	0xbe1b1a86	-0.15146837
151	0x3edaf73e	0.42766756
152	0x3e1fde83	0.15612225
153	0xbd897ceb	-0.06713279
154	0xbf1a7233	-0.60330504
155	0xbe73aa5a	-0.23795453
156	0xbeec53c7	-0.46157667
157	0xbc176684	-0.00924075
158	0x3dd25e98	0.102719486
159	0xbe4c13a1	-0.19929363
160	0xbf10fda1	-0.56637007
161	0xbd3e61aa	-0.04647986
162	0x3db39b4f	0.08769857
163	0x3ea13230	0.31483603
164	0x3b9b7f31	0.004745387
165	0x3e8a13d0	0.2696824
166	0x3e5986cb	0.21242826
167	0x3e1db8eb	0.15402572
168	0xbf0e0296	-0.55472696
169	0xbd3b9a8f	-0.045801695
170	0xbed9ae1d	-0.4251565
171	0xbe87ec31	-0.26547387
172	0xbd899418	-0.067177
173	0x3e4d71db	0.20062964
174	0x3f29345d	0.66095525
175	0x3c8fd229	0.017556267
176	0x3ef105d0	0.47074747
177	0xbe19418d	-0.14966412
178	0xbf019a75	-0.5062631
179	0x3ef38af8	0.47566962
180	0xbe64d7ae	-0.223479
181	0xbe6d8855	-0.23196538
182	0xbf36b951	-0.7137652
183	0xbe1f6d7c	-0.15569109
184	0xbdc6e74b	-0.097120844
185	0x3ed8b892	0.42328316
186	0xbf33eab3	-0.7028
187	0xbe363e43	-0.17797188
188	0xbe9892d9	-0.29799536
189	0xbd7ff56d	-0.062489916
190	0x3d1a2c03	0.03763963
191	0x3da8f2ae	0.082494125
192	0xbf08a940	-0.53383255
193	0xbd0a8274	-0.033815816
194	0xbc078342	-0.00827104
195	0xbe418c6f	-0.18901227
196	0x3cc7699a	0.024342347
197	0x3e4e93bf	0.20173548
198	0x3f1960ca	0.59913313
199	0x3ddea59b	0.108714305
200	0x3ee8dbdc	0.4548024
201	0xbea2e2d0	-0.3181367
202	0x3f1271ea	0.5720507
203	0xbe0cc1e8	-0.13745844
204	0x3e9943bf	0.299345
205	0x3ea01807	0.3126833
206	0x3e9b3a6c	0.3031801
207	0x3d87bf8d	0.06628332
208	0x3cf05988	0.029339567
209	0x3e0b7609	0.13619246
210	0xba306340	-0.00067286566
211	0x3e378e52	0.17925385
212	0xbf100b05	-0.56266814
213	0x3ee34b35	0.44393316
214	0x3f8624f4	1.0480027
215	0x3ec14d07	0.3775408
216	0x3e2cd14b	0.16876714
217	0xbe41a946	-0.18912229
218	0x3da9e8b3	0.08296337
219	0x3eab2e8d	0.33433953
220	0xbeeaa1fb	-0.45826706
221	0xbe1a36f9	-0.15060033
222	0xbe535ea3	-0.2064157
223	0xbe88de1b	-0.26731953
224	0x3e2848fe	0.16434094
225	0xbe83675a	-0.25664788
226	0xbeddd54a	-0.4332679
227	0x3f9d9fdb	1.2314409
228	0x3f0cf327	0.5505852
229	0x3f1e5026	0.61841047
230	0x3db1e1e0	0.0868566
231	0xbee741fb	-0.45167527
232	0x3e7327fb	0.2374572
233	0x3e4f4793	0.20242147
234	0x3e1f8d25	0.15581186
235	0xbea1b94c	-0.31586683
236	0xbe1d6930	-0.15372157
237	0x3d2024f9	0.03909776
238	0x3d951248	0.072788775
239	0x3e199c87	0.15001117
240	0xbf3426f6	-0.7037195
241	0xbe254340	-0.16138935
242	0xbe14e28e	-0.14539549
243	0x3e05ba19	0.13059272
244	0xbea8f2a1	-0.3299761
245	0x3e9af779	0.30266932
246	0xbf065e42	-0.52487576
247	0xbe9df1c5	-0.30848518
248	0x3cdf9614	0.027293243
249	0xbc9136fa	-0.01772641
250	0xbcf44a5d	-0.029820615
251	0x3cecf162	0.028923694
252	0x3ea9a9bf	0.33137318
253	0x3deb56bc	0.11491153
254	0xbece3615	-0.40275636
255	0xbe50673e	-0.20351884

net.net.0.bias f4 [256]
0	0xbf2c56d6	-0.6732
1	0x3edd9e75	0.43284956
2	0x3eefed5e	0.46860784
3	0x3d31abcf	0.04337674
4	0x3f1ccbab	0.6124827
5	0x3f02414a	0.50880873
6	0xbd85c9c8	-0.06532627
7	0x3f01ae86	0.50656927
8	0xbe810366	-0.25197905
9	0xbe33d5de	-0.17562053
10	0x3edb2940	0.4280491
11	0x3de24b28	0.11049491
12	0xbefceffa	-0.49401838
13	0x3e1a60fb	0.15076058
14	0x3e57fa13	0.2109149
15	0x3ea924b6	0.3303582
16	0x3dea4335	0.114386
17	0xbe4b2e80	-0.19841957
18	0x3e95f10d	0.2928547
19	0xbe8d9d63	-0.2765914
20	0xbccf555c	-0.025309257
21	0xbe8bf349	-0.2733405
22	0xbea92a96	-0.33040303
23	0x3f0ae5f5	0.54257137
24	0xbf2a4fef	-0.6652822
25	0x3edc09a2	0.429761
26	0x3d8be542	0.06830837
27	0xbce67633	-0.028132534
28	0x3f35d23b	0.7102391
29	0x3f45f1db	0.7732217
30	0xbf0bd12f	-0.54616064
31	0x3ee4411f	0.44580933
32	0x3e3122df	0.17298459
33	0xbf455cba	-0.77094615
34	0x3ed39827	0.4132702
35	0x3f2d64fc	0.67732215
36	0x3eddd791	0.43328527
37	0xbecc415b	-0.39893612
38	0xbea57c66	-0.3232147
39	0x3ed8f19b	0.4237183
40	0xbe2f9ab6	-0.17148861
41	0x3f158012	0.58398545
42	0x3e9e9123	0.30970106
43	0x3f12686f	0.57190603
44	0x3e3bfb3b	0.18357556
45	0x3f0aeba7	0.54265827
46	0x3e8f29c3	0.2796155
47	0xbe329166	-0.17438278
48	0x3f1cf837	0.61316246
49	0xbeaefc04	-0.34176648
50	0xbe72c690	-0.23708558
51	0xbe40e029	-0.1883551
52	0xbf0e018f	-0.5547113
53	0x3f2ac0f7	0.6670069
54	0xbe7e3238	-0.24823844
55	0x3e80e35a	0.25173455
56	0x3b00df8f	0.0019664501
57	0xbe99277c	-0.29912937
58	0x3f3052ce	0.6887635
59	0xbeba4a6d	-0.36384907
60	0x3f258690	0.6465845
61	0xbf5d0f5a	-0.8635155
62	0x3f056b82	0.5211717
63	0xbedd1b88	-0.43185067
64	0xbed16b53	-0.40902194
65	0x3f2df508	0.67952013
66	0x3f022810	0.5084238
67	0xbe8eb790	-0.27874422
68	0x3ce50f0a	0.027961273
69	0xbe88cb60	-0.26717663
70	0x3f105291	0.56375986
71	0x3f28d5a8	0.65951014
72	0x3e23e3c9	0.16004862
73	0x3ea10c87	0.3145487
74	0x3f015520	0.50520515
75	0x3f008f87	0.50219005
76	0xbd7ed3aa	-0.062213577
77	0x3f321611	0.6956492
78	0xbe51a89a	-0.20474473
79	0x3f190dfa	0.5978695
80	0xbf1e2b8f	-0.61785215
81	0x3efda34e	0.49538654
82	0xbf3c0b9f	-0.7345523
83	0x3f0045c3	0.5010645
84	0xbee44c8f	-0.4458966
85	0xbf07d6bf	-0.5306205
86	0xbed925fc	-0.42411792
87	0x3f0e86d0	0.5567446
88	0x3ed3af9d	0.4134492
89	0xbe1d634b	-0.15369909
90	0x3f0853f5	0.5325311
91	0xbf0bb9db	-0.5458047
92	0xbdd5109c	-0.104035586
93	0xbe9e80a1	-0.3095751
94	0xbdc8ac54	-0.09798494
95	0x3f37afca	0.7175261
96	0xbd2ace42	-0.04170061
97	0x3ec3a607	0.38212606
98	0x3f0a60ce	0.5405396
99	0xbee6010b	-0.4492267
100	0xbeeb6e55	-0.45982614
101	0x3efec7b9	0.4976175
102	0x3ebbb611	0.36662343
103	0x3e537202	0.2064896
104	0x3f27b77d	0.65514356
105	0x3e478f00	0.19488144
106	0x3ebe033a	0.37111837
107	0x3e87b0e0	0.26502132
108	0x3d86109b	0.06546136
109	0x3f146a67	0.5797486
110	0x3f234122	0.6377126
111	0x3f18810d	0.59571916
112	0x3f1f6311	0.6226054
113	0xbe6ac57c	-0.22926897
114	0xbe39f60b	-0.18160264
115	0x3f247988	0.6424794
116	0x3f08dbc2	0.53460324
117	0x3edece13	0.43516597
118	0x3eb1a47a	0.34695798
119	0x3f1803a0	0.5938053
120	0x3f161834	0.5863068
121	0x3de4e76c	0.11176953
122	0x3f0dc32c	0.55375934
123	0xbe17ed80	-0.14836693
124	0x3f0a7050	0.54077625
125	0xbe7f925c	-0.24958175
126	0x3e86fe1c	0.26365745
127	0x3f1fa1fd	0.6235655
128	0x3f0883ce	0.5332612
129	0x3f238228	0.6387048
130	0x3eb6e2e7	0.35719988
131	0xbeffbeda	-0.49950296
132	0xbe73674c	-0.23769873
133	0xbd74a40b	-0.059726756
134	0xbe6fe60f	-0.23427604
135	0x3c84c664	0.016207881
136	0x3e60b1f9	0.21942891
137	0xbf07c14c	-0.5302932
138	0x3eda3a24	0.42622483
139	0x3eef1f74	0.46703684
140	0xbddfc53d	-0.10926292
141	0xbe8c92eb	-0.2745584
142	0xbec08b26	-0.37606162
143	0x3e930083	0.28711328
144	0x3f0e7d3d	0.5565985
145	0xbe588dc0	-0.21147823
146	0xbf0c1f95	-0.5473569
147	0x3e0891c8	0.13336861
148	0xbe8c484c	-0.27398908
149	0xbf26d004	-0.65161157
150	0xbe8ca155	-0.27466837
151	0x3ec636b3	0.38713607
152	0xbe2347c4	-0.15945345
153	0x3f207e0e	0.62692344
154	0x3f6dcefb	0.9289395
155	0x3ea0dd5d	0.31418887
156	0xbf104d05	-0.5636752
157	0x3f168808	0.5880132
158	0x3dc3d431	0.09561957
159	0xbe8f9831	-0.280458
160	0x3ef7e732	0.48418576
161	0xbe1bf584	-0.15230376
162	0x3efed58f	0.49772307
163	0x3edf8920	0.43659306
164	0xbebe962d	-0.3722395
165	0xbee5a1fb	-0.44850144
166	0x3efd7061	0.494998
167	0xbe84f88f	-0.25970885
168	0x3f121f2a	0.570788
169	0x3b818638	0.0039527677
170	0xbd666be3	-0.056255233
171	0xbcbf4fab	-0.023353418
172	0x3ebdc7c3	0.3706647
173	0x3daf0a1c	0.0854685
174	0x3ecdf097	0.40222618
175	0x3f37a95a	0.71742785
176	0x3f2bf43c	0.6716955
177	0x3f16979c	0.5882509
178	0x3f2e2142	0.680195
179	0xbcb235a9	-0.021754103
180	0xbdcc0ab5	-0.0996298
181	0xbe022bc0	-0.12712002
182	0xbef4b683	-0.47795495
183	0x3ecbbd72	0.39792973
184	0x3f37797b	0.7166974
185	0xbe923f2a	-0.28563815
186	0x3ee0d887	0.43915197
187	0xbdf2ab85	-0.11849121
188	0x3eb50613	0.35356197
189	0x3e7992c3	0.24372391
190	0xbe280ae7	-0.16410409
191	0x3f204e2f	0.626193
192	0xbf00a0b5	-0.5024522
193	0xbee2ae77	-0.4427373
194	0x3e219964	0.1578117
195	0x3ece7e2d	0.4033064
196	0x3e59f350	0.21284223
197	0xbec998d6	-0.39374417
198	0xbe7882c1	-0.24268629
199	0x3e52c055	0.20581181
200	0x3eaa33c4	0.3324262
201	0x3ed302cf	0.4121308
202	0xbf11aa97	-0.56900924
203	0x3eed6285	0.46364227
204	0xbe2eb236	-0.1706017
205	0x3e69d462	0.22834924
206	0xbe44ce5a	-0.19219342
207	0xbe623710	-0.22091317
208	0x3ece7907	0.40326712
209	0xbea5fa6d	-0.32417622
210	0x3ebd8fd7	0.37023804
211	0xbe7b39a4	-0.24533707
212	0x3ea1f9ee	0.31635994
213	0x3ebbf403	0.36709604
214	0xbe9ba3ac	-0.3039831
215	0xbde44ff5	-0.11148063
216	0xbef2d7bd	-0.4743022
217	0x3e1fd7c5	0.15609653
218	0x3ea16293	0.3152052
219	0xbe1b0ade	-0.15140864
220	0x3e341473	0.17585926
221	0xbe9aa1c4	-0.30201542
222	0x3e67f933	0.22653656
223	0xbf2540cd	-0.64552003
224	0xbd9f9b09	-0.077932425
225	0x3f368faa	0.71312964
226	0xbe4f575d	-0.2024817
227	0x3f1b402a	0.6064478
228	0x3ee45298	0.44594264
229	0x3dc2a58b	0.09504231
230	0x3ec96a2b	0.39338812
231	0xbf07a324	-0.5298331
232	0x3d3eae02	0.046552666
233	0xbe2d5e3a	-0.16930476
234	0xbea8df67	-0.32982942
235	0x3f13320f	0.5749826
236	0x3f0efcbd	0.558544
237	0xbdee55af	-0.116374366
238	0x3eaf3bf3	0.34225425
239	0xbeb5e802	-0.3552857
240	0xbf03b2f6	-0.5144495
241	0x3ef19909	0.4718707
242	0x3e80b648	0.2513907
243	0xbe988806	-0.29791278
244	0x3f1b76f6	0.60728395
245	0x3e252a8b	0.1612951
246	0xbef060d7	-0.46948883
247	0xbec3926e	-0.38197654
248	0x3f3d907d	0.74048597
249	0x3f1f36f4	0.62193227
250	0xbec78632	-0.3896957
251	0x3f085906	0.5326084
252	0x3f25a613	0.64706534
253	0xbd664319	-0.056216333
254	0xbe2860fe	-0.1644325
255	0xbe9c3d63	-0.30515584
