generated_data/archive/iql_antmaze_umaze_v2_seed0.pt (torch, 907714 bytes, 16 tensors)

backbone.net.0.weight f4 [256, 29]
0.13375214 -0.26056278 -0.04918616 -0.20593591 0.4117502 -0.46046016 0.41811267 -0.018638471
-0.19249542 -0.19724596 -0.03899505 -0.2927528 -0.15389813 -0.067357205 0.08311327 0.025520854
0.061605908 0.20427072 -0.02232045 0.100355536 0.030096577 -0.20656869 -0.041465506 0.16120751
0.014685903 -0.25261158 0.07643454 0.02460708 -0.016226284 0.07484174 -0.012830284 0.048740957
0.104613334 -0.20284669 -0.17297661 0.11079786 -0.18254426 -0.0873585 -0.03902776 0.25267076
0.22360454 0.5010184 0.26985112 0.102107994 -0.23652609 -0.06583726 -0.13605198 0.048733275
0.03386252 0.039559063 -0.22300954 -0.19139731 0.110413045 0.0908107 0.1521561 0.271057
0.18092345 0.11534951 0.048743945 -0.059707757 0.04295068 0.08027615 0.16485852 -0.45079783
-0.3187725 -0.24171129 -0.09167843 0.49666193 0.026710348 0.15087081 -0.11076163 -0.11888409
-0.08712976 0.15443186 0.0990127 -0.13023864 0.048830703 -0.21175262 -0.09023651 0.19388351
-0.17120288 -0.17803343 -0.24356948 -0.1883117 -0.08233359 0.04649187 -0.038894888 -0.008090549
0.16877754 -0.03702117 -0.08807249 -0.36315185 -0.0012278968 -0.41334188 -0.2077805 0.13982642
0.37919205 0.14868198 -0.37824947 -0.03654315 -0.25662205 -0.27744365 -0.013680514 0.12182018
-0.021480974 0.06515104 0.06751013 -0.022617832 0.045421157 -0.1586841 0.14722961 0.05510437
-0.28610575 0.23940839 -0.17580684 -0.124932565 0.13049178 0.38192663 -0.07740723 -0.19236553
-0.41327924 0.39815626 -0.034982014 -0.22783051 -0.5438288 -0.06475169 -0.19272268 -0.097061105
0.04233549 -0.3219573 -0.12150879 -0.037623446 0.008591562 -0.02938097 -0.1571358 -0.12019244
-0.1245914 -0.12533185 0.061816067 -0.16059797 0.10689801 0.019757615 -0.0385222 0.12787695
-0.03896304 0.3227714 0.3915012 -0.21243182 0.43885112 -0.3657812 0.094083995 0.002509799
-0.06164341 0.14464475 -0.051588304 -0.003225794 -0.01554867 -0.06695736 -0.35011476 -0.002143718
0.016942143 0.1283294 -0.3347749 -0.09040609 0.028150925 -0.10550889 -0.019931534 0.09033988
-0.23271842 0.1712025 0.032744084 0.0043494157 -0.34845525 -0.09408775 0.25636858 0.43375236
-0.24216433 0.06869391 -0.015292451 0.28088832 -0.49140128 -0.28564462 0.19048806 -0.17842385
-0.17697835 -0.0005463476 0.14885776 0.08434754 -0.21239534 -0.20114093 0.024508437 -0.15576705
0.03050965 -0.22475548 -0.26333305 -0.22034962 -0.038634464 0.00919443 -0.016647045 0.1657118
-0.093545005 -0.057397388 -0.020226693 0.048150215 0.05158637 -0.1367598 0.1761744 -0.9528666
-0.6925177 -0.12066588 -0.24564135 0.19426037 0.25137296 0.15496235 -0.038105357 -0.12734762
0.21428387 -0.17958668 0.057907857 -0.009251675 0.05727143 -0.07769625 -0.23810872 -0.099235386
0.013992109 -0.12437092 -0.01572497 0.07092345 -0.03739576 0.22487833 0.101650774 -0.0554569
-0.1987927 0.13414101 -0.073538534 -0.1705936 0.21387678 -0.071033105 0.32183027 -0.032072715
0.041248653 -0.028069811 -0.020468617 0.028291546 0.041387238 -0.15892501 -0.0069935136 0.031345963
0.016660508 -0.06079292 0.16973262 -0.31413823 -0.029205153 -0.21049914 0.06648065 0.0627181
00000000: 52f6 083e 7c68 85be 6d77 49bd dde0 52be
00000010: ecd0 d23e 6fc1 ebbe dd12 d63e b5af 98bc
00000020: 851d 45be d8fa 49be 46b9 1fbd b2e3 95be
00000030: 7997 1dbe 93f2 89bd 4a37 aa3d 1c11 d13c
00000040: 7a56 7c3d 582c 513e 60d9 b6bc 3487 cd3d
00000050: 198d f63c be86 53be bcd7 29bd 9513 253e
00000060: 249d 703c 4e56 81be b689 9c3d c994 c93c
00000070: fcec 84bc a046 993d 1d36 52bc 99a4 473d
00000080: 843f d63d 0bb7 4fbe c820 31be fde9 e23d
00000090: e2ec 3abe 03e9 b2bd 93db 1fbd 105e 813e
000000a0: 97f8 643e be42 003f ed29 8a3e ff1d d13d
000000b0: e533 72be afd5 86bd 3651 0bbe 8b9c 473d
000000c0: 6db3 0a3d af08 223d 9d5c 64be a8fd 43be
000000d0: 3c20 e23d f6fa b93d cfce 1b3e fcc7 8a3e
000000e0: ff43 393e 5d3c ec3d bba7 473d 1f90 74bd
000000f0: 0ded 2f3d d267 a43d acd0 283e f9ce e6be
00000100: 2636 a3be 2a83 77be e7c1 bbbd 794a fe3e
00000110: a9cf da3c e17d 1a3e fed6 e2bd 8079 f3bd
00000120: 1671 b2bd 6323 1e3e 2cc7 ca3d 475d 05be
00000130: b402 483d aed5 58be ebcd b8bd 6689 463e
00000140: cf4f 2fbe 654e 36be 476a 79be c8d4 40be
00000150: 839e a8bd 426e 3e3d 3f50 1fbd 398e 04bc
00000160: 05d4 2c3e 83a3 17bd 5a5f b4bd 0aef b9be
00000170: 61f1 a0ba 8ca1 d3be 69c4 54be a82e 0f3e
00000180: 7625 c23e 1740 183e eaa9 c1be 45ae 15bd
00000190: f763 83be 180d 8ebe 3c24 60bc dc7c f93d
000001a0: def8 afbc e96d 853d c042 8a3d 0849 b9bc
000001b0: 890b 3a3d 167e 22be 5cc3 163e 1fb5 613d
000001c0: 747c 92be 7927 753e b506 34be a5dc ffbd
000001d0: a39f 053e e38b c33e af87 9ebd 78fb 44be
000001e0: 5699 d3be 23db cb3e 4d49 0fbd 674c 69be
000001f0: 5d38 0bbf 899c 84bd 1859 45be f9c7 c6bd
00000200: fb67 2d3d 96d7 a4be 9ad9 f8bd 0b1b 1abd
00000210: 9fc3 0c3c 5cb0 f0bc 35e8 20be 7427 f6bd
00000220: c729 ffbd fe56 00be d832 7d3d cb73 24be
00000230: 58ed da3d b9da a13c 74c9 1dbd 2df2 023e
00000240: b597 1fbd 4b42 a53e d872 c83e ba87 59be
00000250: 18b1 e03e ac47 bbbe 1caf c03d 717b 243b
00000260: cd7d 7cbd c11d 143e 424e 53bd d867 53bb
00000270: d9bf 7ebc f120 89bd 3e42 b3be 9f7d 0cbb
00000280: 40ca 8a3c c868 033e 9e67 abbe d426 b9bd
00000290: c59c e63c 0b15 d8bd 7547 a3bc 1d04 b93d
000002a0: bd4d 6ebe b54f 2f3e a91e 063d 8b85 8e3b
000002b0: ba68 b2be 14b1 c0bd be42 833e ca14 de3e
000002c0: edf9 77be 65af 8c3d 308d 7abc 98d0 8f3e
000002d0: f398 fbbe 0340 92be 4d0f 433e beb4 36be
000002e0: d039 35be c438 0fba 2b6e 183e 67be ac3d
000002f0: 2a7e 59be e3f7 4dbe ebc5 c83c 6681 1fbe
00000300: 60ef f93c 4d26 66be 97d3 86be 55a3 61be
00000310: 2c3f 1ebd 3ca4 163c 625f 88bc 5bb0 293e
00000320: 8694 bfbd 8619 6bbd 73b2 a5bc 2939 453d
00000330: 3b4c 533d c30a 0cbe 1067 343e 11ef 73bf
00000340: d748 31bf ac1f f7bd 6889 7bbe 31ec 463e
00000350: f5b3 803e 73ae 1e3e 5d14 1cbd 6a67 02be
00000360: 3b6d 5b3e 92e5 37be ca30 6d3d 5694 17bc
00000370: 7295 6a3d 361f 9fbd c6d2 73be ec3b cbbd
00000380: 293f 653c 2eb6 febd a7d1 80bc 5040 913d
00000390: 4c2c 19bd 8146 663e 482e d03d c626 63bd
000003a0: 5090 4bbe 435c 093e 5f9b 96bd 17b0 2ebe
000003b0: 8402 5b3e ce79 91bd f0c6 a43e ae5e 03bd
000003c0: 59f4 283d a9f2 e5bc cdad a7bc acc3 e73c
000003d0: aa85 293d 3dbd 22be d829 e5bb a064 003d
000003e0: 9e7b 883c ff01 79bd 63ce 2d3e bad6 a0be
000003f0: a53f efbc 168d 57be 0227 883d 5972 803d

backbone.net.0.bias f4 [256]
0.012209965 -0.5343719 -0.11058546 -0.055577073 -0.14395903 -0.2825164 -0.20196122 -0.33013391
-0.17282946 -0.33833337 -0.15100029 -0.23544683 -0.1661731 -0.1867616 -0.2856183 -0.21058254
-0.26297656 0.032041136 -0.73130125 -0.26953676 -0.18808663 -0.41377524 -0.56982064 -0.41488072
-0.20219295 -0.100758806 -0.40686327 0.022275776 -0.29836133 -0.3762965 -0.3166429 -0.1968203
0.036953192 -0.08916754 0.04786695 -0.16710503 -0.20832936 -0.32144654 -0.2548774 -0.3759226
-0.18552572 -0.15816163 -0.15097688 -0.03178101 -0.3553226 0.03706419 0.020952843 -0.2580607
-0.38918945 -0.08565297 0.19439866 -0.12881295 -0.35044244 -0.053672846 -0.27708134 -0.25557747
-0.11495681 -0.301111 -0.71202433 -0.024771187 -0.6714079 -0.12005531 -0.13674934 0.18773374
-0.13860245 -0.033533927 -0.09235654 -0.09833908 -0.039815657 -0.55928665 -0.4250131 -0.40141836
-0.1473251 -0.26515946 -0.21927367 0.223367 0.01773064 0.20426008 0.15103485 -0.3919657
-0.24930306 -0.23230445 -0.038973223 -0.3241037 -0.30278584 -0.010566069 -0.5164376 0.003508761
-0.39199385 -0.1762825 -0.052541118 -0.026998663 -0.22174321 -0.21891394 -0.435241 -0.501212
-0.13753316 0.0014536246 -0.32680425 -0.19492587 -0.4750028 -0.06143487 -0.45789638 -0.21810484
-0.4512676 -0.20708145 -0.22346978 -0.03701818 -0.27357683 -0.22256121 -0.13766083 0.118168354
-0.14462993 0.113451414 -0.24682358 -0.47169188 0.02654211 -0.047452457 -0.3674093 -0.32540086
-0.1829151 -0.040793084 -0.5767971 -0.23996344 -0.08604453 -0.007438542 0.09241192 -0.59640056
0.014270742 -0.37142837 -0.24994898 -0.08654494 -0.65134317 -0.31171632 -0.24342002 -0.31178454
-0.15124395 -0.07541653 -0.19957067 -0.6343445 0.020069636 -0.46224454 -0.33401075 -0.17235851
-0.1596008 -0.00921967 -0.060347315 -0.22244857 -0.30316675 -0.17670815 -0.21888384 0.06326928
0.03889676 -0.057674088 -0.08994944 -0.09166493 -0.3426079 -0.3020428 -0.19943427 -0.19150898
-0.5397218 -0.30178335 -0.32186994 -0.0898876 -0.43344754 -0.22762094 -0.07058647 -0.08989908
-0.19812098 -0.5873793 -0.40940753 -0.09583709 -0.23591915 -0.33953324 -0.15528439 -0.15723948
0.0058390074 -0.35784113 -0.40293676 0.062232014 0.02849384 -0.0391557 -0.15046264 0.4869826
-0.37415165 0.00245699 -0.3884523 -0.4617734 -0.5752772 0.12132067 -0.3786984 -0.20116824
-0.14745957 -0.08510376 -0.3140169 -0.22857118 -0.4780022 -0.38042155 -0.08351655 -0.10429479
-0.34102005 -0.030556716 -0.19709617 -0.64334434 -0.35282597 -0.2611095 -0.15503581 -0.5089795
-0.11642149 -0.28676838 -0.21399163 0.18641642 -0.29551467 0.023979058 -0.3713942 -0.25821555
-0.14818482 0.04587712 -0.14644893 -0.08569987 -0.11640383 -0.16550536 -0.5571341 -0.45385188
-0.0656319 -0.21917047 -0.25191498 -0.27739888 -0.21484861 -0.092259035 -0.192552 -0.6135082
-0.60618764 -0.11158481 -0.2858524 -0.34387112 -0.16673063 -0.72564465 -0.042228837 -0.005788958
-0.25002688 -0.10279579 0.09873881 -0.21456888 -0.34107855 -0.28084064 -0.22314937 -0.08222515
-0.19953857 -0.058413584 -0.17957549 -0.24817133 -0.28614277 -0.1871794 -0.5760416 -0.46692267
00000000: 4e0c 483c 99cc 08bf a17a e2bd c9a4 63bd
00000010: ff69 13be fda5 90be ecce 4ebe 5007 a9be
00000020: 35fa 30be 083a adbe d29f 1abe f918 71be
00000030: 4829 2abe 6f3e 3fbe 903c 92be f3a2 57be
00000040: dda4 86be 913d 033d 8f36 3bbf b900 8abe
00000050: c899 40be 59da d3be c4df 11bf 3f6b d4be
00000060: ab0b 4fbe a25a cebd 6250 d0be b07b b63c
00000070: d1c2 98be efa9 c0be 051f a2be 438b 49be
00000080: 3b5c 173d 799d b6bd 2310 443d 951d 2bbe
00000090: 4b54 55be a494 a4be 4a7f 82be ed78 c0be
000000a0: 74fa 3dbe 1ff5 21be af99 1abe ce2c 02bd
000000b0: d8ec b5be 9fd0 173d 4ca5 ab3c 8820 84be
000000c0: d743 c7be d36a afbd 7110 473e 8be7 03be
000000d0: 316d b3be 0fd8 5bbd 9bdd 8dbe 0ddb 82be
000000e0: 7a6e ebbd 392b 9abe 3a47 36bf f2ec cabc
000000f0: 63e1 2bbf 8fdf f5bd 0508 0cbe 463d 403e
00000100: cded 0dbe df5a 09bd 6d25 bdbd 0066 c9bd
00000110: be15 23bd 692d 0fbf 519b d9be b586 cdbe
00000120: 64dc 16be fbc2 87be 4789 60be 52ba 643e
00000130: d93f 913c 8e29 513e e1a8 1a3e baaf c8be
00000140: 4d49 7fbe 38e1 6dbe 63a2 1fbd ecf0 a5be
00000150: bf06 9bbe 4e1d 2dbc 4135 04bf 3ef3 653b
00000160: 6bb3 c8be 6683 34be 5b35 57bd 4d2c ddbc
00000170: a710 63be fa2a 60be e9d7 debe 6e4f 00bf
00000180: 7ed5 0cbe 8c87 be3a e352 a7be a69a 47be
00000190: 9133 f3be 21a3 7bbd 6571 eabe e056 5fbe
000001a0: 8c0c e7be 290d 54be 43d5 64be 60a0 17bd
000001b0: 4312 8cbe 16e7 63be f6f6 0cbe 4002 f23d
000001c0: de19 14be 3759 e83d 52bf 7cbe 9981 f1be
000001d0: d76e d93c 825d 42bd 121d bcbe f19a a6be
000001e0: 194e 3bbe a616 27bd faa8 13bf fab8 75be
000001f0: 1d38 b0bd 03bf f3bb 7642 bd3d b5ad 18bf
00000200: d5cf 693c dc2b bebe a0f2 7fbe 793e b1bd
00000210: 6dbe 26bf 4899 9fbe 1943 79be 39a2 9fbe
00000220: b2df 1abe fb73 9abd 415c 4cbe 6764 22bf
00000230: 1469 a43c 51ab ecbe 7503 abbe c07e 30be
00000240: 646e 23be 190e 17bc bf2e 77bd 8fc9 63be
00000250: ac38 9bbe fbf2 34be 1623 60be 5393 813d
00000260: 3652 1f3d aa3b 6cbd 6937 b8bd d3ba bbbd
00000270: 4d6a afbe 5ba5 9abe 7f38 4cbe ee1a 44be
00000280: 352b 0abf 5983 9abe 23cc a4be fd16 b8bd
00000290: d6ec ddbe 7715 69be a48f 90bd 021d b8bd
000002a0: 3ae0 4abe 7d5e 16bf dd9d d1be 3c46 c4bd
000002b0: ca94 71be 4dd7 adbe df02 1fbe 6303 21be
000002c0: 2555 bf3b f436 b7be ba4d cebe ffe6 7e3d
000002d0: ea6b e93c ba61 20bd e112 1abe c955 f93e
000002e0: ce90 bfbe 7405 213b 38e3 c6be 906d ecbe
000002f0: 5e45 13bf f976 f83d c2e4 c1be 0cff 4dbe
00000300: a4ff 16be e14a aebd d3c6 a0be 900e 6abe
00000310: b4bc f4be 9dc6 c2be ba0a abbd 8298 d5bd
00000320: 2e9a aebe 1452 fabc 94d3 49be 37b2 24bf
00000330: 9ba5 b4be 25b0 85be b5c1 1ebe 7b4c 02bf
00000340: 646e eebd 4ed3 92be 9f20 5bbe f2e3 3e3e
00000350: b34d 97be bb6f c43c 6127 bebe d434 84be
00000360: c3bd 17be a6e9 3b3d b5f6 15be 6a83 afbd
00000370: 2265 eebd 3d7a 29be 57a0 0ebf 465f e8be
00000380: 056a 86bd 396e 60be 00fb 80be 3a07 8ebe
00000390: 4601 5cbe 4ef2 bcbd 5a2c 45be e00e 1dbf
000003a0: 1d2f 1bbf 9486 e4bd 3f5b 92be e00f b0be
000003b0: 6fbb 2abe d9c3 39bf 25f8 2cbd 4db1 bdbb
000003c0: 8603 80be 9986 d2bd 9337 ca3d f2b7 5bbe
000003d0: d9a1 aebe 58ca 8fbe 4581 64be a965 a8bd
000003e0: d753 4cbe 1543 6fbd a3e2 37be a020 7ebe
000003f0: 4e81 92be f5ab 3fbe 7677 13bf 7d10 efbe

backbone.net.2.weight f4 [256, 256]
-0.18931709 -0.19163427 0.13234344 -0.25697285 0.0460235 0.020870965 -0.04975868 -0.25757444
-0.0268711 0.03590148 0.056735538 -0.1041435 -0.23287438 -0.029984733 -0.15455763 -0.22383268
0.015307895 -0.029155383 0.0034055165 -0.19584994 -0.04208646 -0.14696763 -0.0032219777 -0.0007657746
-1.0023326 0.058403403 0.015461893 -0.023977172 0.12691924 0.12256034 -0.014982159 -0.00023777953
-0.044204336 0.20966318 0.17178054 0.029073091 -0.017992849 -0.15978687 0.09570032 0.21691725
0.07370545 -0.021117186 -0.253432 0.03937015 -0.33176276 -0.21265279 0.048383083 -0.13457353
-0.024813194 -0.33204797 0.019395959 -0.32651177 0.14086334 -0.087216526 0.113802016 -0.069032356
-0.1892671 0.107554235 -0.060261015 -0.04952724 0.032815363 -0.17262478 -0.09943258 0.038990375
-0.021621509 0.06538986 -0.111089975 0.07649598 -0.020868424 0.09354857 0.14067155 0.040278014
0.1169252 -0.43299824 0.39641374 -0.1430077 -0.040142767 -0.042541392 0.017213147 -0.026487866
-0.35718584 0.20612182 0.3181616 -0.03920053 -0.059998617 0.13321126 -0.45889774 -0.16794029
0.15989615 0.063836634 0.1340784 0.020358648 0.05207026 0.03039157 0.11676795 0.1431645
-0.06890001 0.23544274 -0.35696292 0.03892098 -0.077328645 0.06264274 0.17092887 0.12767497
0.039532073 -0.1504519 0.12872984 -0.038302157 -0.034043245 0.035108767 0.05654406 0.058779776
-0.04108335 0.22793916 0.124414414 0.15864465 -0.069712065 0.053020295 -0.076039575 -0.25872844
0.04006523 0.12842165 0.14361188 -0.09747147 0.14970678 -0.00023801226 -0.12721337 0.23683512
-0.11135505 -0.032584894 0.31400737 -0.30215815 0.03931391 -0.013074088 0.14221779 -0.046468794
-0.10244988 -0.015174373 0.079938725 -0.15132092 -0.3372135 0.14169367 -0.04164928 -0.027805643
0.091142595 0.15096416 -0.30722055 -0.021977583 0.20857 -0.008782197 -0.23201801 -0.060565088
0.056376 -0.2888633 0.034777727 -0.2647766 -0.052225627 -0.23531269 -0.09401292 0.12413157
0.12748727 -0.008061344 0.15460867 0.16675541 -0.13699396 0.17319317 0.12692924 0.005995102
0.06958263 0.16332729 -0.1625031 -0.24007413 -0.20482677 0.0057859994 0.019558258 -0.044591337
-0.17259416 0.1136658 -0.2760612 0.24501848 0.04280511 0.02145095 -0.07234706 -0.15199125
0.32573348 -0.19204606 0.09612368 -0.096299 0.078302875 0.014824392 -0.14234866 -0.04837405
0.11386507 -0.052818574 -0.021078074 -0.10876184 -0.022068191 -0.24777085 0.16588485 0.08257673
0.11148976 -0.12206898 -0.029733162 0.077997945 0.076380625 0.0098897945 -0.016552499 0.030287405
0.22444871 -0.022252806 0.23752506 -0.011391472 -0.15793361 0.10310011 -0.2613367 -0.1087672
-0.030371858 -0.011721962 -0.16839595 -0.11096452 -0.00423752 -0.20748867 -0.01349102 0.018524101
0.04775104 -0.02639032 -0.03286389 -0.16253537 -0.33301792 0.3227408 -0.1852914 0.019610874
-0.09068739 0.17008074 0.055232707 0.030008988 -0.055907167 -0.066361494 0.13029353 -0.54593337
-0.103716224 -0.1566506 0.10148107 0.08457506 0.16730525 -0.056974363 -0.021091416 -0.20287338
0.018072609 0.16743518 0.2942804 0.03710975 -0.060445506 0.25097942 0.031250846 -0.06934205
00000000: 57dc 41be c63b 44be 0a85 073e f291 83be
00000010: 2383 3c3d 96f9 aa3c c2cf 4bbd cce0 83be
00000020: c820 dcbc 6e0d 133d 8663 683d 3049 d5bd
00000030: 9f76 6ebe 8ba2 f5bc 5b44 1ebe 6534 65be
00000040: f7cd 7a3c 45d7 eebc 162f 5f3b e38c 48be
00000050: da62 2cbd af7e 16be d127 53bb 43be 48ba
00000060: 6f4c 80bf 6838 6f3d e153 7d3c c66b c4bc
00000070: 1ef7 013e ea00 fb3d bb77 75bc 7554 79b9
00000080: 9b0f 35bd f2b1 563e 3de7 2f3e b12a ee3c
00000090: bd65 93bc 2b9f 23be 88fe c33d 8e1f 5e3e
000000a0: e2f2 963d f3fd acbc d7c1 81be 9842 213d
000000b0: cfdc a9be a7c1 59be 572d 463d a5cd 09be
000000c0: 0a45 cbbc 3102 aabe 46e4 9e3c 8d2c a7be
000000d0: 7b3e 103e 949e b2bd 0811 e93d d660 8dbd
000000e0: 3ccf 41be 6545 dc3d 41d4 76bd 13dd 4abd
000000f0: 6769 063d 8dc4 30be 4fa3 cbbd 5fb4 1f3d
00000100: 971f b1bc 1eeb 853d 2483 e3bd eda9 9c3d
00000110: 42f4 aabc 6596 bf3d 340c 103e 8ffa 243d
00000120: 7b76 ef3d f2b1 ddbe bef6 ca3e 9c70 12be
00000130: be6c 24bd e23f 2ebd 9602 8d3c 15fd d8bc
00000140: 10e1 b6be 9911 533e 14e6 a23e bc90 20bd
00000150: 1cc1 75bd 8868 083e a5f4 eabe 8af8 2bbe
00000160: d1bb 233e c8bc 823d d94b 093e 2ec7 a63c
00000170: a047 553d bef7 f83c 0924 ef3d b799 123e
00000180: 731b 8dbd e717 713e d8c3 b6be 9b6b 1f3d
00000190: 7b5e 9ebd d64a 803d fa07 2f3e 3abd 023e
000001a0: 62ec 213d 1010 1abe c1d1 033e b9e2 1cbd
000001b0: ee70 0bbd 36ce 0f3d bf9a 673d 10c3 703d
000001c0: 0447 28bd e268 693e fccc fe3d be73 223e
000001d0: 33c5 8ebd cf2b 593d a3ba 9bbd 0e78 84be
000001e0: 701b 243d f780 033e fe0e 133e 1f9f c7bd
000001f0: bc4c 193e ee92 79b9 3944 02be e884 723e
00000200: 1e0e e4bd bd77 05bd 93c5 a03e 79b4 9abe
00000210: 9f07 213d b334 56bc 8aa1 113e 1056 3ebd
00000220: 3ed1 d1bd ef9d 78bc eab6 a33d dff3 1abe
00000230: 3fa7 acbe 2518 113e 6f98 2abd a9c8 e3bc
00000240: f8a8 ba3d 5996 1a3e 034c 9dbe 550a b4bc
00000250: 6093 553e 34e3 0fbc 2196 6dbe 1913 78bd
00000260: 85ea 663d e4e5 93be 1773 0e3d cc90 87be
00000270: 8aea 55bd cff5 70be d989 c0bd b138 fe3d
00000280: 068c 023e ba13 04bc bc51 1e3e eec1 2a3e
00000290: 2548 0cbe 8d59 313e bdf9 013e 9072 c43b
000002a0: 5781 8e3d 453f 273e 3667 26be fed5 75be
000002b0: 1cbe 51be 7b98 bd3b a438 a03c 68a5 36bd
000002c0: 86bc 30be 9dc9 e83d e557 8dbe 20e6 7a3e
000002d0: 6954 2f3d e7b9 af3c b22a 94bd 98a3 1bbe
000002e0: 8ac6 a63e b9a7 44be 7edc c43d 6938 c5bd
000002f0: 425d a03d 02e2 723c d9c3 11be de23 46bd
00000300: 1732 e93d 4a58 58bd edab acbc 87be debd
00000310: 5ac8 b4bc a4b7 7dbe b8dd 293e fd1d a93d
00000320: be54 e43d 4dff f9bd f692 f3bc 63bd 9f3d
00000330: 726d 9c3d ce08 223c 1b99 87bc 4b1d f83c
00000340: e2d5 653e 844b b6bc c539 733e 4ca3 3abc
00000350: 59b9 21be 2726 d33d edcd 85be 56c1 debd
00000360: 67ce f8bc 790d 40bc fd6f 2cbe 5e41 e3bd
00000370: e5da 8abb e977 54be 7009 5dbc dbbf 973c
00000380: 9896 433d 8330 d8bc 499c 06bd ac6f 26be
00000390: 5381 aabe 483e a53e 07bd 3dbe fca6 a03c
000003a0: 4fba b9bd a529 2e3e b13b 623d 69d5 f53c
000003b0: eafe 64bd 89e8 87bd ab6b 053e 4ac2 0bbf
000003c0: 2c69 d4bd 0469 20be 4fd5 cf3d b035 ad3d
000003d0: 1152 2b3e f35d 69bd e8c7 acbc 0abe 4fbe
000003e0: 020d 943c 2174 2b3e ecab 963e 6500 183d
000003f0: b595 77bd 6080 803e e300 003d 3403 8ebd

backbone.net.2.bias f4 [256]
-0.10035235 -0.04244288 0.38512704 0.115533546 0.15196814 0.1323997 0.38775185 0.06199555
0.11848934 -0.020963646 -0.038662244 0.19038965 -0.062277257 0.06839906 -0.10778215 0.37346396
0.07362317 0.11076737 -0.17453156 0.18307969 0.0132487 -0.09819842 -0.07627739 0.26720908
0.011879673 -0.06462891 0.09669607 0.19794859 0.15897694 0.030717017 0.17726305 -0.12556082
0.051331203 -0.11504096 -0.11731343 0.282338 0.07333083 -0.05452431 0.10294634 0.029672602
0.030753434 -0.106973775 -0.0072806613 0.1143586 0.30008796 0.029559711 -0.074218996 -0.09273758
-0.03688858 0.023098597 0.041058626 0.088071845 -0.0658951 -0.07163145 0.1540871 -0.38013378
0.009653534 0.08339018 0.03694409 -0.32937953 -0.03972899 -0.100914866 -0.002480202 0.14454705
-0.083415315 -0.02370841 0.11699981 -0.06537755 -0.10535399 0.10794678 0.14321198 0.09305479
0.031369492 -0.070937246 0.04034316 0.10638802 0.3225872 -0.039556988 0.007962038 -0.001013526
0.08983586 -0.026191747 0.044464182 -0.059783485 0.039754152 -0.02980287 -0.05283579 -0.20857437
-0.15531431 -0.06689114 -0.3326005 0.018240439 0.1270014 0.063926116 -0.13666968 0.26926628
-0.012456379 -0.12395568 -0.18807188 0.110308975 0.07797592 0.0798367 0.00014816581 -0.034125067
0.2613404 0.26663885 0.041409284 -0.046655055 0.12150394 -0.085339576 -0.020251805 0.08649462
0.15219842 0.05509176 0.04409217 -0.038434748 -0.23076692 0.02753487 0.19664341 -0.14814287
0.04902267 -0.024365906 0.17504823 -0.12025493 0.08300539 0.09930037 0.30052432 -0.10735462
0.0018182563 0.2620031 -0.008203905 -0.052005038 -0.2326082 0.00087015243 0.056950945 0.106395915
-0.060896963 -0.29837984 0.14194961 -0.058708712 0.09632616 0.08324208 -0.1809169 -0.19818228
0.0928709 0.10987043 0.2382569 0.026767125 -0.014737348 0.15502694 -0.17600565 -0.059747845
-0.06233644 -0.2792298 0.04730048 -0.24616164 -0.10557638 0.09964437 -0.13195199 0.04804486
-0.005996007 0.015750032 -0.023110978 0.18316372 -0.09413943 0.15848699 0.098089196 -0.08000251
-0.00513951 0.13941516 0.31935707 0.04917127 -0.0035699266 0.2366964 0.13858837 -0.15362954
-0.22541234 0.06855074 0.20873792 -0.09758455 0.18397892 -0.10140956 -0.20517467 0.2123425
0.018648872 0.23433374 0.004365618 0.033362273 0.055469207 0.09578872 0.09102967 -0.053111177
0.07845807 0.02479216 -0.29345378 0.044859987 -0.023062423 0.25056446 -0.13671754 0.006778255
0.0073261126 -0.030677114 0.17192021 -0.25336745 0.04598328 0.2929376 0.13263729 -0.16963054
0.16590507 -0.16067249 0.26690957 0.14805833 -0.06344905 0.023008859 -0.14424215 -0.0801218
0.0910003 0.113640845 0.21650192 -0.14479584 0.11437104 0.13474251 0.18647821 -0.12071766
0.2776504 0.013751399 0.2247588 0.14844589 -0.07860405 -0.17168209 0.08353631 0.18087736
-0.07054115 -0.04526605 0.14372325 0.12185642 0.015204079 0.20952052 0.1138616 0.049882133
0.10375011 -0.20422444 -0.04655143 0.090897456 0.15774383 -0.123055786 -0.16097602 0.019914767
0.054333147 0.052503593 0.12087864 -0.14199385 0.046368796 -0.022631597 0.46701762 0.06430991
00000000: 8885 cdbd 96d8 2dbd 5f2f c53e da9c ec3d
00000010: 899d 1b3e c993 073e 6987 c63e 0cef 7d3d
00000020: 8aaa f23d f4bb abbc 4d5c 1ebd 81f5 423e
00000030: 7016 7fbd ce14 8c3d e3bc dcbd ab36 bf3e
00000040: bfc7 963d 01da e23d 67b8 32be 3e79 3b3e
00000050: 1311 593c 411c c9bd 5237 9cbd a1cf 883e
00000060: f6a2 423c 295c 84bd 9708 c63d 09b3 4a3e
00000070: daca 223e 41a2 fb3c 7284 353e 0493 00be
00000080: ab40 523d 989a ebbd 0642 f0bd 9b8e 903e
00000090: 792e 963d e254 5fbd 88d5 d23d f513 f33c
000000a0: a0ee fb3c 1115 dbbd 9d92 eebb d734 ea3d
000000b0: 21a5 993e 3527 f23c 2100 98bd 33ed bdbd
000000c0: 7b18 17bd 4539 bd3c 172d 283d 035f b43d
000000d0: 03f4 86bd 82b3 92bd 02c9 1d3e e5a0 c2be
000000e0: db29 1e3c 78c8 aa3d b052 173d 6fa4 a8be
000000f0: deba 22bd 74ac cebd e28a 22bb 2404 143e
00000100: a6d5 aabd 2438 c2bc 999d ef3d aae4 85bd
00000110: d5c3 d7bd 3413 dd3d 29a6 123e 8293 be3d
00000120: 4c7d 003d 8c47 91bd df3e 253d f6e1 d93d
00000130: 262a a53e 8206 22bd 3573 023c 4ad8 84ba
00000140: ddfb b73d 1390 d6bc 1320 363d 87df 74bd
00000150: 40d5 223d 2625 f4bc 576a 58bd 8594 55be
00000160: b70a 1fbe 39fe 88bd 9d4a aabe f96c 953c
00000170: a80c 023e b2eb 823d 23f3 0bbe 45dd 893e
00000180: d715 4cbc 7adc fdbd ea95 40be ace9 e13d
00000190: d7b1 9f3d 6c81 a33d f55c 1b39 bac6 0bbd
000001a0: 69ce 853e e384 883e c89c 293d 5f19 3fbd
000001b0: 0fd7 f83d 84c6 aebd 1de7 a5bc 1724 b13d
000001c0: e7d9 1b3e e6a7 613d fe99 343d c16d 1dbd
000001d0: 2a4e 6cbe cf90 e13c e45c 493e c4b2 17be
000001e0: ffcb 483d 029b c7bc d83f 333e 3748 f6bd
000001f0: bbfe a93d fe5d cb3d 53de 993e bddc dbbd
00000200: 8f52 ee3a 4525 863e ac69 06bc 3c03 55bd
00000210: d830 6ebe f11a 643a 6545 693d 1ae6 d93d
00000220: 186f 79bd 3ec5 98be 3d5b 113e 8c78 70bd
00000230: a646 c53d d37a aa3d 4842 39be 4cf0 4abe
00000240: 1933 be3d bf03 e13d 9ef9 733e bb46 db3c
00000250: eb74 71bc 62bf 1e3e d33a 34be 28ba 74bd
00000260: 7f54 7fbd 35f7 8ebe 26be 413d cc11 7cbe
00000270: 6e38 d8bd 5912 cc3d 6c1e 07be b0ca 443d
00000280: 277a c4bb 3606 813c 3c53 bdbc 458f 3b3e
00000290: 2ccc c0bd 6a4a 223e fde2 c83d 5bd8 a3bd
000002a0: 5669 a8bb d9c2 0e3e c582 a33e d067 493d
000002b0: 6ef5 69bb 8b60 723e 1cea 0d3e 1051 1dbe
000002c0: 7ed2 66be 5564 8c3d 65bf 553e 69da c7bd
000002d0: f864 3c3e d1af cfbd 4f19 52be 5070 593e
000002e0: 85c5 983c 2ff5 6f3e 750d 8f3b e1a6 083d
000002f0: ae33 633d e02c c43d c36d ba3d 1b8b 59bd
00000300: a0ae a03d ee18 cb3c 933f 96be 1bbf 373d
00000310: 68ed bcbc fc49 803e afff 0bbe 201c de3b
00000320: e30f f03b 924e fbbc da0b 303e 61b9 81be
00000330: f758 3c3d ebfb 953e 12d2 073e a1b3 2dbe
00000340: 05e3 293e 5487 24be 5fa8 883e 9a9c 173e
00000350: 93f1 81bd 137d bc3c 37b4 13be e616 a4bd
00000360: 5e5e ba3d 88bc e83d aeb2 5d3e 5c45 14be
00000370: 5d3b ea3d f1f9 093e 25f4 3e3e d23a f7bd
00000380: 3128 8e3e 8c4d 613c 2c27 663e 3302 183e
00000390: 29fb a0bd 6ecd 2fbe 1615 ab3d ea37 393e
000003a0: e177 90bd e568 39bd 302c 133e dc8f f93d
000003b0: 881a 793c 8c8c 563e 4530 e93d 3551 4c3d
000003c0: f07a d43d 3620 51be b6ac 3ebd 7228 ba3d
000003d0: 9987 213e ac04 fcbd e6d6 24be 4b24 a33c
000003e0: 6f8c 5e3d 020e 573d 388f f73d d666 11be
000003f0: 35ed 3d3d e665 b9bc ef1c ef3e eab4 833d

backbone.net.4.weight f4 [8, 256]
-0.13240302 0.087588176 -0.10194309 0.036165845 -0.31948432 0.10454553 -0.11435946 -0.15922968
-0.16776639 -0.004566522 -0.17406717 -0.08277841 -0.12552266 0.22460939 0.12807964 0.2221134
-0.025052074 -0.092397146 -0.07878896 -0.059788242 0.30121762 -0.025686119 -0.23280379 0.42093349
-0.102931894 0.22491738 0.15457174 0.092343144 -0.5113335 -0.056296483 0.21899427 0.0147625
0.084297985 -0.074424766 0.48739985 0.013716261 -0.04384293 -0.2517252 -0.33798584 -0.08703244
-0.016770022 0.22806865 -0.07228777 0.27520415 0.26842383 -0.12994558 -0.03470275 -0.23194435
-0.24864118 0.19831531 0.028663877 -0.16057885 0.107686296 0.068220094 -0.10613503 -0.103226006
-0.06505705 0.118751764 0.047686014 0.2193617 0.18117088 0.19486551 -0.03863158 -0.006860807
-0.00090663903 0.045099813 0.0104253935 -0.113098085 0.14933862 -0.019706562 0.07563014 -0.24352168
-0.07105616 -0.0057481118 0.059242595 0.017322948 -0.108093865 0.2537799 -0.014470584 -0.009044444
0.3679368 0.24044615 0.104320936 0.22149003 0.024226848 0.16034055 0.2458039 0.1981986
0.118137665 0.067489 -0.10418857 -0.1359647 -0.11522052 -0.013930874 0.099630505 0.10573074
0.29049876 -0.20732106 -0.12629345 -0.21216883 -0.16296896 -0.09795776 0.29669788 -0.3146134
0.042607762 -0.086679764 -0.506231 0.14774968 -0.07602975 -0.23495825 0.25932106 -0.007698687
-0.08935245 -0.14402285 0.20268926 -0.08353208 0.36707363 0.0012229673 -0.12723294 -0.27476168
0.32324314 -0.09395358 0.09782297 0.19134265 0.0021052393 0.06632115 -0.3426952 -0.18596037
-0.22455606 0.3139472 -0.013670941 -0.0916052 0.3550981 0.16538797 -0.12918952 0.117044725
0.2879402 0.18468525 0.079877906 0.5092554 -0.17716412 -0.31282592 -0.20443943 -0.084294565
0.164815 -0.3036494 0.13100186 0.26555327 -0.017176043 -0.07733543 -0.002458583 0.27280065
0.3616191 0.26212248 0.01165223 0.15810032 -0.31067458 -0.12729268 -0.05884441 -0.07637031
0.08609262 -0.37043726 -0.08253183 -0.009539541 -0.051180646 -0.06023048 0.15336041 0.16793373
0.051265538 0.075001314 0.117700145 -0.20768933 0.2731058 -0.007114687 0.1181674 -0.02967655
0.26844668 0.111175455 0.13664591 0.040831726 -0.047194522 -0.030375397 -0.11468749 -0.06629455
-0.12587658 -0.27962312 -0.14151683 -0.15888003 -0.31905574 0.16471113 -0.42063737 0.14717495
0.04995901 -0.07389141 0.08722455 -0.03497864 -0.08400079 0.03182893 -0.23160422 0.13909598
0.42175636 -0.058395486 0.06153364 0.09735713 0.1882926 0.09314807 0.18882765 0.14635105
-0.11391908 -0.018956285 0.012669369 0.07665229 0.25370654 0.22903647 -0.35297325 0.2759492
-0.028804649 -0.10718877 -0.16312236 0.057753123 0.17352773 -0.011808845 -0.2660047 -0.06786071
0.087416254 0.03080159 -0.1794418 -0.21949165 -0.16129366 -0.3166217 -0.06119204 0.06739357
0.12564725 -0.4350278 -0.3025689 -0.21741381 0.2873861 0.054674458 0.026579406 -0.1717304
-0.016829168 0.22522311 -0.10264066 0.04667464 0.044119563 -0.12385842 0.09972124 -0.39411455
-0.02599328 -0.012821341 -0.22753073 -0.052476756 -0.099176034 -0.26736462 -0.14887762 -0.12441139
00000000: a894 07be 6e61 b33d 8ac7 d0bd a322 143d
00000010: 7393 a3be f81b d63d 4b35 eabd 1b0d 23be
00000020: f4ca 2bbe c3a2 95bb aa3e 32be ba87 a9bd
00000030: 0389 00be 0100 663e 4f27 033e b271 633e
00000040: 023a cdbc b73a bdbd 1b5c a1bd 84e4 74bd
00000050: 3239 9a3e b26b d2bc 1e64 6ebe 9884 d73e
00000060: f5cd d2bd be50 663e 0e48 1e3e 671e bd3d
00000070: c1e6 02bf 2497 66bd 0940 603e 6ade 713c
00000080: 6ca4 ac3d 036c 98bd 798c f93e 2bba 603c
00000090: a594 33bd 20e2 80be 7b0c adbe 103e b2bd
000000a0: 4961 89bc d48a 693e 9c0b 94bd 8fe7 8c3e
000000b0: d96e 893e 7410 05be 7924 0ebd d282 6dbe
000000c0: cb9b 7ebe 2b13 4b3e 82d0 ea3c c86e 24be
000000d0: a28a dc3d fab6 8b3d 535d d9bd 2868 d3bd
000000e0: a13c 85bd 2034 f33d 6952 433d 5aa0 603e
000000f0: dc84 393e d38a 473e 263c 1ebd 9fd0 e0bb
00000100: 84ab 6dba 95ba 383d 45cf 2a3c f89f e7bd
00000110: 39ec 183e a86f a1bc fae3 9a3d bf5d 79be
00000120: e485 91bd a85a bcbb 5da8 723d dbe8 8d3c
00000130: 5160 ddbd 70ef 813e 0716 6dbc 262f 14bc
00000140: 3662 bc3e 8437 763e 37a6 d53d 48ce 623e
00000150: 6277 c63c 5030 243e 04b4 7b3e 93f4 4a3e
00000160: 29f2 f13d ac37 8a3d d160 d5bd 553a 0bbe
00000170: bcf8 ebbd 523e 64bc 140b cc3d 5c89 d83d
00000180: 41bc 943e f94b 54be 1253 01be c942 59be
00000190: 56e1 26be 149e c8bd c9e8 973e 0215 a1be
000001a0: 7a85 2e3d 2985 b1bd 5b98 01bf b14b 173e
000001b0: 7cb5 9bbd e598 70be bbc5 843e 4445 fcbb
000001c0: 6bfe b6bd ba7a 13be c68d 4f3e de12 abbd
000001d0: 13f1 bb3e f94b a03a 5a49 02be 90ad 8cbe
000001e0: 2080 a53e bc6a c0bd 6957 c83d 54ef 433e
000001f0: 0ef8 093b 62d3 873d bf75 afbe 656c 3ebe
00000200: 06f2 65be b0bd a03e 15fc 5fbc 829b bbbd
00000210: 6bcf b53e 775b 293e 424a 04be 25b5 ef3d
00000220: e66c 933e 211e 3d3e 0797 a33d 905e 023f
00000230: 836a 35be b82a a0be 9258 51be a1a2 acbd
00000240: 43c5 283e ef77 9bbe 5a25 063e 99f6 873e
00000250: c6b4 8cbc 0a62 9ebd 2e20 21bb 87ac 8b3e
00000260: 2426 b93e eb34 863e ffe8 3e3c 0de5 213e
00000270: bd10 9fbe 0359 02be d606 71bd 0968 9cbd
00000280: 5451 b03d f4a9 bdbe 7306 a9bd bc4b 1cbc
00000290: cca2 51bd 3cb4 76bd 830a 1d3e d2f6 2b3e
000002a0: d0fb 513d 4a9a 993d c60c f13d 83ac 54be
000002b0: 86d4 8b3e 5222 e9bb c001 f23d 3c1c f3bc
000002c0: d871 893e f5af e33d e8ec 0b3e 2b3f 273d
000002d0: 0b4f 41bd d3d5 f8bc 46e1 eabd 70c5 87bd
000002e0: cae5 00be c32a 8fbe cae9 10be 72b1 22be
000002f0: 465b a3be 09aa 283e c85d d7be 08b5 163e
00000300: d2a1 4c3d 6154 97bd c9a2 b23d c345 0fbd
00000310: 9b08 acbd 0d5f 023d a829 6dbe 2d6f 0e3e
00000320: 73f0 d73e 1b30 6fbd b30a 7c3d 2d63 c73d
00000330: c6cf 403e 6ac4 be3d 095c 413e 0ddd 153e
00000340: 684e e9bd 364a 9bbc 2f93 4f3c e0fb 9c3d
00000350: d3e5 813e 8988 6a3e e9b8 b4be 3749 8d3e
00000360: baf7 ebbc c985 dbbd 8c09 27be 8a8e 6c3d
00000370: 41b1 313e e379 41bc c531 88be 8efa 8abd
00000380: 4b07 b33d 9e53 fc3c 97bf 37be 6bc2 60be
00000390: 2a2a 25be 3d1c a2be 81a4 7abd a405 8a3d
000003a0: aca9 003e f7bb debe 50ea 9abe baa1 5ebe
000003b0: 4524 933e 53f2 5f3d 0ebd d93c 18da 2fbe
000003c0: 53dd 89bc e3a0 663e 4435 d2bd e82d 3f3d
000003d0: b7b6 343d 7ca9 fdbd a63a cc3d 62c9 c9be
000003e0: dcef d4bc 9a10 52bc d1fd 68be def1 56bd
000003f0: ce1c cbbd 04e4 88be 6073 18be 66cb febd

backbone.net.4.bias f4 [8]
0.122834876 0.0066184085 0.04141406 -0.026246704 -0.0027824214 0.09403722 -0.011390837 0.019020673
00000000: da90 fb3d 3cdf d83b caa1 293d 5403 d7bc
00000010: 4959 36bb 9696 c03d a2a0 3abc 3ed1 9b3c

net.net.0.weight f4 [256, 37]
0.09964764 0.36198208 0.046143163 -0.21430084 -0.12471534 0.10588651 -0.108664304 0.05902948
0.02562534 0.014570479 0.04821479 0.05285735 -0.21986453 -0.16142859 -0.16003695 -0.068791345
-0.0032368638 0.27112904 -0.20454505 -0.028764041 -0.04378206 0.23127182 -0.016151045 0.10190108
-0.10955666 -0.12189476 -0.00942013 -0.12737568 -0.12147555 -0.07112198 -0.0047216835 0.20511499
-0.03815538 0.16333313 -0.23683853 -0.17749292 -0.1479036 0.553003 0.23161696 0.06861602
-0.06710999 -0.54063755 0.32664767 -0.45997784 -0.12196612 0.011497421 -0.017984692 -0.011204296
0.06187728 -0.039432548 -0.043249946 0.1819446 0.1942834 0.10029011 0.052519005 -0.016031578
0.061238322 -0.04882548 -0.028623268 -0.057479203 0.08453893 0.009485197 -0.03738272 0.016561758
-0.012287538 -0.040813208 0.03777002 0.0077761277 0.033624303 -0.03384145 0.020010034 -0.08860861
-0.05462185 -0.026970511 0.43176904 0.87791914 0.059662472 -0.12252203 0.33211672 -0.40085217
-0.4000345 0.05104799 0.06887822 -0.09496457 -0.033522565 -0.09766304 -0.0791025 0.015080524
-0.054830223 0.006261389 0.052205477 -0.000117058225 0.05685407 -0.035303473 -0.11791076 -0.04949718
0.052198358 -0.14783768 -0.011976686 0.0033432776 -0.010977913 0.012923879 -0.016135644 0.011104245
-0.047587954 -0.0033225939 0.065036565 -0.09507967 -0.009948167 0.043067664 0.029399335 0.27998653
-0.5079403 0.21488081 0.49528885 -0.5115917 0.16550896 0.14135365 -0.06055828 -0.10041712
0.15559222 -0.06655654 -0.085061185 0.09174294 -0.035717558 -0.083619475 0.06100422 -0.060459998
0.05220517 -0.0797517 0.017927496 -0.025185384 -0.016285066 -0.07195351 -0.035899885 -0.100718044
0.107408054 -0.032458965 -0.047220483 0.028140493 -0.021799836 0.034051336 0.15878825 -0.0014218311
-0.14117666 -0.009120196 0.12638494 -0.10699191 0.00037736614 0.017685043 -0.10204838 -0.29999942
-0.1552677 0.18737018 0.108536735 -0.17561352 0.17583857 -0.06917723 0.12516063 0.029832177
-0.07479256 -0.085439295 -0.28489077 -0.0042272494 -0.020632353 -0.06553402 0.029616347 -0.03880245
-0.024861176 -0.19166836 0.16200633 -0.06363923 0.12113484 0.0073130177 -0.05303614 -0.035783462
-0.06347096 -0.033408646 -0.03271879 -0.20091839 0.11446107 -0.08632304 0.15738936 0.1206472
-0.053762108 0.29425642 -0.22921175 -0.08038952 -0.16022989 -0.022087837 0.03777485 0.19922826
-0.08364504 -0.01379825 -0.05454592 -0.11631028 -0.066286035 -0.030604903 0.00020691981 0.08384733
-0.006540538 0.40390638 -0.10032436 -0.016516166 -0.046995964 0.06911137 -0.07502516 0.05210751
-0.033838633 -0.1176062 -0.029696371 -0.0500896 -0.011093705 -0.008691328 0.18183276 -0.034636527
-0.073722884 -0.12891008 0.07008711 0.11627991 0.004768094 0.1536343 0.07717474 0.18700056
-0.43031463 0.35285473 0.018547883 -0.23186338 -0.28712687 -0.09740784 -0.07956273 0.2722105
-0.019922797 0.036031075 0.005830948 -0.24565932 0.052097034 -0.13089167 -0.1399921 0.009081549
0.037239525 0.06285945 -0.09516653 0.0058145327 0.0018132038 -0.29242674 -0.00018352173 0.04935775
0.016358528 0.040391877 -0.06396256 0.197132 0.14598936 0.18090324 -0.028119626 -0.10045095
00000000: 1014 cc3d b755 b93e 9d00 3d3d ae71 5bbe
00000010: c26a ffbd 07db d83d 648b debd e5c8 713d
00000020: 3cec d13c 05b9 6e3c df7c 453d f380 583d
00000030: 2b24 61be 894d 25be bae0 23be 7ae2 8cbd
00000040: 9021 54bb 6dd1 8a3e 4274 51be 91a2 ebbc
00000050: d154 33bd 85d2 6c3e 324f 84bc 83b1 d03d
00000060: 3e5f e0bd f6a3 f9bd e456 1abc c56e 02be
00000070: 2cc8 f8bd 67a8 91bd 5ab8 9abb aa09 523e
00000080: d148 1cbd cd40 273e cd85 72be b4c0 35be
00000090: 0b74 17be 9b91 0d3f ff2c 6d3e 8e86 8c3d
000000a0: f670 89bd 3967 0abf 5d3e a73e 3782 ebbe
000000b0: 60c9 f9bd ae5f 3c3c a254 93bc 3992 37bc
000000c0: 0873 7d3d 0684 21bd db26 31bd af4f 3a3e
000000d0: 3af2 463e e764 cd3d 2b1e 573d a854 83bc
000000e0: 09d5 7a3d 3afd 47bd 587b eabc 506f 6bbd
000000f0: bf22 ad3d cd67 1b3c 9f1e 19bd 86ac 873c
00000100: ab51 49bc c02b 27bd bdb4 1a3d e3ce fe3b
00000110: a3b9 093d 559d 0abd 15ec a33c 6e78 b5bd
00000120: 29bb 5fbd 43f1 dcbc d510 dd3e 4fbf 603f
00000130: a360 743d d4ec fabd 340b aa3e 7f3c cdbe
00000140: 52d1 ccbe b217 513d 0610 8d3d c97c c2bd
00000150: f54e 09bd 8f03 c8bd 7e00 a2bd 4d14 773c
00000160: a895 60bd 562c cd3b 69d5 553d 287d f5b8
00000170: d0df 683d 609a 10bd 327b f1bd 8ebd 4abd
00000180: f2cd 553d c362 17be dd39 44bc e41a 5b3b
00000190: b4dc 33bc adbe 533c e62e 84bc 94ee 353c
000001a0: 96eb 42bd e0bf 59bb e431 853d 21b9 c2bd
000001b0: a3fd 22bc b867 303d e0d6 f03c 655a 8f3e
000001c0: 6008 02bf b709 5c3e 8096 fd3e acf7 02bf
000001d0: 2e7b 293e 03bf 103e f60b 78bd 7ea7 cdbd
000001e0: 9153 1f3e cc4e 88bd 8f34 aebd b9e3 bb3d
000001f0: 934c 12bd b040 abbd 90df 793d e7a4 77bd
00000200: 17d5 553d dc54 a3bd afdc 923c 9451 cebc
00000210: 4268 85bc 5d5c 93bd c20b 13bd 4345 cebd
00000220: c1f8 db3d b1f3 04bd 446a 41bd e486 e63c
00000230: 9295 b2bc 6a79 0b3d 6399 223e bc5c baba
00000240: 9d90 10be e06c 15bc 0e6b 013e 931e dbbd
00000250: 3ad9 c539 39e0 903c befe d0bd 8699 99be
00000260: 7ffe 1ebe f8dd 3f3e 8248 de3d 08d4 33be
00000270: 070f 343e cbac 8dbd 1c2a 003e 9c62 f43c
00000280: d72c 99bd ccfa aebd 34dd 91be bd84 8abb
00000290: 2e05 a9bc b336 86bd fb9d f23c 51ef 1ebd
000002a0: aaa9 cbbc b644 44be fde4 253e 4955 82bd
000002b0: 8b15 f83d 0aa2 ef3b 6c3c 59bd ae91 12bd
000002c0: 10fd 81bd 81d7 08bd 2304 06bd 8dbd 4dbe
000002d0: 916a ea3d 22ca b0bd ad2a 213e e115 f73d
000002e0: a835 5cbd c7a8 963e 7cb6 6abe 43a3 a4bd
000002f0: 4e13 24be 8df1 b4bc cdb9 1a3d 7e02 4c3e
00000300: 174e abbd 0e12 62bc 8b6b 5fbd 1634 eebd
00000310: f9c0 87bd 22b7 fabc 9df8 5839 26b8 ab3d
00000320: 0252 d6bb d1cc ce3e dc76 cdbd e94c 87bc
00000330: d77e 40bd 438a 8d3d cba6 99bd af6e 553d
00000340: 619a 0abd 85db f0bd ce45 f3bc c12a 4dbd
00000350: 5fc2 35bc 1266 0ebc 5e32 3a3e 08df 0dbd
00000360: 06fc 96bd 0101 04be d589 8f3d 2924 ee3d
00000370: ac3d 9c3b 4f52 1d3e ca0d 9e3d 137d 3f3e
00000380: 3352 dcbe 60a9 b43e bbf1 973c 986d 6dbe
00000390: 4b02 93be c37d c7bd c9f1 a2bd 2d5f 8b3e
000003a0: 2235 a3bc 5295 133d 8911 bf3b 1e8e 7bbe
000003b0: b363 553d 7708 06be 175a 0fbe c7ca 143c
000003c0: 7988 183d 75bc 803d abe6 c2bd d687 be3b
000003d0: 06a9 ed3a f5b8 95be bd6f 40b9 5a2b 4a3d
000003e0: 5202 863c f471 253d cdfe 82bd f9dc 493e
000003f0: 3c7e 153e b33e 393e 215b e6bc 3ab9 cdbd

net.net.0.bias f4 [256]
-0.23666124 0.29706377 -0.14370804 0.23673333 -0.11199275 0.25456524 -0.49902663 -0.33051887
-0.21492793 -0.11669808 -0.17135163 0.31389365 -0.41908705 -0.13020861 -0.12777571 0.1556582
0.059062935 -0.40411505 -0.07150074 -0.43218493 -0.34788746 -0.30529457 0.2741662 -0.2097792
0.04171291 -0.32820404 0.50772756 -0.19690229 -0.25771052 -0.24841152 0.4750927 -0.19181946
-0.2827241 0.16000845 -0.047886513 -0.053029522 0.105503745 0.37368986 -0.17632325 -0.34095475
0.016365366 -0.13614209 -0.12504525 0.22823876 -0.011765143 -0.34412384 0.38692984 -0.07598075
-0.42744982 0.04238816 0.003042971 0.12779455 -0.39194018 -0.136758 -0.2954435 -0.10739968
-0.44146422 -0.07140586 0.39485887 -0.08402795 0.54162526 0.15863948 0.22385041 -0.04710346
-0.005686805 -0.14284334 -0.1225903 -0.072824754 -0.14420922 -0.082668565 -0.09927517 -0.27221847
-0.5245285 0.16611858 -0.093393326 -0.3680064 -0.007886159 -0.27327964 -0.3467097 0.0865212
-0.056169238 -0.1233106 -0.29937294 -0.06528315 -0.21321984 -0.38861346 -0.22842103 0.55640656
0.36863145 -0.08914836 0.10047743 -0.22477211 -0.35282543 0.42735583 -0.37632865 0.012509693
0.357882 -0.40483907 -0.03232855 0.30435187 0.19861346 -0.15465751 -0.08368143 -0.2299362
-0.05021579 -0.14738128 0.27597213 -0.3570618 -0.026235117 -0.16310602 -0.3424909 0.16966146
-0.11635106 0.29879045 0.557252 -0.71301955 -0.32409164 -0.19978389 -0.3671515 -0.22859015
0.079906456 -0.6246339 0.20741649 0.23572811 -0.6864884 0.006802532 -0.07647558 0.20657642
0.23192303 0.1997938 -0.3791836 0.35978863 0.2262457 -0.16737863 -0.011875229 -0.25008962
-0.46343833 -0.56111556 -0.18779634 -0.40421534 -0.19192287 0.65702236 0.05717722 -0.044278253
-0.43313256 -0.038930144 -0.57195026 0.3508784 -0.31139767 -0.12434682 0.20072621 -0.302314
-0.37440237 -0.56051135 -0.21711713 0.46450967 -0.27401897 0.06957501 0.4844715 0.20608975
0.34292874 0.056251634 0.2863856 -0.1631119 -0.02906393 -0.31769416 0.17060988 -0.079985514
-0.16236506 -0.39356792 0.36619526 0.15768227 0.21511899 0.4553099 -0.24767756 -0.35727394
-0.18846741 -0.15087943 0.4875275 -0.14097731 0.2956717 0.062223062 -0.57431513 -0.033534788
-0.21400581 -0.4138288 0.09153667 0.14065558 -0.305108 0.27792057 -0.62188196 -0.35470513
-0.115088634 0.6077632 -0.232359 0.23371412 3.3261724e-05 -0.3422648 -0.5198332 -0.11221578
0.33126158 -0.25344977 -0.47173995 0.22553734 0.29686618 -0.111646175 0.44934306 -0.3393835
-0.042247344 -0.3892359 -0.35299265 -0.58583754 -0.41573977 -0.17532401 0.44426125 -0.39837307
-0.62888247 -0.31842113 0.11868803 -0.3909193 -0.23476484 -0.035550483 -0.46724665 -0.2999321
-0.52411646 0.12864186 -0.2710765 0.16862535 0.28771642 -0.50780666 -0.29788026 0.13975847
-0.32355908 0.32602525 0.5178263 -0.33793333 0.16714454 -0.28841716 0.12760866 -0.5643621
-0.298574 -0.21027634 -0.34902787 0.020538671 -0.36502934 -0.16914363 0.40673137 0.40020436
0.3925095 -0.17874669 0.10256205 -0.4650584 -0.17036569 -0.24504998 -0.12532681 -0.32284078
00000000: 5357 72be be18 983e 3328 13be 396a 723e
00000010: 745c e5bd 6056 823e 6b80 ffbe c539 a9be
00000020: 1116 5cbe 67ff eebd cd76 2fbe abb6 a03e
00000030: 9492 d6be 6855 05be a3d7 02be dd64 1f3e
00000040: faeb 713d 2be8 cebe fb6e 92bd 5847 ddbe
00000050: 4e1e b2be 924f 9cbe 835f 8c3e 5cd0 56be
00000060: 28db 2a3d 5c0a a8be 6ffa 013f c1a0 49be
00000070: a2f2 83be 975f 7ebe 5a3f f33e 526c 44be
00000080: 37c1 90be 41d9 233e a624 44bd 7c35 59bd
00000090: 5912 d83d 4754 bf3e 158e 34be 9f91 aebe
000000a0: a910 863c d568 0bbe dd0b 00be 6cb7 693e
000000b0: 96c2 40bc 0031 b0be ab1b c63e cc9b 9bbd
000000c0: b4da dabe 359f 2d3d 956c 473b 93dc 023e
000000d0: 62ac c8be 4a0a 0cbe 5f44 97be 5df4 dbbd
000000e0: 9907 e2be 3c3d 92bd f12a ca3e d916 acbd
000000f0: f4a7 0a3f 6372 223e 0b39 653e 8fef 40bd
00000100: 6158 babb 8645 12be a010 fbbd 2525 95bd
00000110: 95ab 13be 234e a9bd c850 cbbd 3860 8bbe
00000120: 8047 06bf fd1a 2a3e 0045 bfbd 566b bcbe
00000130: f334 01bc 4feb 8bbe ef83 b1be 0732 b13d
00000140: b711 66bd 458a fcbd 6947 99be 2cb3 85bd
00000150: 4d56 5abe 58f8 c6be 34e7 69be a970 0e3f
00000160: 43bd bc3e 6a93 b6bd 1cc7 cd3d a92a 66be
00000170: 89a5 b4be 62ce da3e 26ae c0be 75f5 4c3c
00000180: 4f3c b73e 1147 cfbe f16a 04bd 02d4 9b3e
00000190: 5461 4b3e 8a5e 1ebe 2b61 abbd 6574 6bbe
000001a0: 12af 4dbd 1eeb 16be 384c 8d3e ced0 b6be
000001b0: 07eb d6bc 4405 27be f85a afbe bcbb 2d3e
000001c0: 7749 eebd 10fb 983e 11a8 0e3f 7388 36bf
000001d0: 57ef a5be 2694 4cbe 48fb bbbe 8913 6abe
000001e0: ffa5 a33d 02e8 1fbf fd64 543e b662 713e
000001f0: b4bd 2fbf c6e7 de3b 3b9f 9cbd c588 533e
00000200: 3b7d 6d3e bf96 4c3e 5a24 c2be 3736 b83e
00000210: f4ac 673e 4e65 2bbe 5290 42bc bf0b 80be
00000220: ca47 edbe 45a5 0fbf af4d 40be 50f5 cebe
00000230: 6e87 44be 9e32 283f a932 6a3d 1d5d 35bd
00000240: 8dc3 ddbe 3775 1fbd 556b 12bf 55a6 b33e
00000250: 846f 9fbe 8ca9 febd 2c8b 4d3e e7c8 9abe
00000260: abb1 bfbe ac7d 0fbf f453 5ebe 36d4 ed3e
00000270: 374c 8cbe 587d 8e3d a60c f83e 3109 533e
00000280: 5b94 af3e 1d68 663d 22a1 923e ce06 27be
00000290: 7b17 eebc cfa8 a2be 5bb4 2e3e 72cf a3bd
000002a0: 0743 26be bc81 c9be f27d bb3e 7677 213e
000002b0: 2748 5c3e 611e e93e 309f 7dbe 9cec b6be
000002c0: 9afd 40be 2380 1abe 349d f93e 5b5c 10be
000002d0: 4862 973e 9cdd 7e3d 5106 13bf c65b 09bd
000002e0: 5724 5bbe 5ee1 d3be 9477 bb3d 0408 103e
000002f0: 1e37 9cbe 9b4b 8e3e a833 1fbf e99b b5be
00000300: 97b3 ebbd 5e96 1b3f 85ef 6dbe c152 6f3e
00000310: 8182 0b38 553d afbe ca13 05bf 63d1 e5bd
00000320: 1e9b a93e 2bc4 81be e687 f1be 43f3 663e
00000330: d8fe 973e c0a6 e4bd 4b10 e63e adc3 adbe
00000340: 8d0b 2dbd ee49 c7be 74bb b4be 73f9 15bf
00000350: d8db d4be 2388 33be 3676 e33e 8ef7 cbbe
00000360: 71fe 20bf 1808 a3be b612 f33d 9326 c8be
00000370: 3266 70be 629d 11bd f43a efbe b390 99be
00000380: 7f2c 06bf b1ba 033e 8aca 8abe 20ac 2c3e
00000390: 914f 933e 9eff 01bf c383 98be d81c 0f3e
000003a0: 89a9 a5be c8ec a63e 4490 043f 9905 adbe
000003b0: f027 2b3e 6aab 93be d8ab 023e 097a 10bf
000003c0: b1de 98be ae52 57be c8b3 b2be b740 a83c
000003d0: 20e5 babe fd33 2dbe 183f d03e 96e7 cc3e
000003e0: 01f7 c83e 5f09 37be 0d0c d23d 221c eebe
000003f0: 5874 2ebe 62ee 7abe ac55 00be 634b a5be

net.net.2.weight f4 [256, 256]
0.10461281 0.27765942 -0.02379645 -0.017289171 0.1443338 -0.10871638 -0.051756985 -0.073982425
0.09115189 0.13992919 0.037657008 -0.15692216 0.10272837 -0.09623064 0.019026153 -0.15705626
-0.12096215 0.17387347 -0.0054825502 0.18348786 0.02864912 0.058787216 -0.21405849 -0.06800329
-0.040628057 0.14468877 0.23413919 0.0039774356 -0.22807084 -0.017758489 0.113275625 0.052039895
0.049824234 0.035874203 -0.061365776 0.11619101 -0.14123666 0.11900719 0.043541845 0.25967768
-0.038529962 -0.06402593 -0.14113846 -0.22403586 -0.08838071 -0.31889835 -0.14534813 0.021320844
0.11081809 -0.04487254 -0.23107304 0.07588378 0.21458991 -0.039326478 0.053771254 -0.14815946
0.080077246 -0.045599625 0.021084828 0.062770925 0.11318417 -0.029363835 0.09119106 -0.12105333
-0.045509636 0.19644676 -0.015227664 -0.07316386 0.0016900639 -0.13047785 -0.0841194 -0.07002465
-0.091630116 -0.10233326 -0.1989259 -0.15502678 -0.02860028 -0.22235943 0.015525374 0.013843446
-0.028307438 -0.25483894 0.082401395 0.026689645 -0.0025908356 -0.002234873 -0.035058673 0.037582144
-0.1929687 0.1070308 -0.03814561 0.009992806 -0.14054474 0.08785087 0.09707344 -0.19353646
-0.060243934 -0.099440366 -0.07425967 -0.2378241 0.107469015 0.017079283 -0.098468184 0.19798468
-0.54297817 0.23525025 0.019632552 -0.019426346 0.12546672 0.041992832 0.06813594 0.18983568
0.15179378 -0.026622118 -0.10889208 -0.11413886 -0.18306516 0.07300304 -0.1779655 0.059676435
0.090425104 -0.31572312 -0.33510873 -0.07221373 0.14875683 0.12514603 0.04060965 -0.051582184
-0.0136217745 -0.10533738 -0.20456707 -0.009720554 -0.026643286 -0.03302767 -0.12028186 -0.24615446
-0.110279955 -0.04705287 -0.12824757 -0.1835415 0.08346164 -0.046000313 -0.08262706 0.14569601
-0.028056376 0.045227986 0.014594516 -0.118723184 -0.18968043 0.0011541743 -0.13427949 0.1553631
0.041802045 -0.08824733 -0.17069899 -0.11708271 0.059939597 -0.09027622 -0.06639524 -0.013616447
-0.21181697 -0.08004002 0.119998306 -0.08823633 0.0054422906 -0.12521914 0.16063248 0.1084925
-0.27648726 -0.15948288 0.01691935 0.30257347 -0.10008278 -0.13403435 0.18432686 0.18171409
0.052987125 -0.22470787 0.08571557 -0.05885386 0.060433593 -0.07232624 0.2090593 0.23184107
0.093559794 0.04518347 0.074070565 0.03217739 -0.20863594 -0.15699463 -0.26932952 -0.067851506
-0.3838651 -0.09646058 -0.11617574 0.03243487 -0.104645915 0.10832032 0.15673943 0.024312716
-0.32170957 0.011935251 0.17543675 0.072424866 -0.20361432 -0.31315604 0.04046694 0.21171486
-0.09930068 0.0029586677 -0.10135352 -0.21426058 0.019060528 -0.17284599 -0.06606989 0.01167743
-0.045465097 0.06755926 0.012957539 -0.06465173 0.05077093 0.3478705 -0.0130236475 0.05028451
-0.14587207 -0.27764386 -0.0062899506 -0.115885295 0.01374359 0.06627889 0.07883944 -0.06214922
0.12373115 -0.1358409 0.072815344 0.16592404 -0.13441098 0.15172955 0.09977949 -0.0020461958
-0.047830645 0.1351972 0.05056473 -0.017595785 -0.16525516 0.0121437535 -0.043172345 -0.3530603
-0.31817502 0.10426026 -0.152196 0.02568816 -0.1343359 0.07269237 -0.18198238 0.098789655
00000000: 3e3f d63d 6029 8e3e c6f0 c2bc 05a2 8dbc
00000010: 3dcc 133e b2a6 debd 22ff 53bd 1984 97bd
00000020: d8ad ba3d 9949 0f3e 3c3e 1a3d 34b0 20be
00000030: 4063 d23d 9214 c5bd bcdc 9b3c 5bd3 20be
00000040: 01bb f7bd e30b 323e f7a6 b3bb 3ee4 3b3e
00000050: 8fb1 ea3c ddca 703d 2632 5bbe 4f45 8bbd
00000060: 9b69 26bd 4b29 143e 2fc2 6f3e 2655 823b
00000070: 678b 69be 407a 91bc 0dfd e73d c927 553d
00000080: 7f14 4c3d d4f0 123d ae5a 7bbd 8df5 ed3d
00000090: 58a0 10be 0bba f33d ef58 323d 79f4 843e
000000a0: 98d1 1dbd 0720 83bd 9a86 10be a869 65be
000000b0: f200 b5bd a546 a3be 24d6 14be 0da9 ae3c
000000c0: 98f4 e23d 45cc 37bd 699e 6cbe f568 9b3d
000000d0: 75bd 5b3e cd14 21bd 3f3f 5c3d 1db7 17be
000000e0: 8aff a33d acc6 3abd 17ba ac3c 0b8e 803d
000000f0: 1acd e73d 6d8c f0bc 61c2 ba3d cfea f7bd
00000100: 5068 3abd 5729 493e 747d 79bc efd6 95bd
00000110: 2285 dd3a fc9b 05be cb46 acbd 1569 8fbd
00000120: 92a8 bbbd 1a94 d1bd 3bb3 4bbe 57bf 1ebe
00000130: 224b eabc 31b2 63be 235e 7e3c 9fcf 623c
00000140: 00e5 e7bc 407a 82be 10c2 a83d 3ea4 da3c
00000150: 02cb 29bb f276 12bb af99 0fbd bcef 193d
00000160: 9699 45be f732 db3d 923e 1cbd deb8 233c
00000170: f6ea 0fbe 28eb b33d 71ce c63d 6c2e 46be
00000180: 58c2 76bd 64a7 cbbd 7415 98bd 2988 73be
00000190: b718 dc3d dae9 8b3c b0a9 c9bd 7fbc 4a3e
000001a0: 9e00 0bbf 71e5 703e 72d4 a03c 0024 9fbc
000001b0: 597a 003e ad00 2c3d db8a 8b3d 4964 423e
000001c0: d46f 1b3e a116 dabc d002 dfbd a2c1 e9bd
000001d0: 6f75 3bbe 9e82 953d 973c 36be 476f 743d
000001e0: cc30 b93d 76a6 a1be 5f93 abbe cbe4 93bd
000001f0: b653 183e 4826 003e 4e56 263d d747 53bd
00000200: dd2d 5fbc 20bb d7bd 087a 51be f542 1fbc
00000210: 0543 dabc 0648 07bd 5656 f6bd ea0f 7cbe
00000220: 75da e1bd 83ba 40bd 5553 03be 4ef2 3bbe
00000230: f0ed aa3d d36a 3cbd 6038 a9bd 5631 153e
00000240: 7cd6 e5bc fb40 393d d61d 6f3c 2425 f3bd
00000250: 963b 42be aa47 973a 9080 09be 8117 1f3e
00000260: 9f38 2b3d 04bb b4bd b7cb 2ebe 0fc9 efbd
00000270: 3983 753d bde2 b8bd 3afa 87bd 8517 5fbc
00000280: 8ce6 58be 06ec a3bd acc1 f53d 40b5 b4bd
00000290: 3e55 b23b 7239 00be d77c 243e 5131 de3d
000002a0: bd8f 8dbe 7b4f 23be 739a 8a3c e9ea 9a3e
000002b0: 33f8 ccbd 4d40 09be 2ec0 3c3e 4213 3a3e
000002c0: 0709 593d d219 66be a58b af3d bf10 71bd
000002d0: 3789 773d c81f 94bd a413 563e bf67 6d3e
000002e0: 479c bf3d 4d12 393d 4fb2 973d 70cc 033d
000002f0: a9a4 55be 33c3 20be 8fe5 89be bbf5 8abd
00000300: f789 c4be 208d c5bd 8ced edbd 6dda 043d
00000310: 9950 d6bd 0bd7 dd3d 4d80 203e 762b c73c
00000320: 1eb7 a4be 128c 433c b1a5 333e 7d53 943d
00000330: 4680 50be fd55 a0be a9c0 253d c8cb 583e
00000340: 285e cbbd 35e6 413b 6f92 cfbd 2067 5bbe
00000350: d324 9c3c 8afe 30be a74f 87bd b152 3f3c
00000360: 9c39 3abd 825c 8a3d dc4b 543c 2068 84bd
00000370: 2ef5 4f3d 151c b23e 2361 55bc 21f7 4d3d
00000380: 7d5f 15be 5627 8ebe ee1b cebb 4555 edbd
00000390: cb2c 613c 3abd 873d 9376 a13d 2e90 7ebd
000003a0: c266 fd3d e019 0bbe 3620 953d fee7 293e
000003b0: 08a3 09be fe5e 1b3e 3059 cc3d 7819 06bb
000003c0: 11ea 43bd 2371 0a3e f61c 4f3d 0925 90bc
000003d0: a638 29be 98f6 463c 7cd5 30bd 52c4 b4be
000003e0: d6e7 a2be 6786 d53d 45d9 1bbe fa6f d23c
000003f0: 5a8f 09be bddf 943d 9759 3abe 3b52 ca3d
