generated_data/bc_antmaze_umaze_v2_seed1.pt (torch, 305084 bytes, 6 tensors)

net.0.weight f4 [256, 29]
000000 58 53 de bd 95 a6 0c be f2 2c 6a bd 7f 34 39 3d
       -0.1085574 -0.13735421 -0.05717177 0.04521608
000010 47 3b ab be 83 53 01 3e 16 1a 7d 3c 63 eb 6f 3e
       -0.33443663 0.12629513 0.015448114 0.23429637
000020 9e fb a3 3d a3 a4 aa bd 90 ae da 3d ac 6e 59 bc
       0.080069765 -0.08332183 0.106778264 -0.013271015
000030 1d 05 79 3d 8d 1d 1a 3e 16 29 53 be 55 a6 eb 3c
       0.060795892 0.15050335 -0.20621142 0.028765837
000040 a4 f1 64 3d 01 35 21 3c 06 d5 36 3d bd 75 11 bd
       0.05589451 0.009839297 0.04463675 -0.035512675
000050 06 84 0b bd 30 eb 92 bd 4f 7b 44 bc 72 8f 95 bc
       -0.034061454 -0.07173765 -0.01199229 -0.018256877
000060 75 d9 d0 bc e8 d3 2b 3c cc 8b e9 3d 91 83 a5 3e
       -0.025494317 0.010487534 0.11403617 0.3232694
000070 95 13 00 be 5b e2 e5 3d 93 45 ae 3d 57 af 58 3e
       -0.1250747 0.112248145 0.08509364 0.21160637
000080 37 ac f6 3e 1c db f3 bc af f2 18 bf 69 4a 44 be
       0.48178264 -0.029767565 -0.59745306 -0.1916901
000090 96 62 56 3e 84 6f f9 bc bd 24 d4 3b c1 96 91 bd
       0.20936045 -0.030448683 0.006474106 -0.07108832
0000a0 b9 a3 4b 3e e7 83 1c bd b4 b4 15 3e 1e 8a b6 3c
       0.19886674 -0.03821173 0.14619714 0.022282656
0000b0 cb 7c 83 bd d1 06 5a 3d e3 d3 00 ba b1 8f 32 3e
       -0.06420287 0.053229157 -0.0004914386 0.17437626
0000c0 03 c2 29 be a7 24 1d bd b0 c8 24 be 3b 73 bf bd
       -0.16577916 -0.038365033 -0.16092181 -0.0934815
0000d0 81 a3 f1 3c ac 05 a3 3d e5 a3 8b 3d 6e 2f 3f 3d
       0.02949691 0.07960066 0.0681837 0.04667609
0000e0 c2 ad 0c bb d8 9f ad bd 69 12 62 3e f3 b6 aa 3e
       -0.0021465872 -0.084777534 0.22077335 0.33342704
0000f0 2e eb f5 bd c3 a2 54 3e 3e 08 9d 3e 9c f1 ab 3e
       -0.120077476 0.20765214 0.3067035 0.3358277
000100 69 65 4e be 36 c2 dd 3d 4a 2e 43 bd d4 51 a6 bd
       -0.20155872 0.108280584 -0.047651567 -0.08121076
000110 2e 7f 3f be 13 d8 1b be 34 c5 20 3e 9d ac 3a bc
       -0.18700859 -0.15219145 0.15700227 -0.011393693
000120 e9 f6 f7 3d e9 38 0f 3e a8 30 b0 bc 94 ef 6e bd
       0.12107641 0.13986553 -0.021507576 -0.05833395
000130 68 d3 0a 3e 72 16 cb bc 82 74 f7 bd 64 cf 89 3e
       0.13557208 -0.024790976 -0.12082769 0.2691604
000140 d6 71 53 be 45 9a 45 be 4b 0d 5d 3c c5 c2 4b be
       -0.20648894 -0.1929713 0.013491939 -0.19898517
000150 b1 09 2c 3e 6c c8 7d bc 87 40 69 bd 68 8d 89 bd
       0.16800572 -0.015489679 -0.056946304 -0.06716424
000160 09 c6 20 be e4 7d c4 bc a9 49 38 3e 10 0e 9b be
       -0.15700544 -0.02398581 0.17996849 -0.30284166
000170 cd a5 96 b9 19 f3 74 3c 7d 1d 60 be be 28 c3 bd
       -0.0002873376 0.014950537 -0.21886249 -0.09529255
000180 04 2a c6 3c fc b3 25 3e 9d 1e b3 bd 31 29 a3 3d
       0.024189956 0.1618194 -0.087460734 0.07966841
000190 de 84 83 3d 9f 55 af 3c 3f 77 45 3e 27 1f 02 3e
       0.06421827 0.021403132 0.1928377 0.12707196
0001a0 ca 44 59 be 9b 47 58 be 40 98 5f 3e 6a e8 01 3e
       -0.21217647 -0.21121065 0.21835423 0.12686315
0001b0 b9 86 99 3b 53 f0 21 3c 5a c6 49 3e d0 43 32 3e
       0.0046852496 0.009883958 0.19704571 0.17408681
0001c0 69 cc 49 3e ac a9 90 3d e8 9f 0e be fd 93 e4 3d
       0.19706883 0.07063612 -0.13928187 0.11161039
0001d0 05 02 b4 3e 78 03 89 3e 35 6c 8c be 45 33 c5 be
       0.3515779 0.2676046 -0.27426305 -0.38515678
0001e0 2e cd 60 3d 29 b7 02 be b6 af 9b 3e 30 41 20 bd
       0.054883175 -0.12765183 0.30407494 -0.039124668
0001f0 06 0b f4 3a 41 56 3c be c6 de a1 be 0c 25 fa 3b
       0.0018619008 -0.18392278 -0.31615275 0.007633811
000200 cf e6 8f 3d f3 cd 63 3e b8 6b 42 3b 09 46 19 3d
       0.07026445 0.22246532 0.0029666256 0.037420306
000210 54 41 28 3d 28 40 d0 3d e0 ae 05 3e 33 46 41 3d
       0.041077927 0.10168487 0.13054991 0.047186088
000220 3d 21 9d 3c 82 52 11 3e 9c c0 d0 bd ed ef 18 bd
       0.019180888 0.1419163 -0.10192987 -0.037338186
000230 b9 e5 20 be d1 90 ca bc 04 bd bd bd 8f 34 74 3d
       -0.15712632 -0.024727257 -0.092645675 0.059620436
000240 e4 26 dc 3c 51 82 17 3c e1 cd af 3b 64 f8 82 3e
       0.026874013 0.009247378 0.005365119 0.25580132
000250 91 0b 7e 3e 95 4f fa 3e a5 bb 39 be 34 1e 91 3e
       0.248091 0.4888884 -0.18137987 0.28343356
000260 fc af 03 3c 13 e1 0b bd 6c b8 c1 be 3a cd 3a bd
       0.008037563 -0.034150194 -0.37836015 -0.045605876
000270 80 ac 18 be c2 20 94 ba d8 6f 49 3e 9e e1 aa 3c
       -0.14909554 -0.0011301266 0.19671571 0.020859536
000280 fe 64 89 bd cc b4 58 3d 86 6f 50 bd a6 e9 51 3e
       -0.06708716 0.052906796 -0.050887607 0.20499286
000290 b7 9f 4a bd 11 83 d0 3d 1c 2d 98 bd ee 9c b6 bd
       -0.049468722 0.10181249 -0.07430479 -0.08916651
0002a0 c0 88 ec bd e5 02 64 bd 49 3a 90 3c c5 6a de 3c
       -0.115495205 -0.055666823 0.017605918 0.027150521
0002b0 b7 47 45 3d 82 e2 e5 3d 92 8d 87 3e 16 09 0a 3f
       0.048164096 0.112248436 0.26475197 0.53920114
0002c0 e5 f1 7d 3e cc 4e 0d be 21 54 a1 be de 34 29 3d
       0.24799307 -0.1379959 -0.31509498 0.041310184
0002d0 a7 2e a5 3d 5d c5 71 be f9 ef 68 be 4b 00 ff bb
       0.08065539 -0.23610444 -0.22747792 -0.0077820173
0002e0 96 ca f2 bd e5 7f 5c 3e 9c d2 2b be cf 45 31 be
       -0.118550465 0.21533163 -0.1677956 -0.17311786
0002f0 82 de d9 3d a5 e9 60 be 7c be 9e bc 36 32 60 bd
       0.10638143 -0.21964128 -0.01937794 -0.054735385
000300 92 b4 00 be 04 06 d9 3d c1 ad ba 3d 30 c3 39 bd
       -0.12568882 0.105968505 0.09115172 -0.04535216
000310 45 78 ac 3d 32 31 03 3e 19 20 c8 3d 00 56 e6 b9
       0.08421377 0.12811735 0.09771747 -0.00043933094
000320 27 ba ea 3d 4d d7 31 be 77 e6 7a bd a9 3a 31 bc
       0.11461287 -0.17367287 -0.061254945 -0.010817208
000330 4c c9 d8 3b cc 2f 29 be 81 52 0a 3d ed b4 8d 3d
       0.0066157933 -0.1652214 0.033770088 0.069192745
000340 6f 3d 0f 3e cc 54 2c 3d 06 3e 2e 3e 7a 8f ff 3d
       0.13988279 0.042073056 0.17015848 0.12478538
000350 1d 03 68 be c8 64 14 3e 8c 6d 01 3e d5 1b 05 3d
       -0.22657438 0.1449157 0.12639445 0.032497246
000360 14 92 9c 3e 73 57 63 be 3f 05 c5 bd 5d 63 bb 3d
       0.305802 -0.22201328 -0.09620141 0.091498114
000370 49 15 9e be 50 33 ee 3d e5 87 44 be f8 7c 01 bd
       -0.30875614 0.11630881 -0.19192465 -0.03161332
000380 33 18 55 3c 17 32 55 be bf df bd bc cb 4e 17 3d
       0.013006258 -0.20819889 -0.02317798 0.036940377
000390 f0 5f 2c 3e 06 41 4d 3e 02 c8 19 bd d3 20 de ba
       0.16833472 0.20044336 -0.037544258 -0.0016947038
0003a0 df a7 ea 3b 26 16 3b be 07 31 01 be 28 ce 20 be
       0.007161125 -0.18270168 -0.12616359 -0.15703642
0003b0 3a 2a 10 be c3 10 81 3e c3 95 83 3e 92 ff 62 bd
       -0.14078608 0.252081 0.25700197 -0.055419512
0003c0 c6 0b 70 be 5a 2f 12 bc 22 6f 6f 3d 4c 12 8e 3d
       -0.23441991 -0.008922422 0.058455594 0.069370836
0003d0 1a 3b 94 bb bb ba a8 bd f7 a8 4e be 2a 25 1f be
       -0.004523647 -0.08238741 -0.20181642 -0.1554152
0003e0 86 6e 83 be 34 5d 3a 3e d0 c7 0b 3e 84 33 36 bb
       -0.2567026 0.18199617 0.13650441 -0.0027801702
0003f0 55 58 70 3d 14 ce 4a bc fe 42 10 bd cf 55 b7 bd
       0.05867799 -0.012378234 -0.03522014 -0.089519136

net.0.bias f4 [256]
000000 cc cf 75 be 18 c3 9d 3d 25 b2 28 3e 3f 4d 54 3d
       -0.2400505 0.07703227 0.16474207 0.05183148
000010 e4 7f 5d 3e 00 cd 49 be 9c 56 05 be 24 4b 91 be
       0.21630818 -0.19707108 -0.1302132 -0.2837764
000020 02 bd 1d 3e 22 e5 3f be 83 b3 37 be 01 16 a4 3c
       0.15404132 -0.18739751 -0.17939572 0.020030024
000030 21 17 78 be fd 28 d6 bd 0a 16 d9 3d c7 6f d6 3d
       -0.24227573 -0.10457037 0.10599907 0.104705386
000040 00 75 a3 3d f5 bb 75 be 59 fe 30 be 9d 04 79 be
       0.079813 -0.23997481 -0.17284526 -0.24318166
000050 23 47 8f bd 44 44 96 bd eb c2 11 be a3 1a 42 be
       -0.0699599 -0.073372394 -0.14234512 -0.18955474
000060 ac d2 46 3e eb eb b4 be b7 a1 a3 3e d3 72 c9 3d
       0.19416302 -0.3533624 0.31959316 0.09836354
000070 8d bb cf 3d 4c 8c cf bd 59 be 57 3d 51 93 3a 3d
       0.10143194 -0.101341814 0.052671764 0.045550648
000080 e2 77 71 be a5 91 3d be 97 80 44 3e 40 49 44 be
       -0.23580888 -0.1851259 0.19189678 -0.19168568
000090 55 84 7f 3d ca c5 bf 3d 0c fd 30 be 38 ae 2c be
       0.06238206 0.09363897 -0.1728403 -0.16863334
0000a0 8c 62 2f bd 71 47 fe 3d 8b c4 a4 3d d5 17 67 3e
       -0.04281859 0.1241597 0.080453 0.22567685
0000b0 d5 87 c4 be b3 75 2d be 5e ce 57 be 06 59 32 3e
       -0.38384882 -0.1693943 -0.21074817 0.17416772
0000c0 38 69 98 be 30 4a 10 3d 11 6d 74 bd 6e 9f dd bd
       -0.29767776 0.035227 -0.059674326 -0.108214244
0000d0 97 16 2a be 16 b0 16 3e 67 9d 86 be 52 60 ce 3d
       -0.1661018 0.14715609 -0.26291963 0.100769654
0000e0 5a 2f ad bd 18 5d 7d be fd dc 6e bc ee 8b df bd
       -0.08456297 -0.24742544 -0.014579055 -0.10915361
0000f0 06 2a 52 3e ea b0 1d be 45 ec b8 3d 22 55 40 3e
       0.20523843 -0.15399519 0.0902944 0.18782476
000100 c7 93 16 be de e7 48 3e 75 3e 58 3c c9 ab 27 3c
       -0.1470481 0.196197 0.013198485 0.010233828
000110 cb 3e d3 bd 16 3e 72 be b8 42 d9 3b 5e 9c 27 be
       -0.10314711 -0.23656496 0.006630268 -0.16368243
000120 98 49 d8 bd 80 45 ee bb d2 44 2a 3c 0f 36 d3 3c
       -0.10560912 -0.0072714686 0.010392385 0.025782613
000130 16 04 0e be 26 44 68 3c 0b ec 13 be 50 de 4f be
       -0.13868746 0.014176404 -0.14445512 -0.20299649
000140 d8 1b 92 3e 31 fb 5c 3e 28 42 00 bb d4 cf 27 bd
       0.28536868 0.21580197 -0.0019570682 -0.040969685
000150 78 f1 42 be d9 e0 5d 3e fd 01 74 bc 5e 25 e0 bd
       -0.19037426 0.21667804 -0.014893052 -0.10944627
000160 c9 d9 d8 3d 2c 2e 92 bd 3d 60 29 3e ab 0a 26 3e
       0.10588414 -0.07137713 0.16540618 0.16215007
000170 36 2c c4 3d 9c b0 35 be 3f c9 a3 bd c2 47 16 3e
       0.09578745 -0.17743152 -0.07997369 0.14675811
000180 08 03 82 be ce 12 d9 bd 7b 82 e7 bd 65 93 1b be
       -0.25392938 -0.1059929 -0.11304184 -0.15192945
000190 ca ce fc 3d 2c 6c ea bd 1b b0 be 3d 9c 7e 65 3c
       0.123441294 -0.114464134 0.09310933 0.014007237
0001a0 61 be 20 be 35 40 13 3e 31 b3 05 be 99 5d 38 3d
       -0.15697624 0.14379962 -0.13056637 0.045011137
0001b0 d4 70 3b bc 9d 4e 58 3d e5 28 d9 bd 5c b0 27 be
       -0.011440475 0.052809346 -0.10603503 -0.1637587
0001c0 ed b4 bd 3d f4 65 ef 3c 44 4b a7 3d ca 04 cd bd
       0.092630245 0.02922342 0.08168653 -0.10010679
0001d0 d7 87 58 be f7 f4 b5 3b 1c ae 66 be 79 79 85 be
       -0.21145569 0.0055528837 -0.22527355 -0.2606924
0001e0 4e 5a db bd 1b f3 f8 3d 97 cb 26 be 57 5d 15 3d
       -0.107105836 0.12155744 -0.16288601 0.03646597
0001f0 06 07 6f be d3 2c ed 3d ac 35 a1 bd b5 22 92 be
       -0.23342523 0.11580815 -0.07871565 -0.28542104
000200 ba 68 a7 3d a0 24 1a be 42 c2 54 3d 46 30 f9 3c
       0.08174272 -0.15053034 0.05194307 0.030418526
000210 bb de 99 3c 80 0b 37 3e 0d 1d 8c be cb a5 29 3e
       0.018782964 0.1787548 -0.27365914 0.16567151
000220 d6 af 60 bd 51 68 2a be 31 37 f9 3d 01 cd 67 be
       -0.05485519 -0.16641356 0.1216873 -0.22636797
000230 e0 a1 f7 bd ce a4 66 be 54 fe 8c be 1b dd b6 3d
       -0.12091422 -0.22523805 -0.27537787 0.08928891
000240 21 fe 60 be d5 39 06 3e 5b e6 45 3e 43 06 b2 3d
       -0.21971942 0.13107999 0.19326155 0.086926006
000250 f5 5f 97 bd e6 43 9b bd 49 6a 4a bd d6 cb 87 bd
       -0.07391349 -0.0758131 -0.049417768 -0.066306755
000260 9e fe a5 3d ab 28 81 3d 55 42 5d 3d d8 d1 62 3e
       0.08105205 0.06306585 0.054018337 0.22150362
000270 85 b9 30 be 4a 2a f5 bc 48 8c 4b 3e 0a db 16 be
       -0.1725827 -0.029927392 0.19877732 -0.14731994
000280 ef 7b 94 bd f2 0b 00 3e 8d 20 97 3d 68 3b 31 3e
       -0.07250201 0.12504557 0.073792554 0.17307818
000290 fe 2c 09 be 30 0e a9 be cb 0d 8a be 77 d1 69 be
       -0.1339607 -0.33018637 -0.26963648 -0.22833811
0002a0 66 d0 53 be c5 c8 02 3c 5f 2b 3d bd 85 9c a7 3e
       -0.20684966 0.0079824375 -0.04618394 0.32736602
0002b0 fb 68 fe bd 73 1d b8 bc 77 03 82 be 08 be e3 3c
       -0.12422367 -0.02247498 -0.25393268 0.027800575
0002c0 77 13 14 3e bc 6c 0f be d7 ee cd bd 70 ad 21 3e
       0.1446055 -0.14006323 -0.10055321 0.15788817
0002d0 7f 82 9e 3d 8d c1 5c 3e c8 11 aa be db be a7 be
       0.07739734 0.21558209 -0.3321669 -0.327628
0002e0 39 97 50 be 38 3f 86 bd c7 15 3f bd 9e 5b 55 be
       -0.20370187 -0.06555027 -0.046651628 -0.2083573
0002f0 e0 4d c6 3d a1 be ae 3a 1f b6 65 be 54 31 11 bc
       0.09682822 0.0013331958 -0.22432755 -0.008861858
000300 e8 f8 91 3c 43 75 69 3d 6d 4e ec 3d 30 d0 77 be
       0.017818883 0.056996595 0.11538396 -0.24200511
000310 2d 5a 04 be b5 9a 49 bd 0b 71 8e bd 68 67 a9 be
       -0.12925024 -0.049219806 -0.06955155 -0.33086705
000320 d1 d4 23 bd 1f ec c0 bd ce f4 4b 3c ab 46 05 3d
       -0.03999788 -0.094200365 0.012448503 0.032538097
000330 9a 2c fb 3c 67 6c 3e be a9 8a 4d be f0 1a 4c 3d
       0.030660916 -0.1859604 -0.20072426 0.049830377
000340 54 6a 68 3d 77 84 a2 be 63 5d 03 be d5 20 7b 3d
       0.056742027 -0.31741688 -0.12828593 0.061310608
000350 84 59 32 be c4 fa da bd 91 c2 39 3d 91 f4 a0 bd
       -0.1741696 -0.10692361 0.04535157 -0.07859147
000360 a4 f4 75 3e 8c f3 a1 3e 9d 5c 21 3d 4a 2f 58 be
       0.24019104 0.31631124 0.039394964 -0.2111179
000370 ae 6d 6d be 48 10 ac bd 35 d9 e8 bd 94 9c 84 3e
       -0.2318637 -0.08401543 -0.11369554 0.2590071
000380 bd e9 fb bd 15 cd cc bc 91 ab 4a bd b6 6c fd bc
       -0.123004414 -0.025000134 -0.049480025 -0.030935626
000390 28 32 b0 3b 23 3c 51 3e 4a dc f2 bd 8b 29 0d be
       0.005377073 0.20433097 -0.11858423 -0.13785379
0003a0 18 fb 0a 3e e3 fb 92 bd 14 bb 72 bc 44 12 89 bc
       0.13572347 -0.0717695 -0.014815111 -0.016732343
0003b0 c3 54 80 bd ea f2 01 be 00 d3 42 3d 6d ea ac bd
       -0.06266167 -0.1269032 0.047564507 -0.08443151
0003c0 6b 95 e9 bd eb 9a a6 3d ce e5 93 be c2 8f 81 be
       -0.11405452 0.08135017 -0.28886265 -0.2530499
0003d0 8d 86 70 bd 48 77 53 be 47 06 3c be da 46 1d be
       -0.058722068 -0.20650971 -0.1836177 -0.15359059
0003e0 a5 72 8f be 39 fd 2c 3b ab a8 d4 be 07 42 20 be
       -0.28017154 0.002639605 -0.41534933 -0.15650187
0003f0 c8 c2 45 be 91 ef bc 3d 3e 63 9e 3e 65 07 d9 bc
       -0.19312584 0.09225381 0.3093509 -0.026492784

net.2.weight f4 [256, 256]
000000 84 e8 33 3d 3c 9c 21 3e 31 1c 4a bc 8f d3 2a 3d
       0.043922916 0.15782255 -0.012335823 0.041705664
000010 cb e0 e4 bb fb e8 7f 3c 70 8b 0b bd 42 4a 69 bd
       -0.006984805 0.015619512 -0.034068525 -0.056955583
000020 8c 86 9f 3d 2b 50 97 3d 7a ae ac bd 77 2a 28 bd
       0.07789335 0.07388338 -0.08431716 -0.041056123
000030 84 76 99 bd 6e 94 c3 3d 34 7c 32 3d 9f 8e 75 3d
       -0.07493308 0.09549795 0.04357548 0.059950467
000040 94 86 b5 3d a0 9f d3 3c d9 82 bf bc a5 38 af 3b
       0.08863559 0.025832951 -0.023377823 0.0053473287
000050 23 5d c3 bc 8d 45 f2 bc bb 15 06 3d 43 dd fd bd
       -0.023848122 -0.02957418 0.032735568 -0.12395718
000060 c5 72 c1 bc b9 e9 af bc 80 bf 91 3c 26 d2 b7 3d
       -0.023614297 -0.021473752 0.01779151 0.089756295
000070 c4 b0 c9 bd a4 84 41 bd 82 22 2f 3d 0c 6f 1d be
       -0.098481685 -0.047245637 0.04275752 -0.15374392
000080 b6 9d 3b 3d 7c 9b 08 bd fb 31 a6 bc 84 7d 5c 3c
       0.0458047 -0.033351406 -0.020287504 0.01345766
000090 b4 18 4f 3d e3 e1 1d 3d a0 6d 6d bd 34 44 e1 bd
       0.050560668 0.0385455 -0.057965875 -0.10999337
0000a0 30 b9 a2 3c 34 fd 47 3c 32 92 c7 bd e6 ef 13 bd
       0.019863695 0.012206364 -0.097446814 -0.036117457
0000b0 79 bb 35 be 13 34 07 bd ae d0 8c bc 20 19 63 bc
       -0.17747296 -0.033008646 -0.01718935 -0.013860971
0000c0 94 72 82 3d da 7b 7f bc f4 5d d9 3d fd fa 9b bc
       0.0636951 -0.015593493 0.10613623 -0.019040579
0000d0 c5 75 bf bb 0f 17 91 3c 39 f2 97 3d cb 8a 95 3d
       -0.0058428966 0.01771119 0.07419247 0.07301863
0000e0 36 1c fd 3c ba f8 0b 3e 67 4c c5 3c 62 fb 79 3c
       0.030897241 0.136691 0.024084283 0.015257688
0000f0 a0 19 81 bd 14 6b 8e bd 5d 93 72 3c 20 37 11 3e
       -0.06303716 -0.06954017 0.014805642 0.14181185
000100 26 5b 9b bc 02 0d 00 be 8f 53 51 3d 32 7e 05 3d
       -0.018964361 -0.12504962 0.05110508 0.032591052
000110 e0 be 2b 3c 93 a2 2c 3d cf 5e 3a 3d 31 41 cb bd
       0.01048252 0.04214723 0.045500573 -0.09924544
000120 69 11 cb bd 12 b4 0e bc 90 bf f9 3c a2 6c 7c 3d
       -0.0991543 -0.008709924 0.030486852 0.061627038
000130 b7 f8 5d bd 39 29 8f 3d 03 c8 d5 bd d6 49 1c bc
       -0.05419227 0.069902845 -0.1043854 -0.009539088
000140 d1 73 eb 3d 31 a5 02 3d 9e 65 f1 bb ba 97 96 3b
       0.114966996 0.03189582 -0.00736685 0.004595724
000150 34 d5 c3 3d 73 e8 aa bd 98 25 6f 3d b3 49 3f 39
       0.0956215 -0.083451174 0.05838546 0.00018242635
000160 28 f4 ba bc 02 4f e6 bc a7 fc 05 bd 80 51 50 bd
       -0.0228215 -0.028113846 -0.03271165 -0.050858974
000170 f5 85 b5 bc 38 a6 6a bd 59 ab 98 3d 12 df fe 3d
       -0.022158602 -0.057287425 0.07454557 0.12444891
000180 b7 b2 65 3d 56 77 07 3d eb df 61 3d 20 3c a0 3a
       0.05607864 0.033072792 0.055145185 0.001222495
000190 bc 91 10 3d 0a 2d 89 3c b0 2c bf 3d c1 b1 93 3d
       0.035295233 0.01674511 0.09334695 0.07211638
0001a0 03 78 1f 3d 40 c1 35 3e 8c 59 15 3d 8c 9e 91 bb
       0.03893281 0.177495 0.03646235 -0.004443949
0001b0 83 53 8f 3d f1 3c cf 3c 56 6d d0 3d 8a a6 13 be
       0.069983505 0.025297614 0.10177104 -0.14418998
0001c0 88 7b 9d bd f8 f7 ab bd 17 5d 29 3c 61 70 23 bd
       -0.07689577 -0.08396906 0.010337136 -0.039902095
0001d0 9e d0 ba 3c a8 cb 81 bd b8 5f 9e bb de f7 f9 bd
       0.022804555 -0.063376725 -0.004833188 -0.1220548
0001e0 aa 12 46 3c 98 6b 1a bd 91 47 8a 3d 02 44 42 3d
       0.012089411 -0.037700266 0.067519315 0.04742814
0001f0 66 6b 77 bd 3c 37 35 3c 46 2e 65 3d 01 0d fc 3d
       -0.060405158 0.011060532 0.055952333 0.12307168
000200 a1 8a e9 bc d2 0b cc bd 49 4d 01 bd 82 b9 0d 3c
       -0.028508486 -0.09963192 -0.031567845 0.008650186
000210 4e f1 4f bd 0c 2f a5 3d a2 e9 06 bd f3 60 2c bd
       -0.050767235 0.08065614 -0.032937653 -0.042084645
000220 dd 23 ca bc f8 cd cc bd a0 4c 5e bd 23 94 93 bd
       -0.024675304 -0.10000223 -0.054272294 -0.07205989
000230 e8 f0 3e bd 3f b7 ad 3d 49 36 67 3d ea df 60 bd
       -0.046616465 0.08482217 0.056448255 -0.05490104
000240 b6 ff 2b bd 7d 29 99 bc 0a 96 8f bc ca c6 5b bd
       -0.04199191 -0.018696541 -0.017527599 -0.053656377
000250 a9 62 04 3e 05 80 2e bc 82 99 d1 bc c1 8a 73 bd
       0.12928261 -0.010650639 -0.025585894 -0.059458498
000260 33 04 40 3d e2 45 00 bd 9e be 1a bd 19 fb 6e bd
       0.046879005 -0.031316645 -0.037779443 -0.058344934
000270 e3 21 5a 3d 12 98 29 3c a9 4f 33 3d 91 85 b1 bd
       0.053254973 0.010351198 0.04377714 -0.08668054
000280 7e 36 b3 3d f8 5f 2c 3c 34 7e c1 3d 7c a5 8f 3d
       0.08750628 0.010520928 0.094478995 0.070139855
000290 80 32 e0 3d a7 f5 00 be 2d cc 4b bd 14 60 2e bc
       0.10947132 -0.12593709 -0.049755264 -0.010643024
0002a0 8a ef 89 3c 25 6a e2 3d 88 1e 21 be 5c f5 11 3c
       0.016837854 0.11055402 -0.15734303 0.008908596
0002b0 0a 49 74 bd a0 bf 2d 3d 3b 5d 78 bd 26 3c 8d 3a
       -0.059639968 0.042419076 -0.060635787 0.0010775372
0002c0 0c fd c4 3d d7 d5 36 3e 31 b5 ab bd bc b4 44 3d
       0.09618577 0.17855011 -0.08384169 0.048023924
0002d0 c1 78 80 3d 0e bb 98 bd 6b 83 e9 bd be ea 3a bd
       0.06273032 -0.07457553 -0.11402019 -0.045634024
0002e0 73 59 c8 bc 23 e7 40 be 28 46 26 bd a7 1f cc bd
       -0.024456715 -0.18838172 -0.04059425 -0.09966975
0002f0 ea c0 26 3d 52 d2 a2 3d 86 85 52 bd bf 56 87 ba
       0.04071132 0.07950272 -0.05139687 -0.0010325535
000300 3b 55 29 3d 54 3a 2d 3d 25 cc cb bc 9f 4c 14 bd
       0.041341048 0.042291954 -0.024877617 -0.036205884
000310 25 ea d5 3d 3e 02 e7 3c de 80 43 b9 57 b9 eb bd
       0.1044505 0.028199311 -0.00018644656 -0.1150996
000320 6e f1 19 3e f9 4a d2 bb 35 4d ff bc 7e f3 ed b9
       0.15033504 -0.006417629 -0.031164745 -0.00045385578
000330 de e1 1f 3c 9c d5 b1 3d ec ba 43 3c b3 09 3f be
       0.009758441 0.08683321 0.011946421 -0.18656044
000340 3e 2a e0 3c 84 7c c5 bd fb 69 e4 bd c6 41 3a bd
       0.027363893 -0.0964289 -0.11153027 -0.045472883
000350 fa 0b fa bc b2 16 7d bd 9b b5 b4 bd 0d 40 4d 3e
       -0.030523289 -0.061789222 -0.08823701 0.20043965
000360 cc d4 2a 3e 7d bc d9 3c e5 f1 df 3d 49 59 d4 3d
       0.16682738 0.026579136 0.109348096 0.10368592
000370 44 53 11 3d a6 d5 4d 3d 03 32 0c bd d5 0a 18 bb
       0.0354798 0.05025258 -0.034227382 -0.0023199816
000380 99 4c 70 3d dd 18 83 bd c0 29 be bd 4a 4d 12 be
       0.0586668 -0.06401227 -0.09285307 -0.14287296
000390 79 97 23 be d3 9d a5 3c ce 1f 4d 3c 5c 6b 76 bd
       -0.15975751 0.020216858 0.01251979 -0.06016098
0003a0 73 d5 23 bc 3c 70 92 bd 3a 0c ef 3c 14 2d 70 bd
       -0.009999621 -0.07150313 0.029180635 -0.05863674
0003b0 ed 95 c1 bc 9f 1f 65 bd 20 47 90 bd 5d 51 dc bc
       -0.02363106 -0.05593836 -0.07044816 -0.026894266
0003c0 f3 8f 3b bd 9f 5f 6d bd 8a 32 df bd a8 b7 93 bd
       -0.045791578 -0.05795252 -0.108983114 -0.07212764
0003d0 be 67 88 3d 26 09 8f bd e8 b1 f8 bc 3c c4 2e bd
       0.06660412 -0.06984167 -0.03035827 -0.042667612
0003e0 00 b3 b1 3b 72 fd 97 bd af f7 64 3d dd 73 a2 3c
       0.00542295 -0.07421388 0.055900272 0.019830639
0003f0 9e b8 0a 3e dd f0 85 3d c1 e5 94 bd 8d e9 8c 3d
       0.13546988 0.06540082 -0.072703846 0.06880484

net.2.bias f4 [256]
000000 d0 e8 04 3d 7c c7 b0 3d 68 57 bc bb ee c2 45 bd
       0.03244859 0.086317986 -0.0057477243 -0.048281603
000010 24 4f 48 3d e0 8b bb 3d 7e d5 74 3c 0e c6 31 3b
       0.0489036 0.091575384 0.014943479 0.0027126106
000020 e1 f2 10 3e 25 d5 76 bd ab 13 b1 3d 8f b8 d6 3d
       0.14155151 -0.060261864 0.086463295 0.104844205
000030 5d a4 be 3d 94 d4 31 3d 1b 2f b1 3d 90 7f 96 bd
       0.093086936 0.04341562 0.08651563 -0.07348549
000040 8b 4a bf bc e5 fd b1 3d b6 fd 2d 3b f5 f2 82 3d
       -0.023350975 0.08691005 0.0026548929 0.063939966
000050 f5 f2 03 3e 9d 93 23 3d 16 7b 5d 3d ac 68 8e 3d
       0.1288565 0.039935697 0.054072462 0.06953558
000060 71 0f fd bc ab d1 90 bd 5c 72 81 bb 53 fb de 3d
       -0.030891152 -0.07071241 -0.0039504003 0.1088778
000070 c5 59 8c bd 7b bd 3a 3b c0 59 ab bd b8 35 61 3d
       -0.0685306 0.0028494287 -0.08366728 0.05498287
000080 91 c3 26 3e 96 b9 00 3b 0c 2f 0b 3d e4 74 da 3c
       0.1628554 0.0019641868 0.033980414 0.026667066
000090 ed 47 87 3d 3d 47 01 3d fe a2 2a 3d 52 db b6 3d
       0.06605516 0.03156208 0.041659348 0.08928551
0000a0 c0 ce b9 b9 36 42 0a 3c bc 18 bf 3d b7 43 d0 3d
       -0.0003543999 0.0084386375 0.093308896 0.101691656
0000b0 f2 cd 3b 3e b4 3c af 3d 7a 98 ab 3d 85 af 88 bd
       0.1834028 0.085565 0.08378692 -0.06674103
0000c0 93 fe 26 3c ac 37 c4 3d 57 8f cb 3d e8 bd 9b bd
       0.010192531 0.09580931 0.09939449 -0.07604581
0000d0 aa 62 b5 3d 35 7f 37 bc 65 3f ee 3d 40 f1 df 3d
       0.08856709 -0.011199762 0.11633185 0.10934687
0000e0 b7 b6 ad 3d 9e 13 46 bc f2 e8 9e 3c 01 ae b8 bd
       0.08482116 -0.012089638 0.019398186 -0.090175636
0000f0 a8 58 38 3c 4c 2d 96 bc e9 e8 89 3d 71 cc 89 3d
       0.011251606 -0.018332146 0.06733877 0.06728447
000100 0e 1e 9c 3d 71 00 36 bd 6c e7 6f 3d 20 fb 11 bd
       0.0762292 -0.044434015 0.05857031 -0.035639882
000110 b1 29 95 bd 96 ef 33 bd d0 2b 11 3d 96 28 75 3d
       -0.07283343 -0.04392966 0.035442173 0.05985316
000120 85 99 9a 3b 09 54 40 3d 4a 0e d2 3d c5 0d 5e 3d
       0.004718008 0.046955142 0.10256632 0.05421235
000130 a1 ed af bd 8d 42 f2 bc 4d fb eb 3c 72 0d a1 bc
       -0.08590246 -0.02957275 0.028806353 -0.019659732
000140 ee 93 17 3c 86 38 99 bc 26 7b f9 3d 34 ed 6b bd
       0.009251578 -0.01870371 0.12181692 -0.05759926
000150 00 54 c2 3d 04 65 b5 3d 25 3a 10 3d a9 c7 cb 3c
       0.09488678 0.08857158 0.0352117 0.024875479
000160 b4 12 ae 3b 60 87 f0 3c 04 6e e2 3c a4 d5 d2 3d
       0.005312288 0.029361427 0.02764035 0.10294655
000170 32 6a 37 bb e0 30 2f 3d 66 17 d6 3d a0 61 59 bc
       -0.0027986881 0.04277122 0.10453682 -0.0132679045
000180 a4 4c a0 3d fe 81 d2 bc 38 45 78 bd 66 ae 2a 3c
       0.07827118 -0.02569675 -0.060612887 0.010417556
000190 63 06 0e 3e 6b c0 14 3a f8 e5 87 3b cc 96 99 3c
       0.13869624 0.00056744245 0.0041472875 0.018748663
0001a0 8b 1d 70 3d 70 3a f5 3d d0 02 c7 bd b3 0e a0 3c
       0.058621924 0.11974037 -0.09717333 0.01953826
0001b0 6e d0 3e 3c 25 88 2b 3d 6b 07 16 3c 2c b7 66 3d
       0.011646373 0.041877884 0.009157042 0.05632703
0001c0 98 b6 83 3d df 55 b4 bb e8 25 ad 3d 59 e8 69 3e
       0.06431311 -0.0055034007 0.08454496 0.2284254
0001d0 87 b0 57 bd 5f 84 8e bd 4d 7e 95 3d bd 67 e9 3d
       -0.052658584 -0.069588415 0.072994806 0.1139674
0001e0 7e cc 90 3d d0 d6 20 bc 53 65 bf 3c 47 c9 c2 bd
       0.07070254 -0.00981684 0.023363745 -0.09511047
0001f0 58 da d0 bc 1c 6e 2e 3c 0b 1d 77 bd 7a ea 5a bc
       -0.02549474 0.010646369 -0.060330432 -0.013361568
000200 05 85 2d 3d 46 a3 7f 3d 20 30 56 3b 1e b0 1f bc
       0.042363185 0.06241157 0.0032682493 -0.009746579
000210 e3 ab 0a 3e f8 a2 0c 3e 93 1f 9d bc 96 e2 ea 3b
       0.13542132 0.13734043 -0.019180095 0.0071681244
000220 42 2a 03 be 28 79 5e 3d 46 db 04 3e b6 9a 94 bc
       -0.12809089 0.054314762 0.12974271 -0.018140178
000230 e9 0b b2 3c 66 1b 8e 3d d8 f8 b2 3d ad aa a9 bd
       0.021734195 0.069388196 0.087388694 -0.08284507
000240 df c9 3c 3e 53 e7 b1 3c a9 a7 02 bd 26 7c 07 3c
       0.18436383 0.02171675 -0.031898174 0.008269345
000250 28 b9 a3 3c e5 1e b7 bd 91 15 bd 3c 89 0f 15 bc
       0.01998575 -0.089414395 0.023081573 -0.009097942
000260 85 25 e7 3d 49 a7 f0 bd ea 5c 96 3d 91 5a 7e 3d
       0.11286453 -0.11750657 0.07341941 0.06209809
000270 29 82 25 3e 37 2c 07 3e a6 d1 e9 3c 8a 65 44 3d
       0.16162933 0.1320046 0.028542351 0.047948398
000280 91 6a 8d 3b 04 fb a6 3d 12 c5 4b bd 34 d7 2a bd
       0.004315682 0.08153346 -0.049748488 -0.04170914
000290 35 ce 33 bd 89 4e 1c 3d bc de a1 3d 84 b6 68 bc
       -0.043897826 0.038160834 0.07903811 -0.014203671
0002a0 62 99 82 3c 44 2a 3a 3c 34 79 c1 3c aa e9 ad 3c
       0.01594228 0.011362616 0.023617364 0.021229584
0002b0 64 fe f1 3d d3 2c ad 3d 2c ab b4 3d 3d a6 b8 3d
       0.11816099 0.08455815 0.08821711 0.090160824
0002c0 b2 2b f6 3c ef fb aa 3c b9 a3 a0 3d ea c6 88 3c
       0.030050132 0.020872084 0.078437276 0.016696412
0002d0 d0 5b b2 bc 42 63 1e 3d 94 c8 19 3d cc 3d 54 3c
       -0.021772295 0.03866888 0.0375448 0.012954187
0002e0 69 36 ef 3d 2a 8a 5d 3d 56 bb ef 3d 0f 35 c2 bb
       0.116803 0.05408684 0.11705653 -0.0059267352
0002f0 f4 36 c7 3d eb 3a 0d 3d c0 d7 68 3d dc 73 82 3d
       0.09727278 0.034480017 0.05684638 0.06369755
000300 c0 28 7f 3c 73 77 6a 3d cf 30 c0 3d c8 a9 73 3d
       0.01557368 0.057242822 0.093843095 0.059488088
000310 63 f2 16 3e 1f 15 4a 3d 82 14 f9 bd fc 4d bc 3d
       0.147409 0.04933655 -0.12162115 0.09194562
000320 74 33 e5 3c d7 76 d0 3c 7c 09 9f bd ec ea 03 be
       0.027978636 0.025447292 -0.07765481 -0.12882584
000330 41 a6 a7 3d c1 e8 cc 3d e3 f5 08 3d 87 8f 25 3c
       0.08186007 0.10005332 0.03343762 0.01010502
000340 cd e0 c1 bc eb 4d 95 3d c9 96 48 3b dd e5 5d 3c
       -0.023666764 0.07290252 0.0030607453 0.013543573
000350 cf 03 30 bd a1 8f 3e 3c 8f 47 ad 3d f7 b7 0d 3e
       -0.042972382 0.0116309235 0.08460914 0.13839708
000360 16 5d 90 3d 15 1e ea bc 3e ef 59 3d 90 30 9c bc
       0.07049005 -0.028578797 0.053206675 -0.019066125
000370 bf 69 25 3c b4 cc ea 3d b9 b1 ca 3d 61 b2 4e 3d
       0.010096013 0.11464825 0.09897179 0.050463084
000380 5d 77 9b 3d 65 39 39 3e 2d 23 af 3d 5a 7d 1e 3d
       0.07591126 0.180883 0.08551631 0.038693763
000390 61 e5 5d 3d a2 a2 97 3d ab ed b4 3c 4c d7 c6 bc
       0.05417383 0.074040666 0.022085985 -0.024272583
0003a0 a4 9f fe bb b0 3e 29 3e 58 48 fa 3c 61 0a 41 3a
       -0.0077704955 0.1652782 0.030552074 0.00073639123
0003b0 86 12 93 3d b6 93 1f 3c 3a e0 2e 3d 84 43 bd 3c
       0.071812674 0.009739807 0.042694308 0.023103483
0003c0 36 26 0b bd 84 e3 33 bd f1 84 2b bc 49 e4 39 bc
       -0.033971988 -0.043918148 -0.010468707 -0.011345931
0003d0 b7 9d 5e bc 6b be f4 bc dd a1 a7 bd 7a 5c 95 bb
       -0.013587407 -0.029875955 -0.0818517 -0.004558143
0003e0 ef 4f 1a 3d 64 de 2c bc 5f 34 b4 bd 7d b6 a0 3d
       0.037673887 -0.010551069 -0.087990515 0.07847307
0003f0 2e 93 ad 3c f8 0e 10 3e e0 ed 80 3d 67 f7 8c 3d
       0.021188345 0.1406821 0.06295371 0.06883126

net.4.weight f4 [8, 256]
000000 00 a9 1c bd 99 e5 75 bd 29 78 c1 bd bc 1f 00 3d
       -0.03824711 -0.060033415 -0.09446747 0.031280264
000010 8d 2a c9 3c 39 d9 43 bd 86 b8 3e 3d c4 ec 1f 3e
       0.024556423 -0.04781458 0.046562694 0.15617663
000020 6c bb 0c 3e 0e c7 ac 3d c7 4c 2b bc d0 45 66 3c
       0.13743371 0.08436404 -0.010455317 0.014054731
000030 f0 cf 95 bd 16 78 5e 3d 7d 5f 7f bd 13 b0 87 3d
       -0.073150516 0.05431374 -0.062346924 0.0662538
000040 e8 58 af bd 94 ac 04 be 99 8b 90 bc bb d2 30 3d
       -0.085618794 -0.12956458 -0.01764469 0.04316972
000050 bd 09 1d be 1a 35 a4 bb b2 4b 9e 3c 36 ab 10 3e
       -0.15335746 -0.005011213 0.019323204 0.14127812
000060 d9 80 9f 3e cd 83 91 3d 12 ce 93 3d 55 c8 e9 3c
       0.3115299 0.07105217 0.07217039 0.028537909
000070 a6 07 5e 3d 2b 8d d6 3d 08 07 d2 bd af e6 f2 bc
       0.054206513 0.104761444 -0.10255247 -0.029651014
000080 fd ce 7e bc e3 26 a1 bd 84 d2 c4 3d cf f7 09 3e
       -0.01555228 -0.07868745 0.09610465 0.13473438
000090 7d 79 98 be d3 ca 7f be 66 cb 0f bd c7 e3 4c 3d
       -0.29780188 -0.24979715 -0.035106085 0.050021913
0000a0 6b d9 8e bc e4 12 47 bd 42 99 3f 3e c8 7b 23 bb
       -0.017437657 -0.048602 0.18710807 -0.0024945606
0000b0 6f 18 05 3e 43 37 b5 3d 7f 52 28 be 17 25 07 bc
       0.12997602 0.08848431 -0.1643772 -0.008248589
0000c0 3e 68 ef bc 35 d2 2b 3e fc 7c d4 3d 3d 70 99 be
       -0.029224511 0.16779406 0.103754014 -0.29968444
0000d0 b6 11 05 be fa 4f 50 3e 9e fa c9 3d 02 95 95 be
       -0.12995037 0.20343009 0.098622546 -0.29215246
0000e0 8b 99 16 bd 86 85 fd 3d 49 3e 1e bd 91 15 c9 3d
       -0.036767524 0.12378983 -0.03863362 0.098185666
0000f0 32 03 19 bc 6e 55 85 3d 29 cb 92 bd ac 3f 2e 3c
       -0.009339141 0.06510435 -0.07167656 0.010635298
000100 4e a8 89 bd 89 66 60 3e 66 d6 cb bb de a4 ab bd
       -0.06721555 0.21914114 -0.0062206266 -0.08381055
000110 61 28 95 bd 08 ff 0d 3e df 38 05 be a9 69 ed bc
       -0.07283092 0.13866818 -0.13009976 -0.028981047
000120 50 f5 14 bb 55 ad 7c bd d8 88 2c be bd 86 6f bc
       -0.0022729225 -0.06168874 -0.16849077 -0.014619526
000130 ad 06 87 be 46 0f 1d be cd d0 b5 bc d5 68 92 3d
       -0.2637228 -0.15337858 -0.02219429 0.071489014
000140 d2 9d 19 bc 50 a5 fb 3d 1a e0 66 be 20 1d e0 bd
       -0.009376006 0.1228739 -0.22546425 -0.10943055
000150 f4 2a df bd 4a 35 36 3b dc 39 1f be 7c 7e c3 be
       -0.108968645 0.002780276 -0.15549415 -0.38182437
000160 16 b5 cb be 01 29 3b bd 4b ad 11 bd 59 c2 69 bd
       -0.39786595 -0.0456934 -0.035565656 -0.05707011
000170 ed 7c d0 bd e0 79 37 3e 96 8a 5b 3e 76 1c 73 3e
       -0.10180078 0.17917585 0.21439585 0.23741326
000180 f1 72 8b be 91 1d 17 3e 57 74 c0 bd 78 d7 f4 bc
       -0.2723613 0.14757372 -0.0939719 -0.0298879
000190 0a 42 15 be 52 cf 05 be 52 eb 89 3e d6 77 7b bd
       -0.14575973 -0.13067368 0.26937348 -0.06139358
0001a0 38 67 28 be 28 9e dc 3d 76 6e 33 bd 46 89 d9 bc
       -0.16445625 0.107723534 -0.043806516 -0.026554715
0001b0 6b c4 f4 bd 40 f6 80 be ba 01 c9 3d 67 e2 aa 3d
       -0.11951526 -0.25187874 0.098147824 0.08343964
0001c0 52 20 22 3e 98 40 6f 3d 19 33 3b 3d 7c 2e 20 3d
       0.15832642 0.05841121 0.045703027 0.03910683
0001d0 a2 21 3e bb 28 43 b1 3c b2 38 07 bd 0d c3 f7 bd
       -0.0029011746 0.021638468 -0.033013053 -0.1209775
0001e0 47 bf d2 bc 18 62 5c 3d 42 fb cf bc 6a 3b 5a bd
       -0.025725974 0.053804487 -0.025388364 -0.053279318
0001f0 a4 7c ef bd 5a d0 c0 bc c8 89 d3 3b 59 da a5 bd
       -0.11693695 -0.02353685 0.006455634 -0.08098287
000200 32 fe 3f bd 8a 3f 3b 3e 16 bf db 3d bc 47 40 bd
       -0.04687328 0.18285957 0.10729806 -0.04694341
000210 ae aa 92 be 23 d5 f1 3c 77 f6 07 3d 68 87 15 bd
       -0.28645843 0.029520577 0.03319403 -0.036506087
000220 27 02 05 3e af a0 92 bd 24 22 22 3e b1 4b 18 3e
       0.12989102 -0.07159554 0.15833336 0.14872624
000230 8c dc df bd 9d 96 2d 3e c6 18 8e 3c f6 4e 02 be
       -0.10930738 0.16951986 0.017345797 -0.12725434
000240 6a 78 86 bc 1f c0 85 3e f6 a0 3e 3e 50 50 5e bc
       -0.01641484 0.2612314 0.18616089 -0.013568953
000250 32 35 8d 3e f8 a3 cd 3d 2d 4f 25 3e 13 e2 96 3d
       0.27579647 0.1004104 0.16143484 0.07367339
000260 f6 aa 91 3d ae b6 e1 3d 30 48 9d 3d 3a 0a 97 3c
       0.07112686 0.110211715 0.07679784 0.018437494
000270 a0 bf 03 3d 97 9c 96 bd 59 9a 0d 3e 8b e0 5c bd
       0.03216517 -0.07354086 0.1382841 -0.05392508
000280 b0 67 83 bd 94 ba 38 3e 2b 16 81 bd 66 c9 89 3d
       -0.06416261 0.18039924 -0.06303056 0.06727867
000290 36 07 80 bd 64 23 13 be 91 63 30 3e 8e f4 d0 3a
       -0.062513754 -0.14368969 0.17225482 0.0015942024
0002a0 97 59 99 3d 59 04 bd 3c b8 98 56 3b 74 55 fe 3d
       0.07487791 0.023073362 0.0032744836 0.12418643
0002b0 ee b6 00 be 52 db 8c bd f7 44 97 bd 06 84 18 3d
       -0.12569782 -0.068777695 -0.07386201 0.037235282
0002c0 3d 5b 29 bc 1d 6e 63 3d 5f 8b 3a bb 40 68 39 3e
       -0.010336694 0.055524934 -0.002846442 0.18106174
0002d0 89 5e 9b be 06 f5 ff bd 1b f0 3e 3e ca 79 27 be
       -0.30345562 -0.124979064 0.1864628 -0.16355053
0002e0 f7 62 09 3e 0e d5 82 be 7f e7 a6 3a 91 42 5f 3e
       0.13416658 -0.25553173 0.0012733786 0.21802737
0002f0 59 8c 84 3e 76 25 f6 bd 5d f5 5d be 6d 4a 40 3e
       0.25888327 -0.12018864 -0.2167563 0.18778391
000300 91 29 9f 3e cf 7c 59 bd 7c 56 46 be d4 e1 2d ba
       0.310864 -0.053097542 -0.19368929 -0.0006633077
000310 40 1c 01 bd eb 27 5e be a4 7a 89 bc aa 97 bf bd
       -0.031521082 -0.21694915 -0.016782112 -0.093550995
000320 a6 26 1e 3d 42 99 6c 3e 4c 52 68 3e 2f 32 5e 3e
       0.038611077 0.23105338 0.22687644 0.21698831
000330 39 77 69 bd 11 bb 13 bd 61 85 fb 3c 06 a5 a7 3d
       -0.056998465 -0.036067072 0.030703248 0.081857726
000340 3e 0d 19 be c5 02 b2 3d 88 cc 5a bd 49 0f df 3d
       -0.14946458 0.086919345 -0.053417712 0.10891587
000350 09 5e 4d 3e 0a 9a 1f 3a bd 64 01 3d c6 ee 3c bd
       0.20055403 0.0006088322 0.031590212 -0.04612615
000360 d6 a0 92 3d 62 41 4a 3d 32 57 8d 3d 51 a5 08 be
       0.07159583 0.04937876 0.06901397 -0.13344313
000370 a0 0a a9 be 76 66 2e 3d 52 20 3e 3e 50 0f 07 3e
       -0.3301592 0.042578183 0.18567017 0.13189435
000380 c3 33 d9 3d 96 de c0 be 8d 90 bd 3d 97 fc a5 3c
       0.10605576 -0.3766982 0.092560865 0.020262046
000390 a7 1e 2f 3e 36 e6 d4 3d 2b b8 00 3d 8b af 20 be
       0.17101537 0.10395472 0.031425636 -0.15691964
0003a0 98 31 3e 3e d5 60 58 3e 83 5d 53 bb c4 29 ea 3d
       0.18573606 0.21130688 -0.0032251782 0.114337474
0003b0 be 35 25 be 01 0a 1d be f4 ca 8e bd 6c 13 26 3e
       -0.16133782 -0.15335847 -0.06972304 0.16218346
0003c0 a2 5a 9a bc 03 56 56 be 25 ed c7 bd 90 2d 7d 3a
       -0.018842045 -0.20931248 -0.097620286 0.00096579734
0003d0 60 57 ca bd 9e 29 81 3d 22 17 00 3e d2 d3 88 3d
       -0.09879947 0.06306766 0.12508824 0.066810265
0003e0 ba 27 71 3e 13 7a f2 bd 14 4c 36 be cb 4b 92 be
       0.2355031 -0.1183969 -0.17802459 -0.2857345
0003f0 1f d4 f7 3d ce 21 1d bd 95 5f 02 3d 05 c9 aa be
       0.12101006 -0.038362317 0.031829435 -0.3335649

net.4.bias f4 [8]
000000 cf 97 78 bc b8 8d f0 bc d3 24 18 3d de d9 e0 bc
       -0.015172913 -0.029364452 0.037144493 -0.027447637
000010 c5 cb 2f bd bd a6 8d 3d 7e a1 ea ba 1d dd f4 3c
       -0.04291894 0.069165684 -0.0017900912 0.029890591
