generated_data/iql_antmaze_umaze_v2_seed1.pt (torch, 907714 bytes, 16 tensors)

backbone.net.0.weight f4 [256, 29]
000000 c4 41 eb bc 7e 56 22 be d1 c4 19 3e a0 a7 63 3e
       -0.028717883 -0.15853307 0.15016486 0.22231913
000010 3d 70 68 3e 43 b2 ca bd f0 cc 1d 3d ce fc 06 be
       0.22699066 -0.09897282 0.03852552 -0.13182375
000020 0e 7d 18 3d a4 53 b0 3e 64 82 4d bd 6b 70 03 be
       0.037228636 0.34438813 -0.05017318 -0.12835853
000030 7b ec 3e 3e 73 b7 e2 3c 8d a8 ff bd d5 9d e9 3d
       0.18644898 0.027675366 -0.124833204 0.11407057
000040 a6 11 7d bd 0d eb 5a 3e 52 9a 0b 3e 99 4b c6 3d
       -0.06178441 0.21378727 0.13633087 0.09682388
000050 cc af d8 bc d7 42 3b bd 24 06 12 3d 98 8a 71 bd
       -0.026451014 -0.04571804 0.035650387 -0.058970064
000060 3b cc c1 3d 0e 93 f6 3d a8 0e f2 bd b0 1a 84 3e
       0.09462782 0.12039767 -0.11819202 0.2580161
000070 3c 6d 33 3e 39 39 31 bd 54 a6 9c be 65 d0 0a be
       0.17522138 -0.043267462 -0.30595648 -0.13556059
000080 71 7c f7 be 5d 3c a1 bd 86 b3 83 3e 76 60 a3 be
       -0.4833713 -0.078728415 0.25722903 -0.3190953
000090 cd 84 de 3e db 19 4d be 13 ae 90 3e ad c3 b7 be
       0.43460694 -0.20029394 0.28257808 -0.35891476
0000a0 c8 a2 49 be 6e dc 73 3e eb b0 10 3e 24 7e cf 3d
       -0.19691002 0.23814556 0.14129989 0.10131481
0000b0 1a 6f a2 bd da 42 9b bd 3c 28 21 3e cf e7 b4 3d
       -0.07931347 -0.0758111 0.15738004 0.088332765
0000c0 50 d0 1d 3e 9d a2 17 3d fd b4 41 bd 63 1e de bc
       0.15411496 0.037020314 -0.047291745 -0.027114099
0000d0 24 d0 e2 3d 2c 14 24 3e 46 0a d8 3c 7d 57 23 3d
       0.11074856 0.1602332 0.026372086 0.039878357
0000e0 de e7 4e bd 72 49 a6 bc 48 4e c9 3d 62 a6 d1 3d
       -0.050514095 -0.020298693 0.09829384 0.10236813
0000f0 3e 9d 84 3e e4 47 5d 3e ad 98 5e 3e 86 e5 28 3e
       0.25901216 0.21609455 0.21737929 0.16493806
000100 03 89 cd 3d 34 66 38 3e f5 57 81 bd a4 63 90 3e
       0.100358985 0.18007737 -0.063156046 0.2820102
000110 7c b4 a4 3e 77 26 dc bd bd a3 14 3e ae 9f 37 be
       0.3216895 -0.10749524 0.14515586 -0.17932007
000120 66 6d b6 3d 37 57 25 be 96 ba 32 be 0c 06 d2 bd
       0.08907585 -0.16146551 -0.1745399 -0.102550596
000130 eb ea b0 3d 86 57 83 3d b8 a8 31 3b ec a3 f0 bd
       0.08638557 0.06413178 0.002710862 -0.117500156
000140 b4 db b5 b9 dd 7e 57 3e 1a a4 1a 3e 25 c1 3c 3e
       -0.00034686702 0.21044488 0.15101662 0.18433054
000150 3f 49 41 3e 8f 0c d1 3c 08 62 be 3d 0a c5 bc 3d
       0.18875597 0.025518684 0.09296042 0.0921727
000160 b1 d4 e4 bc 2d 18 71 be 7e bd 6d bd 57 e0 4c 3e
       -0.02793345 -0.23544379 -0.058042042 0.20007454
000170 7d 71 9b 3e 95 6a 0a 3e 6b 54 31 3d d5 99 0f be
       0.30360022 0.1351722 0.043293398 -0.14023526
000180 5e 3e 5b be 2a f9 11 3e 43 d0 d1 3d c1 dd b8 be
       -0.2141051 0.14255205 0.10244801 -0.36106685
000190 2a 5a c0 bc 13 74 6c be ec 5e 43 be 3a 06 df 3d
       -0.023480494 -0.23091154 -0.19079179 0.108898595
0001a0 21 c6 63 3e 8b 5f 05 3d f9 8c 4f 3e d6 57 72 3c
       0.22243549 0.03256182 0.2026862 0.0147914495
0001b0 6b 46 32 3d 5f b1 b5 bd 49 4e 09 3e 74 a0 de bd
       0.043524187 -0.088717215 0.1340877 -0.10870448
0001c0 19 bc 86 3c c2 e4 9c 3d f7 11 38 3e 09 bc 75 3c
       0.016447114 0.076608196 0.17975603 0.014998444
0001d0 d1 e5 50 bb 64 3f 15 3e ea 64 cb bd 34 23 bc 3e
       -0.0031875263 0.14574963 -0.09931357 0.36745608
0001e0 f2 b1 b6 3b 8d 1c 84 3e a7 f0 1c 3e cf 3b 7e bc
       0.005575412 0.25803033 0.15326177 -0.015517189
0001f0 f0 e3 35 3e 79 1e 2a 3e 6a 31 0e 3e b1 06 10 3e
       0.17762733 0.16613187 0.13886037 0.14065053
000200 c6 c1 00 be 5f 05 68 3e c9 67 5a 3d cc 5d f8 3d
       -0.12573919 0.22658299 0.053321633 0.12127265
000210 f8 82 f5 bc 2f 70 19 3b d2 c6 ab bd e0 ad b3 3b
       -0.029969677 0.0023412814 -0.08387531 0.005483374
000220 bf 43 17 3e b2 40 ab 3c 30 da 3a 3e 49 96 00 3e
       0.14771937 0.020904873 0.18247294 0.12557329
000230 fb 3f 42 3c 0e 39 c4 bd 1c eb 23 be 69 6f a4 3d
       0.011856074 -0.09581195 -0.16007656 0.08029062
000240 52 cb 3a 3e 9b 74 4e be 4c a7 4a be e5 b1 ea be
       0.18241623 -0.20161669 -0.19790381 -0.45838848
000250 aa 26 57 3d 1e c9 84 3e 3b 40 82 3e 0a 95 88 be
       0.052527107 0.2593469 0.2543963 -0.26676208
000260 ce d3 2f 3e 5d a0 85 bd 3c f5 52 3e 54 b0 29 be
       0.17170641 -0.065247275 0.20601362 -0.1657117
000270 2e 00 4d be cd 04 d8 bd 90 cd 8a be 39 8d 8a bd
       -0.200196 -0.10547791 -0.27109957 -0.06765217
000280 4b fb 14 bd 3a 9f b4 bc f2 43 a4 3d 3a a2 34 3d
       -0.036372464 -0.022048581 0.08020772 0.044100024
000290 7d a1 36 3d a5 aa 06 bc 8d 56 bc bd c5 27 9b 3e
       0.0445876 -0.008219396 -0.09196196 0.3030378
0002a0 0c 01 9a bc 57 9e 42 bd 3d 4d 20 bc 15 cd 3c 3d
       -0.018799327 -0.047514286 -0.00978404 0.04609402
0002b0 40 7b 2b be 05 5a 11 be 1f 9e 14 be d3 24 24 3e
       -0.16746235 -0.14194496 -0.14513443 0.16029672
0002c0 ed c6 ad be 9f bd 1e be 78 e2 41 3e d6 23 7b bc
       -0.3394083 -0.15502022 0.18934047 -0.015328368
0002d0 52 69 6d 3e 0c b6 81 bc 6f d2 28 bd f2 70 6a 3e
       0.23184708 -0.015833877 -0.04121631 0.22894648
0002e0 ee fc 33 be fb bf 01 be 75 32 53 bc 94 96 15 3d
       -0.17576954 -0.12670891 -0.012890448 0.036520556
0002f0 d6 33 43 bd 8c 91 73 3d 46 4f 42 bd 85 c2 2e be
       -0.047656856 0.059464976 -0.047438882 -0.17066391
000300 70 c6 21 3e 1f 35 14 3b 6f de 8f bd 33 a5 10 be
       0.15798354 0.002261467 -0.07024848 -0.14125519
000310 59 88 83 3d 7f 84 78 3e 4c 6a 1a 3d 50 64 2c 3e
       0.064224906 0.24269293 0.03769903 0.16835141
000320 a9 d5 a8 bd 40 ea 0f 3d 05 5f 2a bd 17 0c 83 3e
       -0.082438774 0.035135508 -0.041594524 0.2559516
000330 ce 26 15 3e b8 d1 28 be 78 e6 65 3e 91 df 4c 3e
       0.14565584 -0.16486251 0.22451198 0.20007159
000340 2a c4 be bc d5 ea db 3e a9 e6 ea 3d 91 e0 65 3d
       -0.023286898 0.429526 0.11469776 0.056122366
000350 60 fb 25 be 1f cc 75 bd 6b 3d 40 be 08 b9 7a bd
       -0.16209173 -0.06000912 -0.18773429 -0.061211616
000360 06 a4 c8 bd ec 47 72 bd 4b a5 bf 3e f1 f9 c2 bd
       -0.0979691 -0.05915062 0.37430796 -0.09520329
000370 64 de 0e be 69 7d 35 3e 6f 2b fb 3d 2b 85 a9 3c
       -0.13952023 0.17723621 0.12264144 0.020693382
000380 b8 ab 92 3d 90 c7 0b bd 6d 19 b9 bd 9f 6b 1c 3e
       0.07161659 -0.034125865 -0.09038053 0.15275429
000390 58 ec 15 be 91 5a 56 bd 51 db 92 bd ba ca 4d be
       -0.14640939 -0.052332465 -0.071707375 -0.20096865
0003a0 44 b7 56 3e ab 7e 24 3e c3 2c 43 3e 37 fc 70 be
       0.20968348 0.16063945 0.19060044 -0.23533712
0003b0 8d f5 c9 3e 48 4f 0c be db 4e 9b be 19 0b cc 3d
       0.39445153 -0.13702118 -0.303336 0.09963054
0003c0 e7 d8 83 3d 6e c6 29 3e e6 e2 4b bd 26 13 1e bd
       0.06437855 0.16579601 -0.049776934 -0.03859248
0003d0 75 d2 f4 bd 4f eb 50 bd 64 99 0e bc 24 40 e4 bd
       -0.11954204 -0.051005658 -0.008703563 -0.11145046
0003e0 fc 25 14 be a8 3d 17 3e b7 16 ed 3d 5d 7c 7a be
       -0.14467615 0.14769614 0.11576598 -0.24461503
0003f0 18 cf ef bd 82 38 87 3c 71 23 ee bd 95 72 06 bc
       -0.11709422 0.016506437 -0.11627854 -0.008206029

backbone.net.0.bias f4 [256]
000000 1a a8 40 bd 1c 7c 96 3d 72 62 f7 bd fa 59 51 3e
       -0.047035314 0.07347891 -0.12079324 0.2044448
000010 6d b9 d2 3a a7 08 ac be e6 be a8 3d c6 4c dd 3c
       0.001607699 -0.3360035 0.08239536 0.027014147
000020 ca b6 82 3d 19 92 a3 be f5 58 c3 bd 96 e7 17 3e
       0.063825205 -0.319474 -0.095384516 0.14834437
000030 47 f0 30 3e b1 47 d0 bd 9a 6a cb bd 8f d0 fa bc
       0.17279159 -0.10169924 -0.09932442 -0.030617027
000040 f4 0d 06 3d 6a db 89 bd 35 18 26 be 13 c6 da bd
       0.03272815 -0.06731303 -0.16220172 -0.10682311
000050 27 8e 2e be af 79 23 3e 9e d1 6f be 22 e9 95 be
       -0.17046414 0.15964387 -0.23419806 -0.2927943
000060 b2 a2 4f be c2 c6 ba bd ac a7 c3 3d 87 cc 8a be
       -0.20276907 -0.09119941 0.09553465 -0.27109167
000070 96 90 90 3d c3 38 88 bd b7 5c b9 bd 87 03 b2 bd
       0.070588276 -0.066514514 -0.09050887 -0.08692079
000080 0d 75 46 bc b2 7f e0 3d 57 ca 24 be 95 ef 08 be
       -0.012112868 0.10961856 -0.16092812 -0.13372643
000090 f5 d8 b0 be c4 35 99 bd f5 97 8c bc a0 7e e2 bd
       -0.34540525 -0.07480958 -0.017162303 -0.11059308
0000a0 9a 2f 0e be 39 84 30 be 2d a5 2e be 1f 81 c3 bd
       -0.13885346 -0.17237939 -0.17055197 -0.09546112
0000b0 d6 c9 26 3e 9e 6b e5 3d 11 4d 9c 3d 8d fb 81 3e
       0.16287932 0.11202167 0.07631887 0.2538723
0000c0 65 cd 60 bd c0 8c 3d bd 03 40 20 be 7f cb 4e bd
       -0.05488338 -0.046276808 -0.15649419 -0.050487038
0000d0 09 f6 1f bf dd 16 b2 be 09 34 95 be b0 f0 94 be
       -0.62484795 -0.34783068 -0.29141262 -0.2908988
0000e0 f4 75 68 bc ca c7 87 bd 7b d0 48 bc 58 06 ee bd
       -0.0141882785 -0.066299036 -0.012256737 -0.11622304
0000f0 c4 be b4 bd d1 7d 7b 3d 3c 5b 86 bc d9 4a 06 be
       -0.08825448 0.061399285 -0.016400926 -0.1311449
000100 b1 66 b8 3c 1f 15 ae bd f8 ed b3 be 60 fd 0c 3e
       0.022509905 -0.08500122 -0.35142493 0.1376853
000110 f3 40 57 bd 17 c0 32 be 69 0c 23 bd 5a 52 f5 3c
       -0.052552175 -0.17456089 -0.039806757 0.029946495
000120 b0 46 cd bc 63 e3 6c 3d 0e 18 02 be fa df df 3b
       -0.02505812 0.05783404 -0.12704489 0.00683212
000130 f0 e0 66 be c2 5d ec bc 41 b0 bf bc 99 22 bc bd
       -0.22546744 -0.028853301 -0.023399474 -0.091862865
000140 34 bc 8d be 33 f9 66 3d f8 f1 51 be 53 42 1c 3e
       -0.2768265 0.05639 -0.2050246 0.15259676
000150 3a c4 a4 3c 05 31 45 be a5 7a 01 be c5 af fb bd
       0.0201131 -0.1925698 -0.12644441 -0.12289385
000160 4e 7c 8f bd ee ea 67 be 01 a6 94 be 05 16 90 bd
       -0.07006131 -0.22648212 -0.290329 -0.0703545
000170 df 67 22 3e 73 ca 00 be dc 1d a8 3d 59 0f 7e 3d
       0.15859936 -0.12577228 0.0820882 0.062026355
000180 44 b4 dc bc 69 af 99 be 25 b7 93 bd 08 b8 08 be
       -0.026941426 -0.3001664 -0.072126664 -0.13351452
000190 d2 03 9d be 9d f7 b9 be d9 70 45 bd 10 60 a9 be
       -0.30666977 -0.36321726 -0.048203323 -0.33081102
0001a0 5a 2e 8c be dc 4c b7 bc 22 df db bd f9 cf 02 be
       -0.27379113 -0.022375517 -0.107359186 -0.12774648
0001b0 24 d4 19 be 51 72 50 be a9 cf 93 bd a2 94 af be
       -0.15022331 -0.20356108 -0.072173424 -0.34293085
0001c0 14 e1 80 be 92 82 9f bd 2c eb 8d bd 22 ec 77 bd
       -0.2517172 -0.07788576 -0.06929621 -0.06052793
0001d0 e0 98 1b bc 56 fe 68 bd ae 94 7e 3c f1 e0 d3 bd
       -0.009496897 -0.05688318 0.015538378 -0.103456385
0001e0 cc a5 af bc 22 f2 95 be 44 cc 89 3d da 46 30 3d
       -0.021441363 -0.29286295 0.06728414 0.04303632
0001f0 e1 a1 57 bd c4 36 aa 3d 53 3a 04 3e ff 2e 4f 3d
       -0.052644614 0.08311227 0.12912874 0.05058193
000200 ce 45 3d bd 27 03 44 be 94 42 c2 3d 1f 12 50 be
       -0.04620915 -0.19141828 0.09485355 -0.20319413
000210 83 81 1d be 95 ce b8 bb ab 4d e5 bd e4 94 fc 3c
       -0.15381436 -0.005639861 -0.111964546 0.030832715
000220 29 58 96 bd 74 c5 b6 be 49 39 9b be 84 f7 7c be
       -0.07341034 -0.3569752 -0.30317143 -0.24703795
000230 18 f3 59 be 51 f9 fe bd 30 0e d9 3d 48 80 1b 3d
       -0.21284139 -0.12449897 0.10598409 0.037964135
000240 e9 3c dc bc 6c c5 74 be 32 6d 67 3c f5 17 e6 bd
       -0.026884513 -0.23903435 0.014125155 -0.11235038
000250 a8 f1 95 3d 80 3b 69 3d 1e 0d 42 3d e2 be 15 be
       0.07321483 0.05694151 0.04737579 -0.14623597
000260 6c 5d 55 3e b3 2e 0e 3e 90 09 2e 3e 76 f5 a6 be
       0.20836419 0.13885002 0.16995835 -0.32609147
000270 34 f8 44 3b f3 ae 65 3d bb 99 67 3e 5a 84 85 3c
       0.0030055167 0.056075048 0.22617237 0.016298462
000280 0f 5a 5d bd e9 c6 53 be 51 c3 35 be cf f6 95 be
       -0.054040965 -0.20681347 -0.17750289 -0.29289863
000290 f8 a2 61 3e c5 2a c4 bd f9 be 0d bd 58 5c a1 be
       0.22034824 -0.0957847 -0.034605954 -0.31515765
0002a0 12 58 b4 bd 84 aa 26 be bb 73 3d bd e6 28 4a bc
       -0.088058606 -0.16275984 -0.046252947 -0.0123388525
0002b0 d2 4a fd bd f9 6e e6 be 3c 51 ce 3c ed bb 14 3e
       -0.123677865 -0.4500654 0.02518522 0.14524813
0002c0 37 f4 84 3e c5 77 37 bd 9d ee 51 3c 67 27 c3 bc
       0.2596757 -0.044791956 0.0128132375 -0.0238225
0002d0 81 3f e8 bd 43 fe 48 bd d2 16 85 be fb c9 42 be
       -0.113402374 -0.049070608 -0.25993973 -0.19022362
0002e0 de 21 2c bd 49 0d 21 be a1 36 a0 bd d3 a4 57 be
       -0.042024486 -0.15727724 -0.0782292 -0.21058969
0002f0 46 85 19 3c f8 dd 89 3d 41 78 84 be d8 2b 69 3e
       0.009370154 0.0673179 -0.25872996 0.22770631
000300 7d ca 27 bd 38 1f b7 be 21 7b 1d be b8 a7 ed bd
       -0.040964592 -0.35766006 -0.15379001 -0.116042554
000310 36 8e 53 3d dc e5 a5 bd ba 45 b1 be 20 75 8a be
       0.051649295 -0.08100483 -0.3462351 -0.27042484
000320 ba a7 b0 be d5 ff 9d be d6 0b 3b bd 73 85 30 3d
       -0.34502965 -0.30859247 -0.045665585 0.043096017
000330 1c 3a 6f be 37 3f 04 bd af 3b c0 bd d2 d1 db 3d
       -0.2336201 -0.03228685 -0.09386384 0.107333794
000340 b3 ad db bd 3b d9 a2 bd c0 c0 a7 be 16 28 70 be
       -0.1072649 -0.0795159 -0.32764244 -0.23452792
000350 28 98 28 3e c8 52 81 bd 97 8a 09 3e fd 5a b2 3d
       0.16464293 -0.063146174 0.13431774 0.08708761
000360 d1 25 54 be 4b 43 2f 3e 72 6a 7a be fe 94 34 3e
       -0.20717551 0.17115514 -0.24454668 0.17634961
000370 12 09 73 be 4e 47 6c bd c7 30 0d bf 3b 52 a3 bd
       -0.23733929 -0.05768519 -0.55152553 -0.079746686
000380 07 f6 3a be 1b 44 09 be 4b 45 53 3d af ee a3 bd
       -0.18257914 -0.13404886 0.051579755 -0.0800451
000390 7d 29 86 bd a3 a0 33 bc 11 67 1f be bd f0 7a bd
       -0.06550882 -0.010963592 -0.1556666 -0.061264742
0003a0 69 d5 3a 3d 41 cc 1e 3d ab 92 21 3e 78 d5 04 bd
       0.04561368 0.03876901 0.15778606 -0.032430142
0003b0 d0 7f 83 be 14 6d 97 3d 88 77 4b bc d9 2f 91 bd
       -0.2568345 0.07393852 -0.012418635 -0.07089204
0003c0 a1 90 d5 bc 2b 5a 59 3e 7a c1 3f 3b 22 9c 67 3e
       -0.026069941 0.21225803 0.0029259608 0.22618154
0003d0 d8 93 f3 bc ca 58 83 be ff a1 66 3c 90 55 0a be
       -0.029733583 -0.25653678 0.014076709 -0.13509202
0003e0 7c fe 34 be 32 69 95 bc f9 6d 2a bd 10 c6 9e 3d
       -0.17675203 -0.018238638 -0.041608784 0.07752621
0003f0 4e b0 bd 3d 5d 4f 66 3e bb 35 a4 be e7 20 f1 bd
       0.09262143 0.22491212 -0.32072243 -0.11773854

backbone.net.2.weight f4 [256, 256]
000000 07 fe b1 bd e3 39 ee be a6 ed 99 bc c1 7c 1b be
       -0.0869103 -0.4652854 -0.018790077 -0.15184309
000010 1c 63 5d bd 2c 26 81 bc d0 4a 07 bd 32 ca f4 bd
       -0.054049596 -0.015765272 -0.03303033 -0.11952628
000020 e6 07 70 be 81 3b be bd 95 ba f3 3d 9d bf e4 bd
       -0.23440513 -0.09288693 0.11900822 -0.1116936
000030 01 71 7c bd ac b1 2c 3e 7e 06 f2 bb 52 04 5d bd
       -0.061631206 0.16864651 -0.007386028 -0.0539592
000040 d4 a6 19 be a3 52 a6 be d7 f5 12 3b c2 bb b6 be
       -0.15005046 -0.32484922 0.0022424364 -0.35690123
000050 1a 3b ac bc c9 28 a5 bd b1 48 f4 bd e0 a5 c9 3d
       -0.021024276 -0.0806442 -0.11927927 0.09846091
000060 5c 0f bb 3c ed 4b a6 3d dd fd 63 3d fa f4 8c 3d
       0.022834472 0.081199504 0.055662025 0.06882663
000070 c1 ef 41 3d a2 20 05 3e bc 8d 26 3d 02 68 25 3e
       0.047347788 0.1300073 0.040662512 0.16152957
000080 9e 47 30 3c 5d 69 13 3e 06 b6 d1 bc 55 f2 fb 3b
       0.010759262 0.14395662 -0.02559949 0.0076888003
000090 3f 58 d9 3c 5e 37 5a be 65 1f c7 3d 9e d1 a8 bc
       0.026531337 -0.21310183 0.09722785 -0.020607766
0000a0 98 30 33 be 88 d1 83 bd 8a 7a b0 3d 72 e3 b3 bd
       -0.17499006 -0.06436449 0.086171225 -0.08783616
0000b0 89 93 ec bc 88 5c 40 be aa e4 e2 bd af 37 8b bc
       -0.028878944 -0.18785298 -0.110787705 -0.016994325
0000c0 93 d0 d7 3d eb 6e 11 3d 76 cd 2d 3d 9a 55 db bb
       0.10537829 0.03550617 0.04243227 -0.006693554
0000d0 95 40 a9 3d ae 19 95 3e ca 8c 0b 3e 19 6b f8 3b
       0.08264271 0.29121155 0.13627926 0.0075811264
0000e0 f0 c4 95 bd 52 2d ae 3c 5f f9 44 3e 21 ac 41 3d
       -0.073129535 0.021261845 0.19235753 0.047283296
0000f0 91 df 8a be c8 b0 a0 3d e1 aa 7b bd 5d e9 86 bc
       -0.27123693 0.07846218 -0.06144226 -0.016468698
000100 8a b4 dd 3d ac c1 93 bc f4 ec 7c bd 4f dc 03 3d
       0.10825451 -0.018036686 -0.061749414 0.032192525
000110 6e ae f8 3c d2 5f c2 bd 87 97 c4 bc a7 11 b6 bd
       0.030356612 -0.094909325 -0.023998035 -0.08890086
000120 a9 ec 79 bc 19 02 13 3d 75 4c 97 3d bc b1 58 bd
       -0.015254178 0.035890672 0.0738763 -0.052903876
000130 a4 18 3f bd 03 3f f8 3c 34 1b 02 3e 04 8a 6b 3d
       -0.04665436 0.030303484 0.1270569 0.05750467
000140 35 60 24 bd f7 54 be 3c b9 62 16 3e 3b b2 0a bd
       -0.040130813 0.023233874 0.14686097 -0.03386138
000150 ee 9f 70 3d 27 bb a8 bd 82 82 08 3e 7b 29 6e 3d
       0.05874627 -0.082388215 0.13331035 0.058145028
000160 e0 9f cb 3c 3d 4c a6 3d f5 af e1 bd 0f 08 18 be
       0.024856508 0.0812001 -0.11019889 -0.14846824
000170 5c 9a 28 be b9 f9 73 bb db ed 26 be 8e 8d 18 3e
       -0.16465133 -0.0037227704 -0.16301672 0.14897749
000180 39 17 a9 3c a5 cc 30 be 28 e0 8b 3d ff fe 44 3e
       0.020640956 -0.17265566 0.06829864 0.19237898
000190 62 ae b0 bd ab 27 53 bd 77 3a 24 be a0 4f 9f bc
       -0.08627011 -0.051551502 -0.16037928 -0.019447148
0001a0 50 67 1e 3e e0 2c 4c 3e 6b 35 c4 be 2d f6 f7 3d
       0.15469098 0.19938993 -0.38322005 0.12107501
0001b0 f9 3d 53 3d 07 3d 92 3d 88 c2 43 bd 3c 0b 8b bd
       0.051572774 0.07140546 -0.04779294 -0.06789252
0001c0 a6 13 c1 bd a8 dc fd 3c 88 ce ca bd 16 77 8e 3d
       -0.09427576 0.030989006 -0.09902674 0.069563076
0001d0 1c c3 ed bd 7a 20 d3 3d 22 f1 18 be 8a 51 f0 bc
       -0.1160948 0.10308929 -0.14935735 -0.029335756
0001e0 a3 3d a4 bd cc d7 1c be d3 59 2e bd cf 12 da 3c
       -0.08019569 -0.15316695 -0.04256613 0.026620297
0001f0 6f e1 18 3e 77 c1 2c 3c ff 2d 0d be 12 cf 17 3b
       0.14929746 0.0105441725 -0.13787077 0.0023164195
000200 ba 0b fa bc f5 95 7f bd 7e 10 a6 3b d0 fd fe 3b
       -0.03052317 -0.06239887 0.005067884 0.0077817217
000210 37 de d0 bd 2c 1e 18 3d e9 67 0c be 7b 70 f6 3b
       -0.10198634 0.03713815 -0.13711514 0.007520733
000220 db 08 5d 3d 35 b0 3b 3d 12 59 d9 3d 2d 89 a0 be
       0.053963523 0.04582234 0.10612692 -0.31354657
000230 6f 4f 30 bd 41 ec 8c 3c 65 e6 f5 bd 1d d8 82 bd
       -0.043044504 0.017202498 -0.12006835 -0.063888766
000240 4c 8a 15 3e 90 3a 30 be 0b cc 1f 3c 87 1c 0a be
       0.14603537 -0.1720984 0.0097532375 -0.13487445
000250 c8 e6 1e 3c 6e a7 fb bb 38 16 83 3d 58 aa ac 3d
       0.009698577 -0.0076798713 0.06400722 0.08430928
000260 27 e7 2e 3e 89 49 e6 bd d4 3d 12 3e ed 46 9b bd
       0.17080365 -0.112444945 0.14281398 -0.075818874
000270 b6 24 88 bd e8 64 b0 bb a4 94 dc 3c 22 01 83 3d
       -0.06647627 -0.0053831227 0.026926346 0.063967004
000280 89 1d 6e bd fa 75 3a 3d 59 53 52 3d de db e5 bd
       -0.058133636 0.045522667 0.051349018 -0.11223577
000290 a5 e5 22 bd 33 de d9 bd 94 3c 86 3c c3 00 a7 bd
       -0.039769787 -0.10638084 0.016386308 -0.08154442
0002a0 d0 06 57 3d 73 9d 81 3d 92 df e7 bd f5 31 8b bb
       0.05249673 0.06328859 -0.113219395 -0.0042478987
0002b0 62 81 ef 3d 2f be da bd 89 af 42 3d 18 f5 e8 3c
       0.116946 -0.10680806 0.047530685 0.028437182
0002c0 bf 6d 28 3d e4 bb c9 3c ab ec 0f 3c 78 22 17 3e
       0.041120287 0.024625726 0.008784453 0.14759243
0002d0 6b a0 ea bd 10 52 4b 3d c5 5e 7b bc 3b 32 87 3d
       -0.114563785 0.049638808 -0.015342419 0.066013776
0002e0 20 df f5 bb 4b 83 16 bd 7b 85 f3 bd c2 69 92 bc
       -0.007503405 -0.036746304 -0.11890694 -0.017872695
0002f0 13 fe 90 bc 72 1f 3a bd d2 4a 0b be 55 d1 c5 be
       -0.017699277 -0.045440145 -0.1360276 -0.3863627
000300 80 02 ef bc 6c 5f 17 bd 34 f8 26 3e 08 8c a3 bc
       -0.029175997 -0.036956236 0.1630562 -0.019964233
000310 df ac 03 bd 23 87 72 3d 11 51 fe bd ca 46 0d 3d
       -0.032147285 0.059210908 -0.12417806 0.034491338
000320 58 56 00 3e 01 23 eb 3d ea 9a f7 3c 3b bb 71 be
       0.12532938 0.11481286 0.030225236 -0.23606579
000330 9e e0 76 bd ec 76 8f 3d 36 a0 0c 3e 98 c9 18 3e
       -0.060272805 0.070051044 0.1373299 0.14920652
000340 30 a3 b8 bc 6f 64 05 bd 79 ce 0a 3e 61 34 08 be
       -0.022538751 -0.032566484 0.13555326 -0.13301231
000350 81 a5 ff 3d 0f d3 fb bc b2 07 93 3c 0a 84 3d bd
       0.12482739 -0.030740289 0.017948005 -0.0462685
000360 f4 b5 58 bd 89 76 3b 3e 94 18 43 bc 9b 5d 70 3d
       -0.0529079 0.18306936 -0.011907715 0.05868302
000370 47 51 32 3c 2f f8 31 be 30 42 8f 3d 56 b3 54 be
       0.010883636 -0.17379831 0.06995046 -0.20771536
000380 d6 6b d7 bd f7 e2 31 bd bf 30 e4 bd 45 65 43 3c
       -0.10518615 -0.04342934 -0.1114211 0.011926
000390 f2 f2 d6 bd ce 70 85 3d 51 b4 d1 3d 5f 4d 25 bd
       -0.10495557 0.065156564 0.10239471 -0.04035699
0003a0 e6 15 ef bc 21 0b 0a bd 64 8c 2a bd 17 a9 15 be
       -0.029185247 -0.03370202 -0.041637793 -0.14615284
0003b0 ac 47 da bd 2e 12 b8 3d 95 99 53 3b 48 18 48 3d
       -0.106582016 0.089878425 0.0032287587 0.04885128
0003c0 4e 8a bb 3d 9d 8f 7d bc 36 56 69 bc f8 aa 05 bd
       0.09157239 -0.015476135 -0.014241746 -0.03263375
0003d0 10 5f 92 3d 9e 3d 57 be fb 76 ce bc 95 fc a5 bd
       0.07147038 -0.21019599 -0.025203219 -0.08104817
0003e0 62 36 ed bd 12 52 ff bd ca 6e ac 3d 76 83 16 3c
       -0.11582638 -0.124668255 0.08419569 0.009186616
0003f0 1f 48 7a 3d 7a 80 a5 be d8 c0 70 3d 77 84 8d bd
       0.061103936 -0.32324582 0.05877766 -0.06910031

backbone.net.2.bias f4 [256]
000000 a7 86 00 3d 48 a4 63 3d 52 83 79 bc 0d d5 47 bd
       0.031378414 0.055576593 -0.015229063 -0.048787165
000010 e7 38 2a 3d 7b 0d 5a 3e 55 8b da 3c 6b 18 15 3e
       0.041558173 0.21294205 0.026677767 0.14560096
000020 12 3f 07 3d 31 61 bb 3c fc c8 4e 3d e6 ca 66 3d
       0.033019133 0.022873493 0.050484642 0.056345843
000030 2a e4 60 bd 2f ad c2 bd ef c2 f1 39 c8 c1 47 3d
       -0.054905094 -0.095056884 0.0004611234 0.04876879
000040 e9 d4 1c 3e d9 7d e3 bc 10 4e d6 bc 06 1d a7 3d
       0.15315594 -0.02776997 -0.02616027 0.08159833
000050 17 20 82 3d 87 12 9a bc 1e 2f e9 3d 68 cb ae bd
       0.06353777 -0.018807663 0.1138594 -0.085348904
000060 4d 23 54 3c e6 aa ec bd 27 51 82 3b 44 62 de bd
       0.0129478695 -0.11556034 0.0039769593 -0.108585864
000070 36 5a b1 3c 9e e2 43 3d 85 87 09 be cd fd 68 bd
       0.021649461 0.04782354 -0.13430603 -0.05688267
000080 00 19 8c 3d ad 58 9d bc f8 01 9d 3d 6f 2b ed 3c
       0.06840706 -0.019207323 0.07666391 0.028951375
000090 ea 5b 96 3c 77 25 36 3d d1 8f ba 3b 84 ec 33 bd
       0.018354375 0.044469323 0.005693414 -0.04392673
0000a0 ac 49 bc bd 11 2c d8 bc a9 fb ca bb b8 4e ee bb
       -0.09193739 -0.0263882 -0.006194551 -0.0072725676
0000b0 78 58 d2 bd b5 69 6b 39 ce 72 f5 3d 4d 68 e0 3d
       -0.1027078 0.00022450725 0.11984788 0.10957394
0000c0 5c 6e 8c bb 13 9d 48 bd a4 7a 06 3d 7e 23 9b 3c
       -0.004285617 -0.048977923 0.032831803 0.018937822
0000d0 56 27 9d 3d 43 ca 75 3d 68 7c 0c bd be 4d e3 bd
       0.07673518 0.060007345 -0.03429833 -0.110988125
0000e0 4b 2f ca 3d da 52 42 3e c0 63 08 3d 34 d2 d6 3b
       0.09872302 0.18976918 0.033298254 0.00655582
0000f0 4a 52 b5 3d 1a 31 cc 3c 22 49 7c 3c 1a 29 f6 3d
       0.08853586 0.024925757 0.015398296 0.12019558
000100 e9 3c b4 3d 03 65 c1 3d aa e9 13 3e fb 6b c4 3b
       0.0880068 0.094430946 0.14444605 0.0059943176
000110 d9 8b 6a 3d 81 49 49 bd 2c de 81 3d 24 bf 08 3d
       0.057262275 -0.049142364 0.06341204 0.03338541
000120 32 6e 58 bd c6 93 92 bd 4d c1 b8 bd f7 1a 90 3d
       -0.052839465 -0.07157092 -0.09021244 0.07036393
000130 ca a0 17 3d 36 4f f0 bd 08 26 c3 bc c5 47 44 3d
       0.037018575 -0.11733858 -0.023821846 0.047920007
000140 f4 82 c8 3c b6 22 bb 3d 5d 2b 90 3c a5 5b 5f bd
       0.024476506 0.0913748 0.017598802 -0.05453076
000150 ac 61 92 bd 28 77 fe 3d 4b 77 d9 bc 8a c7 49 bb
       -0.07147536 0.12425071 -0.026546141 -0.00307891
000160 72 d5 2a bc 45 33 51 bd 63 70 27 3e 72 98 8d 3d
       -0.010426866 -0.051074285 0.16351466 0.06913842
000170 45 f5 04 be 70 d3 ca 3d 58 e9 bf bd b3 41 84 3c
       -0.12984188 0.0990361 -0.09370679 0.01614461
000180 9b 2a 07 3e eb 9b 10 be 63 ba 16 3d 07 0f 1e 3e
       0.13199846 -0.14121978 0.036798846 0.1543542
000190 34 a4 a6 3d f9 0c 60 3c 6c 19 1a bc 48 a0 e1 3d
       0.08136788 0.013674968 -0.009405475 0.11016899
0001a0 73 30 3c 3d c7 f8 4a 3b 24 92 83 3d 46 b7 b4 bd
       0.045944642 0.0030971037 0.064243585 -0.08824019
0001b0 24 99 05 3d e9 b7 ac 3d 5d 99 97 3c cc ca 2b 3e
       0.03261675 0.084335156 0.018505746 0.1677658
0001c0 0d 16 7d 3d 3e 36 a5 3d 2a 51 97 bd ff 6a 5a 3d
       0.061788607 0.080669865 -0.07388528 0.053324696
0001d0 ba 09 40 bc af 0c 8a bd 3e 1f 1b 3e 51 8d 47 bd
       -0.011721069 -0.067407005 0.15148637 -0.048718754
0001e0 76 57 3f 3d 9c ec bb 3b b0 b3 04 3e 87 88 b2 bc
       0.04671427 0.005734993 0.1295917 -0.021793617
0001f0 21 37 c5 3c 47 94 3b bd 99 34 28 bd c0 f3 90 bd
       0.02407414 -0.045795705 -0.041065786 -0.070777416
000200 82 01 14 be a6 b9 80 3d c0 d3 bf 3d db c2 0d 3d
       -0.144537 0.0628541 0.0936656 0.034609657
000210 af c1 db bc 80 d7 4b bd 8a f8 0a be b1 6d c4 bc
       -0.026825754 -0.049766064 -0.13571373 -0.023978086
000220 de a5 7f 3c 20 ea d0 bb 09 93 14 3c d1 47 6d 3d
       0.015603511 -0.006375566 0.009068259 0.057929818
000230 d9 f1 06 be 05 86 ed 3d 4b 1a 13 bd 91 49 02 3e
       -0.13178195 0.11597828 -0.035913747 0.12723376
000240 55 f3 e4 3b 71 f7 53 3b 2d 9e b7 bc 90 66 6b bb
       0.0069870153 0.0032343531 -0.022414291 -0.0035919286
000250 b9 d1 57 be 4d 7f 8b 3d dc 14 ab 3a 52 cb eb 3d
       -0.21076097 0.0681139 0.0013052481 0.1151339
000260 a6 1c 6d bd b8 45 ca bd 98 f1 53 3e 50 50 01 3e
       -0.05788865 -0.09876579 0.2069763 0.12628293
000270 33 fe d6 3d c0 17 0a bc 24 12 52 3c 6d ba c6 bd
       0.104977034 -0.008428514 0.012821708 -0.09703527
000280 7a a2 08 bd ea 15 d7 3d 4a 5f 0d 3e aa 17 be 3d
       -0.033358075 0.10502227 0.13805881 0.09281857
000290 75 d1 a8 bd 69 cc 5f 3d 40 c4 f5 3d f2 a3 9c bd
       -0.08243076 0.0546383 0.12000322 -0.076484576
0002a0 4a 50 5b 3e 4e 62 3c 3e 6f c2 12 3e 03 81 d5 bc
       0.21417347 0.18396875 0.14331983 -0.026062494
0002b0 6c 47 82 3d c8 a5 5a bd ec 87 86 3c 00 ac df bc
       0.06361279 -0.053380758 0.016422234 -0.027303696
0002c0 a1 73 a9 bb b5 59 04 3b ed 4e 95 3d e3 79 c5 3c
       -0.0051712547 0.002019507 0.072904445 0.024105972
0002d0 38 ee 7c 3d 6c fc 4f 3d 47 86 99 bd 95 5b 0c bd
       0.06175062 0.050777838 -0.074963145 -0.034267027
0002e0 d3 ef 00 bd df 31 36 3e 7c 6c a2 3d 9a bc c2 3d
       -0.031478714 0.17792462 0.07930848 0.09508629
0002f0 42 46 f9 bc 0e dd 39 3d 0b 0d 30 bc 7e d9 94 3c
       -0.03042901 0.04537683 -0.010745297 0.018170115
000300 11 b2 80 bd 09 5f f0 bc e8 91 c4 bb cf 19 a6 3c
       -0.062839635 -0.029342191 -0.0059988387 0.020275978
000310 57 93 11 3d a8 34 79 3d c4 5f 02 3c 03 79 ae bb
       0.035540905 0.060841233 0.007957403 -0.0053244843
000320 2a ef 65 bd 6b 92 e0 bb fd 36 b6 bc 26 a3 23 3d
       -0.056136288 -0.006853392 -0.022243017 0.039950512
000330 aa 1a 2a bc a9 22 38 3c 06 10 98 3c c7 0e 27 3b
       -0.010382334 0.011238732 0.018562328 0.0025490986
000340 f9 91 60 3d 84 cd 8c 3c 4f b3 58 bd 25 27 b3 bd
       0.05482671 0.017187841 -0.052905377 -0.087477006
000350 2d 95 ad 3d 07 d0 f7 3c de ca ff 3a 48 3f da 3d
       0.08475719 0.030250562 0.0019515415 0.10656601
000360 76 ce 5c bd 08 c5 5a 3c 99 e6 0f ba a7 88 56 bb
       -0.053907834 0.01335264 -0.0005489379 -0.003273526
000370 6e 1a ab 3d 58 3d 23 3d 77 75 99 3d 23 11 ab 3d
       0.083546504 0.039853424 0.07493108 0.08352878
000380 7c 5e fb bc 99 0f 0f 3d 1d b5 0a 3c 44 4c 33 3d
       -0.030684702 0.034926984 0.008466032 0.043773904
000390 71 13 80 3c c3 d8 43 3d 7e ba 23 be 06 29 1d bd
       0.01563427 0.047814142 -0.1598911 -0.0383692
0003a0 ed d9 75 bb 61 d4 6c 3d 88 e2 af bd 84 8f af 3d
       -0.0037513927 0.057819728 -0.08588129 0.08572295
0003b0 1b b8 48 bc de c3 bc bc 3b 5d e4 bc e3 de 8d 3d
       -0.012250925 -0.023042616 -0.027876487 0.06927278
0003c0 b5 ca 03 bd d8 21 04 be 2c 3e 47 3c 71 d4 71 bd
       -0.03217574 -0.12903535 0.012160819 -0.05904049
0003d0 d3 38 9d bd 81 30 e3 3d c5 1b ad 3d b7 c8 35 3c
       -0.07676854 0.11093236 0.08452562 0.011095217
0003e0 7e 97 df 3b b3 ed 04 3d b3 45 16 3e 4e dd b6 bd
       0.006823479 0.03245325 0.14675026 -0.08928929
0003f0 e8 c2 ef 3c 48 f6 3c bd 7d 0d 88 bc 9b b4 4d 3d
       0.029267743 -0.04613331 -0.016607994 0.050221067

backbone.net.4.weight f4 [8, 256]
000000 a9 fb 89 bc 59 bf 22 be 70 3a a1 3e 5e e7 e6 bd
       -0.016843634 -0.15893306 0.31489897 -0.112745985
000010 d8 b6 12 bc df 3b f6 3d 3e 73 0a bc 1e 6e 0c 3e
       -0.008954726 0.12023138 -0.008450327 0.13713881
000020 52 e2 1b 3d 27 2f 24 3e b5 a6 d3 bd c6 7f b5 bd
       0.038057633 0.16033612 -0.10334531 -0.088622615
000030 23 5f 97 be 9a 26 02 be a0 b7 bd 3d 5f 9a 69 be
       -0.2956477 -0.12710038 0.09263539 -0.22812794
000040 6a ce e1 3d 04 63 4e bd 3b 69 eb bd e8 10 ff 3d
       0.110256985 -0.050387397 -0.114946805 0.124543965
000050 84 a9 02 3e 9f 28 b0 bd 60 93 66 be 32 ec cb bd
       0.12759978 -0.08601498 -0.22517157 -0.0995716
000060 8f 31 94 be cd de fb 3b e6 13 69 be c3 ca e3 3d
       -0.2894406 0.007686472 -0.22761497 0.11122658
000070 09 e3 05 3e e9 b3 ce bd 2a cb c9 3d 3a 65 98 bb
       0.13074888 -0.10092909 0.098532036 -0.004650739
000080 e8 c2 58 3e 21 8b c1 bd 3a 77 b3 3e ee f5 49 3e
       0.21168101 -0.09450365 0.350519 0.19722721
000090 d6 52 2e bc f4 4b 39 be 6b fe 49 bd ae 80 78 3d
       -0.010639867 -0.1809538 -0.049314898 0.060669594
0000a0 ec 79 81 be e8 0a d2 3d 1a 84 b2 bc d3 46 79 be
       -0.25288332 0.102559865 -0.021791507 -0.24343424
0000b0 fa 61 e5 bc c6 53 dd bd 01 80 4f be fc 98 80 3c
       -0.02800082 -0.10806994 -0.20263673 0.015697949
0000c0 58 d9 23 bd 48 2d 33 3d d9 d5 02 be 10 b0 1a 3e
       -0.040002197 0.043744355 -0.12776889 0.15106225
0000d0 bf 96 3b bc 52 e0 0d bd f7 68 56 3d 5b 1d 4f 3d
       -0.011449515 -0.034637757 0.052346196 0.050565105
0000e0 c2 da 0c 3e 03 38 4e be f0 8f 27 be e9 72 c3 3d
       0.13755324 -0.20138554 -0.16363502 0.09543402
0000f0 27 b9 03 3d 06 7c d0 bd 4d 53 85 3e 5e 83 10 3e
       0.032158997 -0.101799056 0.26040116 0.14112613
000100 45 f6 02 be ea 04 28 bd a9 b9 40 bc b0 8b c0 3d
       -0.12789257 -0.04102031 -0.011763015 0.09401643
000110 a7 74 4c 3d b2 08 19 be a2 37 20 3e db 64 9c bc
       0.049915936 -0.14944723 0.15646222 -0.01909106
000120 e2 aa 75 be 7d 99 8a 3e 5b 5e b2 3d 8a 57 45 3d
       -0.23990968 0.27070227 0.08709403 0.048179187
000130 50 e4 3a 3e c2 ea 4b bd 54 99 5a be 84 17 f8 bd
       0.18251157 -0.04978443 -0.21347553 -0.1211386
000140 3b 54 a0 bd 77 d4 9d bd 86 a7 af be 1a 4d 0b be
       -0.07828566 -0.0770654 -0.34307498 -0.1360363
000150 2c 2c e2 3d a2 13 2d 3d 60 49 b2 3d a1 a4 ac bd
       0.11043581 0.04225505 0.087054014 -0.08429838
000160 16 23 b0 bd e8 7b 06 3e 81 f4 2d be a7 db a8 3d
       -0.08600442 0.13133204 -0.16987802 0.0824502
000170 1b 14 58 be b3 ea ed 3a a4 bd 26 be 42 78 01 bf
       -0.2110142 0.0018151611 -0.1628328 -0.50574124
000180 ee ec 8f be 9a 1c a5 3e 44 58 aa 3e 1d 75 93 3e
       -0.2811045 0.32248384 0.33270466 0.28800288
000190 44 98 c9 3e fa 62 8b be 54 23 4d 3d 86 02 3c be
       0.39373982 -0.2722395 0.05008252 -0.18360338
0001a0 d8 f8 d6 bd 8a 8f 33 3e d4 66 1a 3e e8 ee 9c bd
       -0.10496682 0.17535225 0.15078288 -0.07662755
0001b0 1c 2e 23 be 2d 6b d3 3a 2e ef e3 bc 6b 4e d3 bb
       -0.15935558 0.0016129963 -0.02782401 -0.006448557
0001c0 cd e5 cc 3d 9b ee 3e be c0 92 97 3e 0d 66 99 3d
       0.100047685 -0.18645708 0.2960415 0.07490168
0001d0 8a a9 13 3e 87 ed bd 3c 45 68 1f 3d 28 5c 62 be
       0.14420143 0.02318455 0.0389178 -0.22105467
0001e0 a7 94 64 be f1 e0 b4 3d 03 7b 5e be 3b 24 5f 3d
       -0.22322331 0.08831967 -0.21726613 0.05447791
0001f0 ed e9 85 be 5a 2d da 3d dd 42 11 3d 6b 98 59 3e
       -0.26155034 0.106531814 0.035464156 0.21249549
000200 88 f9 bc bd 61 bb 18 3e 63 c8 f8 bd 53 dd 8d 3c
       -0.09227282 0.1491523 -0.12147596 0.01731745
000210 0b 8d ce 3d ec ff bb 3e 5e 16 5e be 2a fa a2 3d
       0.100854956 0.3671869 -0.2168822 0.07957871
000220 f8 fc 7b be 8b 6c 7d bd ea 0a e5 3d 5e 97 a3 3d
       -0.24608219 -0.061871093 0.11183722 0.079878554
000230 e3 f0 86 be 15 c4 af 3d cf 4a 29 3d 3f 17 5a 3e
       -0.26355657 0.085823216 0.04133111 0.2129793
000240 ba fc ac bd 92 4a f3 3d f6 0f 93 3e c4 73 a3 3e
       -0.08446641 0.118794575 0.28723115 0.3192426
000250 e3 f9 9a be 61 60 27 3e ea d9 08 be 3f 8f 5e be
       -0.30268773 0.1634536 -0.13364378 -0.21734332
000260 59 20 8a bd bb 0e 87 bd b6 f2 2d be a7 2d 31 3e
       -0.06744451 -0.065946065 -0.16987118 0.17302571
000270 16 8b 15 3e f1 fd 36 3e 6d a9 f9 be ef 8b c8 bd
       0.14603838 0.17870308 -0.48762074 -0.09792315
000280 a9 82 c0 3d 25 e7 f7 bd 94 1d 95 bd 66 a7 b4 3d
       0.093999214 -0.12104634 -0.07281032 0.08820991
000290 a2 cd dd bc 5d d0 59 bc dc 57 d5 be f8 35 ee bd
       -0.027075592 -0.013294307 -0.41668594 -0.116313875
0002a0 a9 f3 90 bd 99 dc 6e 3d f1 08 d0 bc 48 e0 a1 3e
       -0.070777245 0.058315847 -0.025394889 0.31616426
0002b0 05 e6 38 bd 19 56 8a 3e be ae 58 3e 8e a5 6a 3d
       -0.04514124 0.27018812 0.21160409 0.05728679
0002c0 ba f4 89 bc 87 2a e5 3e e5 6f 45 bd cd b3 92 bd
       -0.016840328 0.44759008 -0.048202414 -0.071632005
0002d0 75 00 06 be 10 f7 57 3e 41 8a d1 bd 59 0d 49 3e
       -0.13086112 0.2109034 -0.10231448 0.19633998
0002e0 90 54 79 bc 72 ee 66 3e c6 1d 84 bd 29 95 f0 bd
       -0.015217915 0.22551897 -0.06450991 -0.117472
0002f0 05 1c 9b 3d bb 3a 4e 3c 7c 35 df bc 34 72 b9 3d
       0.07573704 0.012587245 -0.027247183 0.09054986
000300 f2 4c a9 3d ea db 1b 3e b6 c6 bd be bb e5 04 bf
       0.08266629 0.1522061 -0.37065667 -0.5191304
000310 08 25 07 be d5 43 f8 bd a6 92 0a be fb c6 68 3e
       -0.1319772 -0.12122313 -0.13532504 0.22732155
000320 a7 5f 5d bd ab c1 c8 3e b4 56 08 3d a7 5e 4f be
       -0.0540463 0.39210257 0.03328581 -0.20250951
000330 8e c9 cd 3a 61 13 90 3e 58 4e dd 3c d4 c0 94 3d
       0.0015700327 0.28139785 0.027014896 0.072633415
000340 a3 4f 8f 3d c4 9b d8 3d 84 f6 bb 3b 48 ad 4b 3d
       0.069976114 0.10576585 0.005736174 0.0497258
000350 bc a4 99 3e 31 c1 18 be 9a d5 32 be b5 a8 d4 bb
       0.30008495 -0.14917447 -0.17464295 -0.006489838
000360 e4 4a 70 3e fa c3 cc bc 94 03 fe 3d 5f 73 3f bd
       0.23466069 -0.024995793 0.12403026 -0.046740886
000370 ca 85 98 bd b1 3b a3 3c 7e d2 38 3d e8 18 90 bd
       -0.07447393 0.019925924 0.045122616 -0.070360005
000380 7c 0a 7a 3c 73 c7 26 bd 58 d7 a3 3a f0 1c 6a be
       0.015261289 -0.040717553 0.001250009 -0.22862601
000390 d5 c3 6f bd 50 86 98 3e 72 fe 81 bd 5d c1 0c be
       -0.05853637 0.29789972 -0.0634736 -0.13745637
0003a0 ee ad 16 bd a3 9c 34 be 50 cf 59 3d f6 4f 09 be
       -0.036786966 -0.17637877 0.053176224 -0.13409409
0003b0 3b 91 85 3e 36 46 26 3e 17 ac 21 3e 5e ca 53 3e
       0.26087365 0.16237721 0.15788303 0.20682666
0003c0 b3 56 1f ba 65 a9 1b bd 9f c3 bf 3d 6c a5 7b 3c
       -0.0006078288 -0.038003344 0.09363484 0.015359264
0003d0 a1 f2 43 3e 06 4a dc bd 2a 60 ec 3d 72 df 36 bd
       0.19135524 -0.10756306 0.11541779 -0.044646688
0003e0 e3 c8 79 3e 1f c7 31 3e d7 1a 97 3d 05 a2 c6 3e
       0.24393038 0.17361115 0.07378166 0.38795486
0003f0 58 c4 0c 3d 51 f6 25 3e 1a 25 a2 3c 24 19 da bc
       0.034366935 0.16207244 0.019793082 -0.026623316

backbone.net.4.bias f4 [8]
000000 c3 9d ce 3c b7 0d 54 bc 20 57 2f 3d 50 70 35 bd
       0.025221711 -0.012942723 0.0428077 -0.044296563
000010 cd 6e f8 3c d3 2d 88 3b 63 6e 6b 3d 50 75 61 bc
       0.030326271 0.0041558533 0.05747832 -0.01376088

net.net.0.weight f4 [256, 37]
000000 2c da 27 3e fa ed b3 bd fa 7d 42 3c d8 3a 37 3e
       0.1639182 -0.08785625 0.011870855 0.17893541
000010 4f 9e 91 be cf 97 55 3e bb 59 bc bd 15 21 94 bc
       -0.28441092 0.20858692 -0.09196802 -0.018082181
000020 cc a9 f9 bc 68 d9 c5 bd 5a 7d 8b bd 6d e4 aa bc
       -0.030476473 -0.096606076 -0.06811018 -0.020860875
000030 e6 4c b0 3d 75 5c d8 bc c0 e0 39 3c b1 44 c3 3c
       0.08608417 -0.026411274 0.0113450885 0.023836466
000040 ce 6e b5 3c 4d 36 a1 bd 72 0e 77 3d d9 50 36 bc
       0.022147562 -0.07871685 0.06031651 -0.011127674
000050 6e e2 92 bd 77 80 96 bd 63 6c 69 3d 04 dd d3 bd
       -0.07172094 -0.073487215 0.05698813 -0.1034489
000060 da 59 af bc 29 56 c4 bc 8e 37 0c 3d 16 55 dd 3d
       -0.02140515 -0.023966866 0.03423267 0.108072445
000070 c3 c1 ba bc 58 47 89 3d 70 f9 db 3c 3a 44 9f 3d
       -0.02279747 0.06703061 0.02685234 0.07776685
000080 7c 04 ec 3d b4 6e 31 be 2f 7f b9 bd d6 cd 18 bd
       0.11524293 -0.17327386 -0.090574615 -0.037305675
000090 9b 9c 7e 3d 7d 7e 35 be 5a e4 89 3d b7 97 9c bd
       0.06216107 -0.17724033 0.06733008 -0.07646125
0000a0 2f 05 17 3e 2e 9d da bd e3 a8 4a 3e f3 52 2d 3d
       0.14748071 -0.10674511 0.19790988 0.042315435
0000b0 f1 90 2f be 48 b4 ab 3d 32 27 2c be d2 c1 ed bc
       -0.17145135 0.08383995 -0.16811827 -0.029023085
0000c0 74 d2 6e 3a 62 e4 44 bd aa a0 f0 bd 1c 14 59 bd
       0.00091103395 -0.048069365 -0.11749394 -0.052997693
0000d0 0f 20 01 3e fa 0d 22 bd 18 0e 42 bc 09 f7 b8 3d
       0.12609886 -0.03956411 -0.0118441805 0.09031493
0000e0 b6 1b 0e 3d 99 bb a4 bc eb 44 aa 3c 34 13 8c 3d
       0.034694396 -0.020108985 0.020784816 0.068396
0000f0 ca 96 27 be 0d 19 92 3d b1 0d ce 38 f2 c7 6e 3d
       -0.16366115 0.07133684 9.825396e-05 0.05829615
000100 f8 5b f8 bd ce be 22 bd 9b f0 80 bd 92 bb cf bc
       -0.12126917 -0.039732747 -0.06295892 -0.025357995
000110 a1 18 fe bc b1 f3 a2 bd de 2a b8 bd 7e a1 fa ba
       -0.031017603 -0.07956637 -0.08992551 -0.0019121615
000120 79 77 15 bd 8e 3c db 3c a0 42 81 3e 68 3a 69 bd
       -0.03649089 0.026762273 0.25246143 -0.056940466
000130 eb ec 18 3d 8d a8 cf 3e 33 d3 86 bd e6 ef 44 3d
       0.037335318 0.40558282 -0.06583252 0.048080347
000140 27 3d 1b bf 04 30 56 bd 35 e4 45 3d d9 05 dc bd
       -0.60640186 -0.052291885 0.04831334 -0.10743303
000150 a8 f1 3d bc 9e 93 d0 bc 0e 7c 07 bd d4 de 0a 3d
       -0.01159326 -0.025461014 -0.033077292 0.03390391
000160 6f 84 f4 bc 7e 0e ce 3c 10 e8 9d 3c 60 0c 6b ba
       -0.029848306 0.025153395 0.019275695 -0.00089663826
000170 31 b6 c9 bc 47 c5 f0 3c a7 99 48 bd a4 a1 96 bc
       -0.024623008 0.029390944 -0.04897466 -0.018387623
000180 67 18 2f bc ae 1d 15 bd 63 03 fc bc 12 41 27 ba
       -0.01068697 -0.036405258 -0.030763334 -0.00063802407
000190 4b f1 97 3c db 4f 5d 3c d8 cb 7d 3c 7a 5a 5d 3c
       0.018547675 0.013507809 0.015490495 0.013510341
0001a0 3a 60 69 bc eb cb b6 bc 7d 8d 96 3c cb aa d5 bb
       -0.014244134 -0.022314033 0.018378014 -0.0065206042
0001b0 40 bb 9b 3a 55 0a 8f bb ce b3 8b bc 14 ae 9e 3e
       0.0011881366 -0.0043652453 -0.017053511 0.30992186
0001c0 9c ef 97 3e 62 26 e4 3c e9 29 14 3e bb 8e 3f 3e
       0.29674995 0.027850334 0.14469112 0.18706791
0001d0 56 29 82 3e 8f c8 5d 3b b4 72 27 bd 59 02 b6 bd
       0.25422162 0.0033841466 -0.040880874 -0.088871665
0001e0 e2 15 a1 bd 37 be 56 3c 03 3b f3 3d 95 2a be bd
       -0.07865502 0.013106874 0.1187649 -0.09285466
0001f0 12 09 23 bc e2 72 9c bd d8 d5 3d bc a5 0e 1c bd
       -0.009950893 -0.076391 -0.011586629 -0.038099904
000200 c7 e1 a4 3d a4 7d 34 3d df 6d 3a bc 16 bd d1 bc
       0.08050876 0.044065133 -0.011378734 -0.025602859
000210 04 ef 7a 3d 01 1b 7e 3c b7 08 54 3d 10 4e e9 3c
       0.0612631 0.015509368 0.051766124 0.028479606
000220 9e fc 2e 3d b0 b2 71 3d 4c cc 95 bd ea c6 d9 bd
       0.042721383 0.0590083 -0.07314357 -0.10633643
000230 35 78 72 bc d7 df c2 bb 6d da ea bc f3 68 8b 3c
       -0.014799167 -0.005947094 -0.028668607 0.017017817
000240 f5 6c 96 bc d3 1b 0f bd ef bf 58 3d df 24 92 3c
       -0.018362502 -0.034938645 0.052917417 0.017839847
000250 6c 1b af 3e 4c f4 54 3e 23 20 92 be 86 2a 84 3e
       0.3420061 0.20796317 -0.28540143 0.25813693
000260 e8 b0 b5 3d 3b ce 99 bd 1b f7 84 be ea 40 db bd
       0.08871633 -0.075100385 -0.25969777 -0.10705741
000270 48 56 5b bd ea 1c 09 be 61 3e f1 3d 64 6d af bb
       -0.05354908 -0.13389936 0.11779476 -0.0053536166
000280 45 6e 08 be d7 87 17 3d 4b d5 08 3d 6d b0 02 3e
       -0.13323314 0.03699478 0.033406537 0.12762614
000290 8a e3 94 bc a4 71 5d bc 8e 7a 3e bd 07 b9 a3 bd
       -0.018174905 -0.013515864 -0.046503596 -0.079942755
0002a0 9b e4 bc bb 77 55 2f bd 0d ac a9 bc 24 d3 93 3c
       -0.0057645566 -0.042806115 -0.020711923 0.018045016
0002b0 35 10 54 bd 49 52 37 bd cf d4 4a 3d f0 90 0e 3e
       -0.05177327 -0.044756208 0.049519356 0.13922477
0002c0 1f 88 92 3d 80 05 ce 3d 7d f9 30 3c 09 f2 0b bc
       0.07154869 0.10059643 0.01080167 -0.008541592
0002d0 f3 4a 67 bd d3 31 d5 3d ef 42 a7 bd e4 ac 1f bd
       -0.05646796 0.10409894 -0.081670634 -0.03898324
0002e0 59 5c bb bd 7a 9a 43 3e fa 35 d6 be e8 b1 29 bd
       -0.09148473 0.19101897 -0.41838056 -0.04142943
0002f0 49 9d 79 3d ea 98 1c 3d d4 63 6a 3e 21 48 00 be
       0.060941014 0.038231768 0.22889644 -0.12527515
000300 06 62 ac bd 17 fe 00 3e ca af 3f 3e b5 31 36 bd
       -0.08417134 0.12596928 0.18719402 -0.044480998
000310 81 d1 11 3e 83 de 9b 3d 5c a3 9e 3d d2 9b f3 bd
       0.14240076 0.076108 0.07746002 -0.11894955
000320 6d 8a e7 3d 2b 71 e4 bd ec 5e 84 3d 3b 48 97 3c
       0.113056995 -0.111543976 0.064634174 0.01846706
000330 4a 8b 84 3d 1b 58 d1 3b bb e1 62 bc 0d 68 51 3c
       0.0647188 0.006388677 -0.013847764 0.012781155
000340 4a fb d9 3c 16 f1 39 bd 3f a6 93 bd 12 f0 89 3d
       0.026609082 -0.045395933 -0.07209443 0.06735243
000350 ec 0f 71 bd 15 4e 25 3d cf 5d 91 3d af 92 1f 3e
       -0.058853075 0.040357668 0.07097971 0.15583299
000360 99 5c 7b 3d 47 6d ca 3c 2a 72 9e bd 6e 89 e8 3c
       0.061367605 0.02471031 -0.07736619 0.028385844
000370 42 44 51 bd 45 c0 70 3d d6 c1 62 be 4c c1 d4 be
       -0.051090486 0.058777113 -0.22144255 -0.41553724
000380 37 0c 2f 3d 77 0a bf bd ec 64 42 3b 02 a5 8b 3e
       0.04273626 -0.09328168 0.0029662205 0.27274328
000390 aa 8e 5d 3e 80 33 e7 3d 9d 87 43 3c db b8 9b bd
       0.21636453 0.1128912 0.011934188 -0.07603618
0003a0 e5 f3 20 3d bf a4 22 3c d3 22 22 3c 7c 61 4c bc
       0.039295096 0.009926974 0.009895998 -0.012474414
0003b0 94 b0 f9 bc b4 58 17 3e 7d 00 11 bc 5a d6 b5 bd
       -0.030479707 0.14779931 -0.008850214 -0.08878775
0003c0 37 07 cf ba 3c bb de ba 3b 8b 50 bd 60 22 3a bb
       -0.0015794997 -0.0016993056 -0.05091403 -0.0028401837
0003d0 97 bf 5d 3d f5 02 47 3a 91 67 3a bd 1c ae 40 bd
       0.054137792 0.0007591688 -0.045508925 -0.047041044
0003e0 1c 25 93 bd 88 a8 50 3d ee 3d 0e 3d 02 ac 04 3d
       -0.071848124 0.050941974 0.03472703 0.032390602
0003f0 33 7f c3 3c 9d b2 82 3d 0e db 06 3d c0 b8 b0 bc
       0.023864364 0.06381724 0.03292375 -0.02157247

net.net.0.bias f4 [256]
000000 23 45 4b 3e b7 66 3e be 43 c2 af 3e 56 7b 2c 3e
       0.19850592 -0.1859387 0.34327897 0.16843924
000010 e0 e5 53 bb 59 59 53 3e f9 a0 40 3e e1 58 e5 bd
       -0.003233306 0.20639552 0.18811406 -0.11198593
000020 6c e8 42 3d 43 e2 5b be dc 01 12 be be 29 a3 be
       0.047584936 -0.21473031 -0.14258522 -0.31867784
000030 b2 d5 8f be 59 68 87 bd 35 c6 11 be 78 78 a0 bc
       -0.28092724 -0.066116996 -0.14235766 -0.019588694
000040 41 8c ac bd 8c ff 3e 3e af 73 9d 3e 96 f2 e7 3d
       -0.08425189 0.18652171 0.30752322 0.113255665
000050 d2 16 82 bd a9 cc 9c be b0 7a 24 3e 8b 07 e3 bc
       -0.06352009 -0.30624893 0.16062427 -0.027713558
000060 e6 10 4b be b4 d8 c3 bd 49 dd 28 3d 18 c4 91 bd
       -0.19830665 -0.09562817 0.04122666 -0.0711748
000070 a7 14 44 bd ab aa e5 3d 3b 0f ab be f4 f7 05 bd
       -0.047871258 0.11214193 -0.33410057 -0.03270717
000080 a3 0e 7d be c9 b9 cd be 82 bf 02 3e 06 8d 55 3e
       -0.24712615 -0.40180805 0.12768367 0.20854577
000090 b8 5b 7d bd 48 e8 37 bd f8 30 b4 3c ef dd 93 3d
       -0.061855048 -0.044899255 0.021996006 0.07220065
0000a0 7a 1e 10 be 1c ee cd 3c 52 a3 ae 3e f4 59 a7 be
       -0.14074126 0.025137953 0.3410898 -0.32685816
0000b0 ff 61 8f 3d 9f ba ae 3e 0a 32 7f 3e 7f a5 2a be
       0.07001113 0.34126756 0.24921432 -0.16664694
0000c0 4d da 8e bd 70 7f 4d be 93 86 ae 3e 8b 47 cd bd
       -0.06975231 -0.20068145 0.34087047 -0.10023411
0000d0 16 51 9c 3d 7d 49 81 3d c3 cd b3 3d 2c 7f e8 3d
       0.076326534 0.06312845 0.0877948 0.11352381
0000e0 17 67 32 be 90 b6 35 3e d2 06 02 be 37 68 dc 3e
       -0.17422138 0.17745423 -0.12697914 0.4304826
0000f0 75 d2 64 be 6b 3a fa bd 51 0c 35 3e f5 32 a1 3e
       -0.22345908 -0.122181736 0.1768048 0.3148419
000100 26 a9 a1 3e 6f ad 89 3d f3 42 9e be b9 b8 3f be
       0.31574363 0.06722533 -0.30910453 -0.1872281
000110 6a 6e 91 3e 1d 89 64 3c e2 2d 00 bb ee 1f 5c bd
       0.28404552 0.013948706 -0.0019558598 -0.053741388
000120 c7 b0 04 3e 79 1d 95 bc 5c 86 00 be 57 6d 31 3e
       0.1295806 -0.01820253 -0.12551254 0.17326866
000130 8b 9d a9 bd 17 05 49 bc c0 6f 77 3c 4d a1 1f 3e
       -0.08282002 -0.01226928 0.015102327 0.15588875
000140 c6 ae 2d 3e 1c 47 99 3e 41 ed ad 3e b6 65 8f be
       0.16961202 0.29937065 0.33970073 -0.28007287
000150 07 9b 7a be c4 99 26 be fc a9 ef 3d 95 f5 ab 3d
       -0.244732 -0.16269594 0.11702344 0.083964504
000160 47 74 a4 3d 69 d6 bf bd 65 74 b7 be c2 3b 79 bd
       0.08029991 -0.09367067 -0.3583099 -0.060848005
000170 6a 5b 94 3d 43 80 af 3e 94 1d 8c 3e 6f e4 93 3e
       0.07243998 0.34277543 0.27366316 0.28885219
000180 ea f4 5e 3e 9c be af bd 49 02 c6 3d 46 08 4d 3e
       0.21773115 -0.08581278 0.096684046 0.20022687
000190 7d 70 27 3d 54 76 23 3e 89 d0 9d be ed 1d e8 3d
       0.04087876 0.15963107 -0.30823162 0.11333833
0001a0 e4 e1 5e bd 4f 7d 8e 3e cf 26 87 3e d0 f0 14 be
       -0.054414645 0.27829978 0.26396796 -0.14544988
0001b0 7c 58 2f 3e 9c 13 a8 bc 8e b6 66 be 0b 39 3c 3d
       0.17123598 -0.020517163 -0.22530577 0.045952838
0001c0 eb 41 f4 3c 43 32 43 3e e3 69 94 be 94 7f f6 3d
       0.029816588 0.19062142 -0.28987035 0.12036052
0001d0 d5 31 6e bd 52 d2 ba bb 01 e9 c1 3d b5 be 1d be
       -0.058152992 -0.0057013417 0.0946827 -0.1540478
0001e0 55 2c 85 be 3f 62 a4 be c3 2d 2e bd 70 7d 3c 3e
       -0.26010385 -0.32106206 -0.04252411 0.18407226
0001f0 91 da 7e 3e 16 ad 02 3d be c0 14 be 58 1a b0 3d
       0.24888064 0.03190335 -0.1452665 0.08598775
000200 d0 57 cd 3d e8 bb 94 bd 49 49 4d 3e 7d b5 b7 bd
       0.100265145 -0.07262403 0.20047487 -0.08970163
000210 65 ad 39 be 8f 7b 8f 3d 4e 63 9c be 51 41 70 bd
       -0.18132551 0.07005989 -0.30544513 -0.05865604
000220 ab f4 74 3d a6 f8 2f be a3 ba 0b 3f 1c ef 3d 3e
       0.059803646 -0.17184696 0.5458166 0.18548244
000230 2e a4 4e 3e c9 dc 09 3d 9b 7c 57 3e 86 cf 0a be
       0.20179817 0.033657823 0.21043627 -0.13555726
000240 07 ae 60 bd 80 f9 44 3e 9d 11 bf bc dc 3b 74 be
       -0.054853465 0.19235802 -0.023323828 -0.2385096
000250 1e bf 3f be 70 33 45 3c ef 8d f4 3d 6b d7 0c be
       -0.18725249 0.012036189 0.11941134 -0.1375405
000260 07 5d b2 3d 26 49 92 3e 54 35 99 bc e3 d8 44 3e
       0.0870915 0.28571433 -0.018702187 0.1922336
000270 d4 35 a8 be b8 21 30 be 2d 8e c0 bd 57 ca 6e 3e
       -0.32853568 -0.17200363 -0.09402118 0.23319374
000280 9a 3d 1f be 70 b9 7b 3e 31 6e fb bd 7c 63 30 be
       -0.15550843 0.24582458 -0.12276877 -0.1722545
000290 ee 4b 82 be cd 55 82 3c 6b fa b8 3d 25 25 18 be
       -0.25448555 0.015910054 0.090321384 -0.1485792
0002a0 cf 3a c5 bd 00 28 8a 3d a9 3c 23 be 6e a2 10 bd
       -0.096303575 0.06745911 -0.15941109 -0.035311155
0002b0 3b 08 38 bd da e9 9a 3e 3c 8a 31 bd 5d b7 a3 be
       -0.044929724 0.3025654 -0.04334472 -0.31975833
0002c0 be 69 94 3e 44 06 a5 3e c6 5a a2 3b 35 b7 96 be
       0.28986925 0.32231343 0.0049546687 -0.2943665
0002d0 15 76 c3 3c 91 b7 31 3c bd 11 48 be b6 e7 24 be
       0.023860017 0.010846988 -0.19538017 -0.16104016
0002e0 3d 1d 5c 3b 40 af 3d 3e e5 18 13 3e e6 5f 6d bd
       0.0033586763 0.18523884 0.14364965 -0.057952784
0002f0 a0 ab 9d be 84 3f b1 be 3d ae 87 3c 94 7e 3b 3d
       -0.30795002 -0.3461877 0.016562575 0.04577501
000300 71 e9 0a bd 6b d2 ab bd d9 a6 2a bc 07 ed 6b be
       -0.033914033 -0.083897434 -0.010415756 -0.23039638
000310 a7 8e d6 bd 71 31 2d 3c 35 3b 5d 3e 62 25 d1 3e
       -0.104764275 0.01057087 0.21604617 0.40848833
000320 75 08 cb 3d c2 5b 88 3d 2b 78 15 be c1 0a 14 be
       0.099137224 0.066581264 -0.14596622 -0.14457227
000330 59 01 8b 3d 5f 51 83 3e de 50 17 be aa c7 6a 38
       0.067873664 0.2564802 -0.14776942 5.59759e-05
000340 eb 47 49 be 2a 95 07 3c e4 75 a9 3e 06 84 05 3e
       -0.19656341 0.00827531 0.33097756 0.13038644
000350 a8 61 c1 bd b4 af 07 3e 98 7c d4 bd 24 ff f8 3d
       -0.094424546 0.13250619 -0.10375327 0.12158039
000360 29 b1 20 be 3f 5d 82 be 37 6c 1c 3e 3a c1 52 3b
       -0.15692581 -0.25461766 0.15275656 0.003215863
000370 d4 49 13 be cf 41 ff bd d1 18 43 3c c4 c7 e7 bd
       -0.14383632 -0.12463724 0.011907772 -0.11317399
000380 1d d9 01 3e ed b4 35 be e9 d6 5b be 6e c7 6f be
       0.12680478 -0.17744799 -0.214687 -0.2341592
000390 c1 dc 3f be 58 7b 7a 3e 62 6b 5e bd 87 b5 52 be
       -0.18736555 0.24461114 -0.054301627 -0.2057706
0003a0 fb bd 0d 3e b7 51 a4 bd f5 8c f4 bd 8a c8 32 be
       0.13842003 -0.08023398 -0.11940948 -0.17459312
0003b0 47 12 59 3e d8 2c 0b 3e 64 2e 90 3e 7f 44 df bd
       0.21198379 0.13591325 0.28160393 -0.109017365
0003c0 aa e9 e7 3d f2 35 68 3e 83 a4 a4 bd 0d 0f 5c 3e
       0.11323865 0.22676829 -0.080391906 0.21490116
0003d0 17 4e ad 3d 34 5e 66 be 5d f5 99 3d 4c 1e 49 bd
       0.0846216 -0.22496873 0.075175025 -0.04910116
0003e0 7a 08 41 3e 36 04 15 3b 8c e0 4e 3e 8c 6b 89 3d
       0.1885089 0.0022738106 0.20202845 0.06709966
0003f0 50 66 15 3e a1 59 7e be d4 0e 31 be 18 9c 90 3d
       0.1458981 -0.24838878 -0.17290813 0.070610225
