generated_data/iql_hopper_medium_replay_v2_seed1.pt (torch, 842140 bytes, 16 tensors)

backbone.net.0.weight f4 [256, 11]
000000 d7 d7 43 3d b3 e6 47 be f3 23 b1 be d4 54 15 be
       0.047813263 -0.19521599 -0.3459774 -0.1458314
000010 78 a0 a3 3c a0 3c 1b be b6 b7 a2 bd eb 1c ca 3d
       0.019973978 -0.15159845 -0.07945196 0.09868797
000020 bc f7 cf 3d a3 7e 28 be 7f 44 c1 3e 8b a7 b1 bc
       0.101546735 -0.16454558 0.3774757 -0.021686336
000030 8b 35 24 3e 66 82 91 be 0c 78 5d 3e e7 df 72 3e
       0.1603605 -0.284198 0.21627825 0.23718224
000040 f3 cb c9 be e5 70 ce 3e 34 34 26 be a3 fa 53 bd
       -0.39413413 0.40320507 -0.16230851 -0.051752698
000050 ba cc b6 bc ab 27 87 3e 24 b8 71 3e d4 12 23 3e
       -0.022314418 0.26397452 0.236054 0.15925151
000060 d4 d8 b8 bd f8 8e 90 3e ad 0b 21 3e 6a 02 53 3e
       -0.09025732 0.28234076 0.1572711 0.2060639
000070 fe 0b 82 be 45 39 c3 3d 14 3c af bd ed ad 22 3e
       -0.25399774 0.09532408 -0.08556381 0.1588666
000080 ad b2 1f 3e b3 76 f8 bc 76 4c 85 bd e4 93 f9 3c
       0.15595503 -0.030330038 -0.065087244 0.030466028
000090 d9 cf d7 3d d1 8d fb 3d 0e eb 0a be 55 31 29 3f
       0.10537691 0.12282909 -0.13566229 0.660909
0000a0 57 70 e6 3d 0f 7c 11 3c 21 35 40 be c7 7c 4a be
       0.11251896 0.0088796755 -0.18770267 -0.19774161
0000b0 66 f7 90 be 19 81 f8 bd 49 30 d2 bd d2 96 e5 3d
       -0.2831375 -0.121339984 -0.10263116 0.11210407
0000c0 3d 06 a2 ba fe 67 c6 be 27 d8 6f 3e bf aa 6d 3d
       -0.0012361478 -0.38751215 0.234223 0.058024164
0000d0 94 f5 3b be ed d1 7c bd c0 98 63 be f2 6a 58 3e
       -0.183554 -0.06172364 -0.22226238 0.21134546
0000e0 ec 4a 25 3e 2b 13 dd be 40 75 56 3e 0f 20 9c bd
       0.16141862 -0.43178686 0.20943165 -0.07623302
0000f0 ff 1e b3 3e 3f 27 98 3c 55 35 e4 3d 87 fa 92 bd
       0.34984586 0.018573401 0.11142985 -0.071766905
000100 35 f4 db bd 07 e1 ae be 6e c5 98 bd b9 f6 93 bd
       -0.10739938 -0.34156057 -0.07459532 -0.07224793
000110 b2 64 dd bd 8b 8e 8c 3c fa b6 cf bc 28 1d 8a 3e
       -0.10810222 0.017157814 -0.025355805 0.2697537
000120 f6 4b 7e 3d 96 de 81 be b0 13 d3 3e 2b 6a 6e 3e
       0.06208416 -0.25365132 0.41225958 0.23282687
000130 93 15 ce be fc 99 47 3e e5 c1 d2 3c d5 f4 7b be
       -0.40250835 0.19492334 0.025727222 -0.24605115
000140 08 75 89 3e 4a 32 1c be e3 94 99 3d 3f 7b 70 3d
       0.268471 -0.15253559 0.07499101 0.058711287
000150 f4 32 b9 bd 47 b7 80 be aa 60 78 3e b2 04 71 3e
       -0.09042922 -0.2513983 0.24255624 0.23536947
000160 1c f0 98 3e 28 05 d7 3c a4 6f 2b 3e 6e 6b 44 3e
       0.2987069 0.026247576 0.16741806 0.19181606
000170 ab 6b 4c 3e 0b 48 52 3e 9b 4f 85 be 7f 11 91 3c
       0.19962947 0.20535295 -0.26037297 0.017708538
000180 55 98 0b be e9 5d e8 3d fc ec 2f 3d 32 28 11 be
       -0.13632329 0.11346037 0.042950615 -0.1417549
000190 d8 85 e7 be 80 11 4a bd da a6 7e 3d 9f 92 d4 be
       -0.45219302 -0.049333096 0.06217084 -0.41518113
0001a0 f7 91 98 3e d8 00 35 3e 30 48 e4 bd e4 4a 04 3e
       0.29798862 0.17676103 -0.11146581 0.12919194
0001b0 96 3d 77 3c 8f 05 86 bc 73 b2 56 be 2d b8 95 3d
       0.015090367 -0.016360072 -0.2096651 0.07310519
0001c0 62 52 9e 3e ba 50 aa 3e 77 8d 9e 3d f4 35 bd 3e
       0.30922228 0.33264714 0.07741826 0.36955225
0001d0 28 27 ab 3d 10 61 9d bd 83 e8 53 bd 08 48 2f be
       0.08357078 -0.07684529 -0.051735412 -0.17117321
0001e0 1e 58 d2 be b5 48 1c be 1e 66 75 bd d9 f0 8b bd
       -0.41082853 -0.1526211 -0.05991184 -0.068330474
0001f0 39 3c d9 bd 54 17 38 3d 1a a6 49 be 40 d4 75 be
       -0.1060719 0.044944122 -0.19692269 -0.24006748
000200 5e 9e 36 bd e7 2d 94 be 3c 9b e8 3d 10 00 f7 3e
       -0.044584624 -0.2894127 0.113577336 0.48242235
000210 51 e2 f2 bd 62 c0 ff bd 16 05 a5 be 48 0a 1b be
       -0.11859573 -0.12487866 -0.32230443 -0.1514064
000220 ec c7 e1 3e b2 80 75 3d 3c c5 a2 be 31 81 80 be
       0.4409784 0.059937187 -0.31791103 -0.25098565
000230 d0 1a 79 3e 2d 4c 25 3e 37 ee ff bd 94 58 45 be
       0.24326634 0.1614234 -0.12496608 -0.19272071
000240 6e 7a e7 bb fa 0d fb 3c ae 1f 44 bd 22 8d 30 3e
       -0.0070641553 0.030646313 -0.047881775 0.17241338
000250 e2 bb bd 3e f3 ab 32 be cb 21 5c be fa a5 02 3e
       0.37057406 -0.17448406 -0.21497266 0.12758628
000260 0b 1e 42 bd 1f 9c c7 3e 7e 84 64 be ab ea bf be
       -0.047391932 0.38986298 -0.22316167 -0.37483725
000270 8f 9e 55 3e 9a b9 e8 3e 54 9d 29 3e 29 0b 30 be
       0.20861267 0.45454103 0.16563922 -0.17191757
000280 84 65 bf 3d a1 1b 74 3e 49 5a b1 3d 9e 74 38 bd
       0.093455344 0.23838665 0.08659799 -0.04503309
000290 e7 b2 9c bd 5c 33 26 bd 45 eb c9 bd fe 3d 07 be
       -0.076513104 -0.040576324 -0.09859327 -0.13207242
0002a0 75 e4 25 3e 2b 1f 4e be ea ed ad 3d 90 80 df bd
       0.1620043 -0.20129077 0.08492644 -0.10913193
0002b0 72 02 2c be 96 02 1a be 7a bd 69 3e d5 c6 a6 be
       -0.16797808 -0.15040049 0.22826186 -0.32573572
0002c0 39 9b e4 be f2 56 a4 3d 83 1a 79 3e e3 c9 4a 3e
       -0.44649675 0.08024396 0.2432652 0.19803576
0002d0 d3 bb 19 be 5e c7 8e be 81 fa b1 3d 04 d9 19 3e
       -0.15013056 -0.2788648 0.08690358 0.15024191
0002e0 8f ea 8c be 6e 4f 70 be 36 43 50 be 35 b1 01 3e
       -0.27522704 -0.234678 -0.20338139 0.12665255
0002f0 c6 23 d3 be 4b f3 e9 bd 39 77 14 be 58 db a5 be
       -0.4123823 -0.114233576 -0.14498605 -0.32393909
000300 3b f2 0c be 5c 11 5e 3e 32 98 1e 3d 47 18 65 3e
       -0.13764279 0.2168631 0.038719364 0.22372542
000310 9e 8c 82 3e 62 38 08 3f fd 50 73 3e d3 d1 9b 3e
       0.25497907 0.53211033 0.23761363 0.3043352
000320 9c 06 94 3e 30 4c 16 be 02 e5 46 bd 83 10 7d bd
       0.28911293 -0.146775 -0.048558243 -0.061783325
000330 a9 ad 3c 3e 15 26 46 bc e0 4a c0 3d 4e 97 a5 3b
       0.18425621 -0.01209404 0.09389281 0.0050534373
000340 8e e4 bc 3d f5 18 e5 3d 69 80 83 3d 17 5e 90 be
       0.09223281 0.11186401 0.06420977 -0.28196785
000350 d3 0d d9 bc 5c e6 89 bd 87 ee ee bd 86 9a 0e 3f
       -0.02649585 -0.06733391 -0.11666589 0.55704534
000360 74 ea 2f 3e 3e fe 79 be 63 13 4f be e7 8b 3e 3e
       0.1717928 -0.24413392 -0.20222239 0.18608056
000370 f3 f2 77 be 22 7d 54 be 44 98 26 be eb ab 4a bd
       -0.24213772 -0.2075086 -0.16269022 -0.04948036
000380 d4 09 5e be bb 0b 28 bd 10 a3 88 3e 4d 64 89 3e
       -0.21683437 -0.041026812 0.26686907 0.26834336
000390 0b 98 8f be 40 0f 84 3d b2 72 c2 3e 50 f5 55 be
       -0.28045687 0.06448221 0.3797813 -0.2089436
0003a0 1d 64 2a 3e 73 a4 f4 be 0e 3d 17 3f 07 47 67 bd
       0.16639753 -0.47781715 0.5907754 -0.05646422
0003b0 ba a9 e5 be de a4 b9 3e 1a 40 13 3e 07 be d1 3d
       -0.44856054 0.36258596 0.14379922 0.10241323
0003c0 bd 96 40 bd dc d5 f4 bd 17 ad 1f be 25 09 f9 bd
       -0.047018755 -0.11954853 -0.15593372 -0.12159947
0003d0 97 07 79 3e 2c de 3d 3e 42 e8 27 bc 89 2e e3 be
       0.24319302 0.18541783 -0.010248246 -0.4437144
0003e0 c6 e7 bc be 8f 17 d9 bc b4 02 d3 3e 22 6f f6 3d
       -0.3689558 -0.026500491 0.41213 0.12032916
0003f0 88 a4 fd 3d 57 74 de 3d 31 b4 ee bd 03 c5 85 3e
       0.123848975 0.10862034 -0.116554625 0.2612687

backbone.net.0.bias f4 [256]
000000 92 f0 13 3e 8d 2f ae 3c bb b7 89 3e 20 84 fb be
       0.14447239 0.021262908 0.26897988 -0.4912424
000010 7f 07 3e 3e 25 48 53 be 59 ba 2b be 1e 4a de 3c
       0.18557547 -0.2063299 -0.16770305 0.027134951
000020 60 6b d5 3d 19 f1 d8 bd 1b 1b c5 be 2d 5c a4 be
       0.10420871 -0.10592861 -0.38497242 -0.32101575
000030 37 09 bf be 29 bf 2c bd 57 32 bb be ba 95 cf be
       -0.37311718 -0.042174492 -0.36561844 -0.4054392
000040 e7 5d b4 bd 86 dc 07 bb b7 fe 04 bf 5e 17 df 3d
       -0.08806973 -0.0020730807 -0.51951164 0.10893129
000050 23 3a a9 3d 36 3a 21 be ca 05 bf be cb 24 81 be
       0.08263042 -0.15744862 -0.37309104 -0.25223383
000060 91 31 e7 be 92 50 c6 3d 3f 1c 7b be da ae 27 3a
       -0.45155004 0.09683336 -0.24522494 0.00063965993
000070 71 2e 82 be 5e 9e a4 3d 8d 2c a0 be af 20 59 bd
       -0.25426057 0.08038019 -0.3128399 -0.053009685
000080 72 bc 61 be 70 b0 77 be fc e9 f8 3d 85 2d bf 3d
       -0.22044542 -0.241884 0.12154004 0.09334854
000090 1d 41 11 bd fa 5b 77 be ce 79 60 3d 01 b2 80 be
       -0.035462487 -0.2415618 0.054803662 -0.25135806
0000a0 53 0a da bd 62 69 02 bc 7a 8e 3f be 92 fd e6 3d
       -0.106465004 -0.0079596955 -0.18706694 0.112788334
0000b0 98 52 c2 bd d2 fd 56 3e 31 1b d5 bd 75 f1 b7 be
       -0.0948841 0.20995262 -0.10405577 -0.35926405
0000c0 86 41 80 be d3 f6 62 be f8 ea 37 3d ce ce d8 be
       -0.2504999 -0.22164468 0.044901818 -0.4234528
0000d0 a7 a4 2a 3e 6e d8 e1 bd 34 4b a0 3c 0e 23 97 3d
       0.16664372 -0.11027609 0.01956711 0.07379733
0000e0 44 57 33 3c f8 b6 89 be c1 0c 05 be 27 58 97 be
       0.010946099 -0.26897407 -0.12993146 -0.29559442
0000f0 3a 65 15 3e 66 95 e6 3d 74 30 74 be 75 8e 4d be
       0.14589396 0.11258964 -0.23846608 -0.20073874
000100 f8 d5 ac 3d da 47 79 3e 48 50 4f be 15 bf 3b bd
       0.08439249 0.24343815 -0.20245469 -0.045836527
000110 90 c5 91 be 48 a2 08 be a6 a5 77 be ee bf a0 be
       -0.2847104 -0.13343155 -0.24184284 -0.3139643
000120 cf e5 97 bd a8 9f 24 3e f7 ec 14 3e 9d 09 35 3d
       -0.074168794 0.16076529 0.1454352 0.04419862
000130 17 5f 91 3e ba ce bf 39 ee 8d 81 3d 80 31 85 be
       0.2839286 0.00036584382 0.06325899 -0.26014328
000140 c0 3f b8 be 91 86 6f be 16 1e d7 bc 80 13 37 be
       -0.35986137 -0.23391177 -0.026259463 -0.17878532
000150 59 7b 14 be af 40 28 be a8 39 c0 be a5 87 5d be
       -0.14500178 -0.16430925 -0.37543988 -0.21633776
000160 d9 46 ae be 28 c1 87 be 41 92 17 3e 03 98 13 3d
       -0.34038427 -0.26514554 0.14801885 0.03603364
000170 89 be 10 be 83 cb 43 3d 6f 65 b4 3b df f0 13 be
       -0.14135183 0.047801506 0.005505256 -0.14447354
000180 73 75 2e 3e 25 32 c6 3d d0 99 85 be 05 5d 6d be
       0.17036991 0.09677533 -0.26093912 -0.23180015
000190 09 c5 59 3e 5e e6 ee be 2b 1a 38 be 58 71 d3 bb
       0.21266569 -0.4666013 -0.17978732 -0.0064527206
0001a0 22 a2 9e 3c 17 58 df bd de 9e e8 3c da f5 8c bd
       0.01936442 -0.10905474 0.028396066 -0.0688283
0001b0 df 78 ca bd 76 63 8e be df f0 5e be b5 3d 24 3e
       -0.098863356 -0.27810258 -0.21771573 0.16039164
0001c0 e5 c3 91 be 3d 91 92 3a 2d 49 a6 3c 18 97 e8 3d
       -0.28469768 0.00111822 0.020298565 0.11356944
0001d0 2c 14 5a 3e 5c 76 8b 3e d4 88 51 be 85 34 34 be
       0.21296757 0.2723874 -0.20462352 -0.1759816
0001e0 8a 74 fc 3a e6 08 85 3d f7 bf 99 bd 01 b9 1d be
       0.0019260806 0.06495838 -0.075073175 -0.15402605
0001f0 9b 98 43 bd 2f 89 85 3e 66 5c 31 bd 45 6c 82 3e
       -0.047752958 0.26081225 -0.04330101 0.25473228
000200 83 6e f1 3c 5d b3 05 bd 1a 06 b1 bd 3b c8 48 bd
       0.029471641 -0.032641757 -0.08643742 -0.04901908
000210 9a 18 51 3e dc 5a 86 be a8 1d b6 3d 91 74 ae be
       0.20419541 -0.26241195 0.08892375 -0.34073308
000220 f6 77 36 3e eb af e2 be 93 65 90 be 9a 15 0a bd
       0.17819199 -0.4427484 -0.28202495 -0.033712007
000230 ff 89 8c be 47 8d 67 3e 95 f5 72 bd 1d 8c 92 3e
       -0.27449033 0.22612487 -0.059316237 0.28622523
000240 28 7f 29 be 54 fb 5d 3e 2b 33 2f 3e 74 cf 89 be
       -0.16552413 0.21677905 0.17109363 -0.26916087
000250 97 3d d7 bc 08 49 5c be 77 21 6e 3d 23 20 96 be
       -0.026274486 -0.21512234 0.058137383 -0.29321393
000260 49 df e6 bd f3 9c b8 3c 3e 6f 74 3e c4 e5 2a be
       -0.11273057 0.022535777 0.2387056 -0.16689211
000270 ac e6 fb bd 39 11 b0 be 9f 5d ae be d1 50 9c 3d
       -0.122998565 -0.3438814 -0.34055802 0.07632602
000280 cd 84 ad 3e 61 89 32 be 46 32 a1 bd e4 47 35 3e
       0.3389038 -0.17435218 -0.07870917 0.17703205
000290 d2 cf 93 be 76 35 3d 3d fe b4 6e be d3 01 52 3e
       -0.28869492 0.046193562 -0.2331123 0.20508508
0002a0 17 95 24 3e 0f 31 ab 3d 1e c1 bb be 69 8a d7 be
       0.16072498 0.083589666 -0.36670774 -0.42097786
0002b0 e0 03 b0 be fc 48 82 bd 8d 65 48 3e 27 8b ac bd
       -0.34377956 -0.06361577 0.19569989 -0.08424979
0002c0 bb 45 90 be 74 03 c1 bd 61 4c 9f be 51 0c cc be
       -0.281782 -0.09424487 -0.3111296 -0.39853147
0002d0 cb 9a 8c 3e 5c ac b2 3e 88 aa d4 bc 53 ba 31 3e
       0.27461848 0.34897125 -0.025960222 0.17356233
0002e0 63 22 a6 be f6 f0 99 bd 7e ca 07 3e 2f fc 5a bd
       -0.3244811 -0.07516663 0.13260838 -0.053463157
0002f0 80 4a e8 bd 65 a1 64 be a5 ea db bd 73 f6 69 be
       -0.11342335 -0.22327192 -0.10738114 -0.22847919
000300 38 bc 5a be d9 ca 27 bd b0 b7 55 3e 82 c7 4e bd
       -0.21360862 -0.040964935 0.20870852 -0.050483234
000310 79 6d 0d be d7 ff c4 be 1a 46 2a bc c3 13 d8 be
       -0.13811292 -0.3847644 -0.01039269 -0.42202577
000320 6e 20 9c be f9 b4 6f be a3 11 75 be 9d e4 3e be
       -0.30493492 -0.2340888 -0.23932509 -0.18641897
000330 d6 0e a1 3e a1 40 9b bc 69 18 ba be 76 88 7a bc
       0.3145663 -0.018951716 -0.36346748 -0.015291324
000340 46 c9 fb 3d cc 49 3c be 68 c0 1e 3e 22 58 bc 3c
       0.12294249 -0.18387526 0.15503085 0.022991244
000350 aa dd d4 bd 07 d5 cf 3d 6b cf 1d be 85 45 90 be
       -0.103938416 0.101480536 -0.15411155 -0.2817804
000360 f8 ae c7 be d1 f3 6e be 05 3e f6 3d 79 fa 47 3e
       -0.39000678 -0.23335196 0.12023548 0.19529141
000370 49 7e de be 18 af 9c 3c 2d 79 91 be c5 78 cb bd
       -0.43455723 0.01912646 -0.28412762 -0.09935144
000380 e6 a7 29 3e f9 a4 9c bd 8c e8 a2 3d 52 71 2d 3e
       0.16567954 -0.076486535 0.07954511 0.1693776
000390 2a bb c7 be 24 04 a5 3a a6 4e 7c bd 3a ca a4 be
       -0.39009982 0.0012589735 -0.061598442 -0.32185537
0003a0 3c 20 a6 be 88 84 88 3d bc 8f 8d bd e7 c5 70 be
       -0.32446468 0.06665903 -0.06912181 -0.23512994
0003b0 b8 0a a2 be c0 51 b1 be 9f 8e 61 be 70 9a 2d 3d
       -0.31648803 -0.34632683 -0.22027062 0.04238361
0003c0 11 d5 87 bc 98 37 cd be 11 b2 ed 3d 62 37 94 3e
       -0.01658109 -0.40081477 0.11606229 0.28948504
0003d0 a3 c2 0c be ba 85 66 3e 99 f5 b1 bd 4d 67 74 bd
       -0.13746123 0.2251195 -0.08689422 -0.059668828
0003e0 9c d0 15 be 47 1c f5 be 6a 38 e1 be f4 82 ca 3d
       -0.1463036 -0.47873136 -0.43988353 0.098882586
0003f0 5b c3 b8 be 20 ac c2 bd 8a 87 a5 be 03 29 8c be
       -0.36086544 -0.095054865 -0.3232997 -0.2737504

backbone.net.2.weight f4 [256, 256]
000000 91 6f d2 bd 71 06 c1 bd 3d fe 27 3d 23 99 34 3c
       -0.10275186 -0.09425057 0.041013945 0.011022839
000010 eb c0 6d bd 26 8b f4 3d 78 53 87 bd e1 86 9f 3d
       -0.05804531 0.11940603 -0.06607717 0.07789398
000020 91 5f 29 3d 7c 27 50 3d 99 63 03 3d 70 21 c6 3c
       0.041350905 0.050818905 0.032077406 0.024185866
000030 e5 1a 54 be 45 a9 e4 bc 9f f6 58 be 24 77 df bc
       -0.20713384 -0.027912745 -0.21187828 -0.02727849
000040 c8 82 9f 3d 51 7a d9 3c 92 82 20 3d 9f 56 4b 3d
       0.077886164 0.026547583 0.03918702 0.049643155
000050 e3 11 31 3d cf 01 c4 bd 0c df 48 3d aa 6a 03 bd
       0.04322995 -0.095706575 0.04904084 -0.032084145
000060 78 b9 14 be 0f 6e 00 be 59 5e 40 be ed 5e 0b 3e
       -0.14523876 -0.12541984 -0.18785991 0.1361043
000070 62 5b 93 3c 0c dc 9d 3d 06 4d 39 bd cc dd a9 3d
       0.01798791 0.07707986 -0.04523947 0.082942575
000080 41 e2 9e bd 54 fa ff bb 44 f8 c5 3d 77 5c 66 bd
       -0.07757998 -0.007811824 0.096664935 -0.056240525
000090 df da 0b be 48 b3 8b 3c 5b 1d bd bd b0 56 f7 bd
       -0.13657711 0.017053261 -0.09234115 -0.12077081
0000a0 f1 fc fe 3c f5 08 e8 bd 88 f3 11 be 5c 97 ff 3c
       0.031126471 -0.113298334 -0.14253056 0.031200103
0000b0 fe 19 a3 bd 6d 5b d1 3d fb 63 e7 bc 56 55 fc bc
       -0.07963942 0.10222516 -0.028245917 -0.03080241
0000c0 22 ba 09 bd d9 de 7f bd 32 7e 0d be d8 6c 26 bd
       -0.033624776 -0.062468383 -0.13817671 -0.040631145
0000d0 c4 a1 3b bd df db 1f be 85 ab 0d 3d 6d 40 0c 3e
       -0.04580857 -0.15611218 0.034587402 0.13696451
0000e0 40 33 de 3d dc b7 e8 3c 47 dc a3 bc 63 cf 6c 3d
       0.10849619 0.028407983 -0.020002497 0.057814967
0000f0 a7 5b 83 bd 42 77 85 bd 27 59 88 3c 23 d8 49 3d
       -0.06413966 -0.06516887 0.016644074 0.04927839
000100 0f 56 d0 3d c6 65 99 3d 80 4c ba bc 62 a3 53 3d
       0.101726644 0.07490115 -0.022741556 0.051669486
000110 5e 93 92 bd f5 0f 11 bf bd dd f3 3d 51 8b 6a 3b
       -0.07157014 -0.56664973 0.119075276 0.0035788605
000120 46 91 07 3e 6a e8 a1 3c 15 50 a6 3d a0 55 32 bd
       0.13239011 0.019764144 0.08120743 -0.04353869
000130 70 36 9f 3d 6d 6d bb 3d a1 bb a2 bc 21 ea 94 bd
       0.07774055 0.09151731 -0.019864859 -0.07271219
000140 3e 84 49 3d 04 ee 10 bd 9d 2d 41 3c 5f 2e 80 3d
       0.04919838 -0.03538324 0.01179066 0.062588446
000150 a7 73 de 3d 00 20 41 3d e6 5b a3 3c a5 f3 cf bd
       0.10861903 0.04714966 0.019941282 -0.101538934
000160 2f 83 ec 3b 28 aa b1 3b a9 88 59 bd 0b de 0a bd
       0.0072177867 0.0054218955 -0.053108845 -0.033903163
000170 18 33 be 3d ff c9 38 3d 69 c9 43 bd 47 ba 3c bc
       0.09287089 0.045114513 -0.0477995 -0.011519021
000180 99 38 aa bd cc 8b 82 3d e6 74 86 bc b5 d5 83 3b
       -0.083115764 0.063743204 -0.016413163 0.0040232786
000190 4a ec 2c bd f5 e3 f6 bd 8e e0 b4 3d e3 bb e2 bc
       -0.04221753 -0.12055198 0.08831893 -0.027677482
0001a0 6a e2 90 3d 8c 49 14 bc a9 0f 6d bd 56 39 a4 3d
       0.07074435 -0.009050738 -0.057876263 0.080187485
0001b0 33 ac e3 3c 62 32 d3 bd 44 d9 61 3c f1 be 53 3c
       0.027792072 -0.10312344 0.01378471 0.012923942
0001c0 f0 2b c8 bb 4c 69 94 3c 40 72 2f bd ec 8e 73 3d
       -0.0061087534 0.018116616 -0.042833567 0.059462473
0001d0 66 44 9e 3c 44 94 38 3b d7 60 09 3e 5e a8 ab bc
       0.019319724 0.0028164545 0.13415848 -0.020954307
0001e0 3f fc 9b 3d 53 36 63 bc 6c 3c 59 3d 56 40 0c bd
       0.076164715 -0.013867932 0.05303614 -0.034241043
0001f0 f2 3d 10 bc 48 fd 43 3d 10 32 b0 bd 07 fb 33 3d
       -0.008803831 0.04784897 -0.08603299 0.04394057
000200 54 6d 4a 3d ce 78 9f bc 18 f0 11 3e bf db 88 bd
       0.04942067 -0.019466784 0.14251745 -0.06682538
000210 31 6a 6c 3d cf 87 09 3d fc ce 8a bb 08 b7 bc 3d
       0.05771846 0.033576783 -0.0042361002 0.09214598
000220 fd 55 1d be 13 61 a6 bd c7 37 9a bd d0 bf e7 bd
       -0.15364833 -0.08123984 -0.0753017 -0.11315882
000230 9f 0f b7 bd 34 28 40 3c d4 17 45 bd 68 e9 4c 3e
       -0.08938526 0.011728335 -0.048118427 0.20010912
000240 57 7c c9 bc c9 72 ea ba 6c 64 ee 3d 54 59 dc 3c
       -0.024595423 -0.0017886992 0.11640248 0.026898064
000250 6c c6 5c 3d 67 cd 41 3e 31 34 66 bd aa 59 1b bc
       0.053900167 0.18926011 -0.056202117 -0.009481827
000260 e3 65 56 3d a3 96 c1 3d 2c 9a 93 bd 2a 00 57 3d
       0.05234326 0.0945256 -0.0720714 0.05249039
000270 91 bb 51 3d da bb 48 be c9 1f 86 3d 0e 39 67 3d
       0.051204268 -0.1960291 0.06549031 0.056450896
000280 d9 47 a0 3c 3b ff 6b bc a8 c1 1b be 38 98 85 3d
       0.01956551 -0.014404113 -0.15210593 0.06523174
000290 00 0d df 3c 8e 74 ca bd 96 4c 0b bb 2f 7a 31 be
       0.027227879 -0.09885512 -0.0021255366 -0.17331766
0002a0 05 7a 01 3e 8c ed 98 bd 21 34 1d bd 15 d0 26 bd
       0.12644203 -0.074671835 -0.038379792 -0.040725786
0002b0 92 8e d4 3d 18 bd f1 bd 0a 0e 15 bc 11 18 db 3c
       0.10378756 -0.11803645 -0.009097585 0.026744874
0002c0 27 92 e2 3b 7c f3 97 bd 79 b2 d4 be ea ed c2 3b
       0.0069143954 -0.07419488 -0.41542414 0.0059487717
0002d0 78 22 9f 3d a8 6a a2 3c f4 3d fb 3c 3c ce 9d 3d
       0.07770246 0.019826248 0.03066919 0.07705352
0002e0 4c ad 96 3d 37 1c 45 3d ea 88 85 3b fa 22 40 3d
       0.073572725 0.04812261 0.0040751593 0.046908356
0002f0 d3 0a 35 3d b2 f5 4a 3d 47 a8 85 bd 4a 0d 44 3d
       0.044199776 0.04955072 -0.06526237 0.047864236
000300 19 51 e8 bd 42 21 c9 bc 69 09 62 be 1a 56 ac 3d
       -0.11343593 -0.024551991 -0.22073902 0.0841486
000310 3b 6a 09 bd db e4 9b bd e1 ed 74 bb 38 89 c3 bc
       -0.033548575 -0.0761201 -0.0037373232 -0.023869142
000320 08 8d 57 3d bf e1 83 bd 44 bf 31 bd 03 45 7b 3d
       0.052624732 -0.06439542 -0.043395296 0.06134511
000330 83 7c 24 3c d0 dc cc bd 75 5e 5f bd 0b 3a 8e 3d
       0.0100394515 -0.10003054 -0.05453344 0.069446646
000340 9b 0e 59 bb 59 d2 34 3c a1 94 70 bc e7 00 c0 3c
       -0.0033120278 0.011036479 -0.014683873 0.02343793
000350 f1 b0 4e 3d c8 fb 58 3d bc 81 5a be b1 28 d3 bc
       0.050461713 0.052974492 -0.21338552 -0.02577624
000360 c7 02 a1 3d 71 3a 8b bd 80 c7 e3 bb 38 9b d6 3d
       0.07861858 -0.06798256 -0.0069512725 0.104788244
000370 5f c8 b1 3d 22 59 a4 3d 1e 1a b5 bd f7 69 06 bc
       0.08680796 0.08024813 -0.08842872 -0.008203975
000380 a5 33 af bd 04 b5 9f 3d 48 9a 28 3d dd 25 44 3d
       -0.08554772 0.07798198 0.04116276 0.04788767
000390 20 97 ca be be d9 6d bd c3 64 a9 3d 9d 73 18 be
       -0.39568424 -0.058068983 0.08271172 -0.14887853
0003a0 7f 0a a6 bc 2a 10 2e 3d a8 68 00 3e 62 bb 4e bc
       -0.020268677 0.042495884 0.12539923 -0.012617918
0003b0 75 26 92 3c 2e 4d 7b be 0c 9b 36 be fe 42 bc 3d
       0.017840603 -0.2454116 -0.17832583 0.09192465
0003c0 1b 97 0f 3d 3e 59 0d be 26 3f 36 3e d5 53 b6 39
       0.035056215 -0.13803574 0.17797527 0.00034776205
0003d0 f6 89 83 3d 71 14 17 3e a6 20 20 3c 35 db 74 bd
       0.06422798 0.14753892 0.009773409 -0.059779365
0003e0 9b 5c 8f 3c 95 c2 91 bd 72 94 97 bd 11 96 35 bd
       0.017500212 -0.07117192 -0.074013606 -0.044332568
0003f0 86 8a 38 3d 9d 9c 99 3b 4b 46 24 bd 7b bc 87 bc
       0.04505398 0.004687859 -0.0401061 -0.016569367

backbone.net.2.bias f4 [256]
000000 a3 f5 c1 3d 87 a3 7a 3d c5 21 c2 3b 2c 04 86 bc
       0.094706796 0.061191108 0.005924436 -0.016359411
000010 3d 0c 23 bc 57 9d 83 3d 77 dd ee bd ea 90 99 bb
       -0.009951648 0.064264946 -0.11663335 -0.0046864646
000020 3c e3 6d 3c eb 49 04 bd 7d d0 74 3d 87 c0 b5 bb
       0.014519509 -0.032297056 0.059769142 -0.0055466327
000030 89 6c f8 3c c6 e7 2a 3c b8 bc 9e bc 70 ea 22 3d
       0.030325191 0.010431236 -0.019377097 0.03977436
000040 ee 94 ee bd 2f cd 67 3d 77 33 b7 3c e7 65 cd bd
       -0.116495 0.056592163 0.022363408 -0.10029202
000050 42 8d 9f bd 4f 20 fc 3d 46 94 4d 3d 6b 9b 8e 3d
       -0.07790615 0.1231085 0.050190233 0.069632374
000060 45 3a 86 3d d0 c6 15 3d c5 e3 12 3c e8 d7 c4 3d
       0.06554083 0.036566556 0.008965437 0.09611493
000070 89 6e d1 3d 22 5f e7 3c b8 e2 82 3d 65 2e 88 bd
       0.10226161 0.028243605 0.063908994 -0.06649474
000080 d7 be f6 3c ef 68 ef 3d c6 44 7a 3d c3 6e f6 3c
       0.030120296 0.11689936 0.061100744 0.030082112
000090 f7 b9 94 3d 1f 21 c5 3d 9d 86 d9 bd ed 98 e2 bc
       0.072620325 0.09625458 -0.106213786 -0.027660811
0000a0 c8 f4 10 3e 52 bc 6e bc 19 af 29 bd f0 a1 14 bc
       0.14155877 -0.014571266 -0.04142675 -0.009071812
0000b0 92 40 5b 3d ec ee a6 bd c2 50 4e bc 35 41 f2 3d
       0.053528376 -0.081510395 -0.012592496 0.118288435
0000c0 ac e7 f1 bc 5d 3f 49 3d 3d b0 c7 bd c7 9a 92 3d
       -0.029529415 0.049132694 -0.09750412 0.07158428
0000d0 6e 8b 79 3d c4 d4 37 3d fd 99 ae bb 05 f0 82 bd
       0.060923986 0.044880643 -0.0053284154 -0.06393436
0000e0 fe ca 59 bc 70 49 b8 bd 27 7c 88 bd fd ff 8d bd
       -0.013293026 -0.08998382 -0.06664305 -0.069335915
0000f0 49 31 26 3d b1 1b 38 3d 0a 91 f6 bb e4 b0 80 3d
       0.040574346 0.044948284 -0.007524614 0.06283739
000100 cd b4 79 3c 8a 72 42 3a 18 cf 2e 3d dc db 0b 3e
       0.01524086 0.00074175803 0.04267797 0.13658088
000110 20 a9 80 3d e3 bd 56 3c 9f 97 6e bd bf c5 47 bd
       0.06282258 0.013106796 -0.058250066 -0.04877257
000120 0b 97 39 3d 9f 3d 9a 3d 28 90 fd 3c 4c 20 02 3e
       0.04531006 0.075312845 0.030952528 0.12707633
000130 3f 98 9e 3c 09 af ac 3d 40 7d d6 3d ec 4a 3e bd
       0.019359706 0.08431823 0.10473108 -0.04645817
000140 1c 4f 42 bb 22 af a6 bc 65 3d 89 3d 85 2b ac 3d
       -0.0029649204 -0.020347182 0.06701163 0.08406738
000150 bc db 69 bd ef 46 f2 ba 49 70 81 3d c9 11 42 3d
       -0.05709432 -0.0018484275 0.06320245 0.047380242
000160 11 1e 78 3c b9 c7 7d 3d a9 7c e2 3c 8a f9 f7 3a
       0.015143887 0.06195805 0.027647333 0.0018918973
000170 5b 3e 01 3c 86 85 4d 3d 07 38 b8 3b 87 80 92 bd
       0.007888402 0.050176166 0.0056219134 -0.07153421
000180 31 3b 0f bd 04 4f 56 bd 97 90 a0 bc 72 24 c7 bd
       -0.03496856 -0.05232145 -0.019600196 -0.09723748
000190 9a 9c fd 3d df 83 4f bd 51 3a e9 3c 25 2f 1e 3d
       0.12383385 -0.05066287 0.02847019 0.03861918
0001a0 65 3e 19 3d cc 10 1d bd c8 2c 54 3b 25 80 3b 3d
       0.03741302 -0.038346097 0.0032375325 0.045776505
0001b0 e0 1c 9d 3d f0 08 da 3c ca 6c 98 3d d5 7e 2f be
       0.07671523 0.02661559 0.07442625 -0.17138226
0001c0 e5 b5 59 3d 04 d4 be 3d e6 24 0b 3d f9 44 0c 3d
       0.053151984 0.093177825 0.033970736 0.034245465
0001d0 02 76 a0 3c 04 67 da bb 07 b0 78 3d c6 93 22 3d
       0.01958752 -0.0066651125 0.060714748 0.03969171
0001e0 c2 9e 41 3d 55 bc d6 3c d5 e8 9d 3d 3a 49 22 3c
       0.047270544 0.02621285 0.07710425 0.009905154
0001f0 ca 21 f4 bd 56 be 01 3e d7 6e 94 3d c5 30 00 3b
       -0.11920507 0.12670264 0.072477035 0.001956032
000200 1c f6 01 3c 93 d1 1c bc 2c da ae 3d 59 84 40 3d
       0.007932212 -0.009571451 0.08537707 0.047001217
000210 62 87 9a bd 16 3d 88 bd 4e aa 43 bd 70 b5 bd 3d
       -0.075453535 -0.06652276 -0.047769837 0.09263122
000220 77 2c 4d bd 40 9d a9 3c 79 7b bf 3d 43 6b 8b bd
       -0.050091233 0.020704865 0.093497224 -0.06807568
000230 9e 9f 92 3c 31 c7 74 bc 97 d3 70 3d 5c ae e6 bd
       0.017898377 -0.014940069 0.058795538 -0.11263725
000240 ac bc 9e 3c 5d 72 36 be cf 70 1d 3d 71 e9 c0 3c
       0.019377075 -0.17817064 0.03843766 0.023548814
000250 20 77 ca 3d 55 bc 9d 3d 2e c4 a4 3d 88 83 3a bd
       0.098860025 0.07701937 0.08045231 -0.045535594
000260 7a 80 ac bd 2d e5 2f 3d 8e 26 f0 bb ab 92 a6 bc
       -0.084229425 0.04294317 -0.007328815 -0.020333609
000270 8d f9 2b 3d 1c f8 13 3d 66 bf 0d bd f5 9b 40 be
       0.041986037 0.036125287 -0.03460636 -0.18809493
000280 eb be de bb b6 9d 25 3d 2b c0 00 3e 1d 2b 14 bc
       -0.0067976615 0.040433608 0.12573306 -0.009043482
000290 a8 20 16 be 93 15 f5 3d 32 ad 59 3c 36 e8 7f 3d
       -0.14660895 0.119670056 0.013285922 0.062477313
0002a0 b9 96 12 3c 22 2c 04 3d d3 03 c3 3c 6a 89 69 bd
       0.008947068 0.03226865 0.023805534 -0.057015814
0002b0 3e a0 7f 3d a5 5a d2 bb bc 79 6e 3d a8 c9 e9 bd
       0.06240868 -0.006419497 0.058221564 -0.11415416
0002c0 a2 33 9a bc e6 98 6b 3d 3c 6a fb 38 dc e4 ce bd
       -0.018823449 0.057518862 0.000119884004 -0.10102245
0002d0 37 98 00 3d ad 01 27 3d a9 6c b7 3c 7d 63 3d bd
       0.031395163 0.040773083 0.02239068 -0.046237458
0002e0 c4 20 1f 3d 35 1f 99 3d f1 b3 bb 3c 72 b1 b8 3c
       0.038849607 0.074766554 0.022912951 0.02254555
0002f0 f3 59 75 bd 13 71 9b 3d 52 8a 0a be 7f e1 6d bd
       -0.059900235 0.075899266 -0.13529328 -0.058076378
000300 46 35 f4 3d b2 b5 87 3d b3 ea c2 bc b7 4d d9 3d
       0.119242236 0.066264525 -0.023793554 0.10610526
000310 28 d8 e6 3d 65 0c a3 3d 0f cf 33 bc 90 2f 21 3d
       0.11271697 0.079613484 -0.01097466 0.039352
000320 d5 87 07 bd 25 3c c2 3c 93 cb 12 3d dd b3 13 3e
       -0.033088524 0.02371032 0.035838675 0.14424081
000330 43 65 4e 3c 92 23 69 bd 2e fb d6 3d 9c e5 30 be
       0.012597385 -0.056918688 0.104971275 -0.17275089
000340 31 fd 20 bd 83 3c 85 3d 2c 47 cc 3b cf 58 a9 3c
       -0.039303962 0.06505682 0.0062340703 0.02067223
000350 4f 54 05 be 15 33 81 3c 7a 77 c2 3d 3c 5d bd 3d
       -0.13020442 0.015771428 0.094954446 0.09246299
000360 ea b9 63 bc 6b 76 86 3c f8 16 44 bd d1 17 a1 3d
       -0.013899306 0.016413888 -0.047873467 0.07865871
000370 6d fa 0c bd b0 d3 d9 3d e7 0f 2e bc d7 e3 e7 3c
       -0.034418512 0.10636079 -0.010623909 0.028306885
000380 29 2f 0c bd f7 e9 5f 3d ff 32 94 3d 4d c5 0b 3e
       -0.034224663 0.054666486 0.07236289 0.13649483
000390 bd 05 2a bd ea 9c 36 bc dd af f3 bd 52 c1 27 bd
       -0.04150938 -0.01114581 -0.11898778 -0.04095585
0003a0 ee 62 0d 3d 32 44 8b 3b 90 34 ce bd 2c a5 92 bd
       0.034518175 0.004250073 -0.10068619 -0.0716041
0003b0 9d 7c c9 bd d1 94 d7 3c d3 31 db 3d 28 81 ca bc
       -0.09838221 0.026316078 0.107028626 -0.02471979
0003c0 e7 ee 9a bd be 42 b2 3c c6 58 b2 bd 91 e6 1b 3e
       -0.07565098 0.02176034 -0.087083384 0.15224673
0003d0 b7 94 f5 ba 99 7e ac 3d bd e4 d2 3d b9 54 b3 bc
       -0.0018736337 0.08422584 0.102975346 -0.021890985
0003e0 7d dc 76 bd 08 97 e8 bc 59 21 cf 3c 2b 8c 8a bd
       -0.060268868 -0.02839233 0.025284456 -0.06765016
0003f0 31 1d 12 3d 3c d4 70 3d a5 d4 fd 3d d4 cb b0 3d
       0.03567237 0.058796152 0.12394074 0.08632627

backbone.net.4.weight f4 [3, 256]
000000 f8 18 b2 bd 9c 99 d2 3c 04 b6 02 3e 95 99 91 3e
       -0.08696169 0.025708012 0.12764746 0.28437486
000010 1e 28 1a be 99 9a 1c 3c da d5 95 3f 55 76 5d be
       -0.15054366 0.009558343 1.1705887 -0.21627171
000020 ed 4a 72 3d ff 95 d2 3c 27 07 b4 3e 40 21 c3 3d
       0.059153486 0.02570629 0.35161707 0.09527826
000030 fd 18 6d bd 16 97 94 3c 87 65 7a 3d 29 18 b4 3d
       -0.05788516 0.01813845 0.06113198 0.08793671
000040 e6 38 ec 3b b9 a9 0a be 69 f2 85 3e 52 78 c8 3b
       0.0072089313 -0.13541307 0.26161507 0.006117859
000050 9b b3 34 bd 95 7b a5 3c df 5c e9 bd 62 74 3f be
       -0.044116598 0.02020053 -0.11394667 -0.1869674
000060 bd 6c 3d 3e cd 54 89 3e db 16 0c bd 40 c7 d5 bd
       0.18498512 0.2682251 -0.034201484 -0.104383945
000070 eb 78 cb 3d d4 f0 ca bc cd a4 8b 3e de a5 03 3e
       0.09935173 -0.024773039 0.2727417 0.12856242
000080 4a be c2 3d 42 24 20 be 2e a3 4e bd 1a 01 b9 3d
       0.09508951 -0.15638831 -0.05044859 0.09033413
000090 1b 41 ff 3c b3 0b d2 3c 84 d4 c0 3d ce 73 a1 3e
       0.031158974 0.025640344 0.09415534 0.31533664
0000a0 a6 cc a6 3e dc ad ca bd b7 c0 0b be 27 6a c4 3d
       0.3257801 -0.09896442 -0.13647734 0.095905595
0000b0 b2 11 ee bd a8 d4 c8 3d 0c c2 a6 3c 85 ef 71 bd
       -0.11624469 0.09806186 0.0203562 -0.059066314
0000c0 4f 7a e9 bd fc 4e 03 3c ad dc 13 be 01 d8 e2 3e
       -0.11400282 0.008014437 -0.1443965 0.44305423
0000d0 f6 20 3c be 12 91 75 bb b1 f1 73 3e d2 1a f7 bd
       -0.18371949 -0.0037470502 0.23822667 -0.120656624
0000e0 86 99 06 3e 6f 0e 9f bc 56 75 a8 3d 1c 6c c1 3d
       0.13144502 -0.019416062 0.08225505 0.09444448
0000f0 c4 97 e9 bd 5e f2 fd be 1c 25 d2 bd e7 8f b4 bd
       -0.114059 -0.49598974 -0.10260984 -0.0881651
000100 95 3e 20 be 40 2e 8a 3e 05 60 96 be b2 91 04 bc
       -0.15648873 0.2698841 -0.29370132 -0.008091377
000110 77 86 56 3e 96 c7 2e 3e ae 06 45 be 3a c3 2f 3d
       0.20949732 0.17068323 -0.1924083 0.042910792
000120 74 8e 55 be 4b 8c 0f be 23 71 8e 3d 56 26 36 bd
       -0.20855123 -0.14018361 0.06955173 -0.044470154
000130 8a 07 4e 3e fe 89 4a bd 12 87 d2 bd cc bd d4 bc
       0.20120063 -0.049448006 -0.10279669 -0.025969408
000140 9f 3c 25 bd a6 45 8c 3d 30 15 70 3d aa 7d a8 3d
       -0.040341016 0.06849222 0.058613956 0.082270935
000150 da e5 0d 3e 9f 69 60 bd 64 0b ed 3d 9e bf ea 3d
       0.13857213 -0.054788228 0.11574438 0.11462329
000160 00 1a 0f be 58 aa 18 be 19 78 53 3d 81 5f 9c 3c
       -0.13974762 -0.14908731 0.051628206 0.019088509
000170 4b 91 2c 3e f6 fd ba be f0 85 9a 3d ff 31 0e 3b
       0.168523 -0.36521882 0.07545078 0.002169728
000180 73 3c 28 3d 82 e9 a1 3d ff 95 59 3d 84 75 07 3e
       0.041073274 0.07905866 0.053121563 0.13228422
000190 ba ba 7d 3d b0 28 ac 3d ca f7 82 be 3a 1f b8 be
       0.061945654 0.08406198 -0.25579673 -0.35961324
0001a0 e1 ce 12 be fc 79 90 3d c1 e4 f4 bc c6 b4 a1 3d
       -0.1433673 0.07054517 -0.029894235 0.07895808
0001b0 1d b5 ca 3d aa c8 31 3d bc fb fc bc 4b ce 9e 3e
       0.09897826 0.04340426 -0.030881755 0.31016764
0001c0 c3 4e 0f be 4f 5f 22 bd a5 bd d3 3d 2f 7d b0 3d
       -0.13994889 -0.039641675 0.10338906 0.08617627
0001d0 b9 b7 32 3e 82 da c4 3d 58 4a f8 3b d8 47 fb bd
       0.17452897 0.096119896 0.007577222 -0.122695625
0001e0 c8 4c de 3d 01 32 41 3e e1 04 e5 bd 1a 9d ed be
       0.108544886 0.18866731 -0.11182571 -0.4640892
0001f0 97 1d 6a 3e a4 9b 34 3e d6 3e 25 3c d4 5c 53 3d
       0.2286285 0.17637497 0.010085782 0.0516022
000200 9b b6 f2 3d 3b f8 bf 3d 82 b4 83 bc 9c 07 3c be
       0.118512355 0.09373518 -0.016077284 -0.18362278
000210 be 22 cd bd 64 46 1e bd 27 8c 48 be bc 0f 8e bc
       -0.10016392 -0.03864135 -0.19584714 -0.017341487
000220 a7 a5 16 bb 9b 2c 1f 3c 04 eb 6a be d2 97 91 3d
       -0.002298692 0.009715225 -0.22941214 0.071090356
000230 4c 47 a0 3e ef fe 27 3e 56 73 b1 bd 00 69 50 3d
       0.31304395 0.16405843 -0.08664577 0.050881386
000240 63 03 72 be d6 18 8f bd 40 19 2b be 1f f8 01 3e
       -0.23634104 -0.06987159 -0.16708851 0.12692307
000250 e6 ee 93 3e ba f3 6a 3e 2d ec 59 bd c7 ac 09 3d
       0.28893203 0.22944537 -0.05320375 0.03361204
000260 3e 68 0a be 6b 58 bb bb 93 bf a6 bd 83 aa 1b bd
       -0.13516328 -0.0057173274 -0.08142009 -0.03800441
000270 50 97 07 3e 29 6a 03 3d f9 53 bc bd 07 88 1b 3e
       0.13241315 0.032083664 -0.09195704 0.15188609
000280 a3 59 fa bd 92 96 b6 bd f5 79 8e be 70 5c 20 bd
       -0.12224128 -0.08915438 -0.2782742 -0.039150655
000290 29 e0 05 bd 39 7c 80 bd eb 40 00 3e f0 c2 58 bd
       -0.03268448 -0.062736936 0.12524764 -0.052920282
0002a0 98 e2 86 3d 32 59 26 3e 7f c3 00 bf b8 9b 2a be
       0.06586188 0.16244963 -0.50298303 -0.16660964
0002b0 6e a1 56 3d d3 cc 60 be 1b 48 2d be 78 34 81 3b
       0.052400045 -0.21953134 -0.16922037 0.0039430223
0002c0 19 1b 6a 3d 24 9a be 3c ca cd a6 be 77 99 e5 bd
       0.05715475 0.02326686 -0.3257888 -0.11210912
0002d0 74 76 4b 3c 0a 3d 81 bc ff a8 47 be 93 78 9d 3c
       0.012418378 -0.015776176 -0.1949806 0.019222533
0002e0 9f 22 0e 3c bf 0e 8d bd 3b 31 01 3d 16 3f 9c 3e
       0.0086752465 -0.06887578 0.03154109 0.3051688
0002f0 1f e4 13 be 9c 4e 99 3d b7 df 60 3d b5 32 27 be
       -0.1444249 0.07485697 0.05490085 -0.16327937
000300 15 af e3 3d ca 01 11 be 14 72 89 bd 6c 44 ae be
       0.111173786 -0.14160839 -0.06711212 -0.34036577
000310 fc 2d 6a 3e cc 36 13 3c 25 47 ac 3c ba e7 01 be
       0.22869104 0.008985233 0.021030018 -0.12686053
000320 b6 c1 2b be b3 92 6a 3d 11 8b 19 3e 74 71 87 bd
       -0.16773114 0.05726881 0.14994456 -0.06613436
000330 77 60 80 bd b3 a9 b6 3c a9 1d c8 3c d1 f9 2a 3f
       -0.06268399 0.022297716 0.024428206 0.6678744
000340 a9 2f 0b be d6 f7 d1 3d 0e 0f 09 3d 6d 8c 4d 3e
       -0.135924 0.10252349 0.033461623 0.200731
000350 63 51 4a 3e c5 92 cf bc 19 9b c3 3d 48 e7 67 bd
       0.19757609 -0.02533854 0.09551067 -0.05661705
000360 08 6a 02 3e 30 c0 b1 bd eb f9 e0 bd 82 2e 4c bd
       0.1273576 -0.08679235 -0.10985168 -0.04984904
000370 a7 ef c0 3e d6 33 9f bc 9d 67 cb 3c 28 07 6a 3c
       0.3768284 -0.019433897 0.02482968 0.014283933
000380 13 e3 2f be 47 f9 bb 3d a0 5b 07 bd bd fd 83 be
       -0.17176466 0.09178405 -0.033046365 -0.25779524
000390 82 90 05 3e 36 ec 1b bd 87 e9 2d 3e 97 13 30 bd
       0.13043407 -0.038067065 0.16983615 -0.042987432
0003a0 b5 27 c1 3d 55 83 47 be c7 85 89 3b 1d 4c 5e 3e
       0.09431402 -0.19483693 0.0041968557 0.21708722
0003b0 22 83 07 be 65 09 75 3e 5f 34 fd bb 98 8e e0 bd
       -0.13233617 0.23929365 -0.0077271904 -0.109646976
0003c0 7b 27 73 be a0 17 0e be 1e 09 3a bd 17 22 86 bd
       -0.2374553 -0.138762 -0.04541885 -0.06549471
0003d0 45 43 b0 bd d0 28 cb be 35 2a 08 be 70 03 89 bd
       -0.08606581 -0.39679575 -0.1329735 -0.06690109
0003e0 e7 5d 28 be 9c 15 26 3d d1 6d 7e bc ee 7b b6 bd
       -0.16442071 0.040547952 -0.015529112 -0.089103565
0003f0 db 2b ce bc ba d5 40 3d ff 36 1b be 6e f8 29 be
       -0.025167396 0.047078826 -0.15157698 -0.16598675

backbone.net.4.bias f4 [3]
000000 06 8f a3 3d 3f c3 87 bd 0c 98 4c bc
       0.07986264 -0.06629037 -0.012487423

net.net.0.weight f4 [256, 14]
000000 e6 df d9 3e b0 58 40 be 23 28 0c be e5 f7 3b be
       0.42553633 -0.18783832 -0.13687186 -0.18356283
000010 80 d9 8c be 84 e2 3e 3e 00 47 1f 3e 8f 83 af be
       -0.2750969 0.18641096 0.15554428 -0.3428006
000020 14 61 97 3e 36 67 40 3e df bb 9d bc fc 8a fc bd
       0.29566252 0.18789372 -0.019254623 -0.12331197
000030 29 30 81 3c 32 f0 73 3d 4c b3 eb bc cc fd 99 bd
       0.015770035 0.05955524 -0.028772019 -0.07519111
000040 12 c4 2a 3e 3e 6d b3 bc 5e a4 e2 3e 2d f9 cd 3e
       0.16676357 -0.021902677 0.44266027 0.4022917
000050 58 ed 05 bf ed 10 5c bb fe 28 7d bd 2f 6d 11 be
       -0.5231528 -0.0033579424 -0.06180667 -0.14201806
000060 d8 d3 11 be 67 da 54 bd b4 d5 84 3d 80 2c 59 bd
       -0.14240968 -0.051966097 0.06486073 -0.053020954
000070 1e 0a 17 bf 3a 27 76 3d 7a 9f c7 3d e1 d5 4e 3e
       -0.5899981 0.060096003 0.097472146 0.20198776
000080 8b de 5a 3e e0 a7 3f bc b6 01 ad be 17 bd 92 3d
       0.21373956 -0.011697739 -0.33790368 0.07164972
000090 d5 26 6e 3e d7 40 73 bb fe 1b 6f 3e bd a3 ff 3d
       0.23257 -0.0037117505 0.23350522 0.124824025
0000a0 4b f3 50 3e df ec 6c 3d 05 3f c8 3e 18 fd 1f 3e
       0.20405309 0.057843085 0.3911058 0.15623891
0000b0 70 3d e4 be 73 f4 d2 bd 9e 92 cd be 0d 90 86 3e
       -0.44578123 -0.10300531 -0.40150923 0.26281777
0000c0 a0 60 47 be 23 26 3c 3e 40 46 48 be 0d 56 2f be
       -0.19470453 0.18373923 -0.19558048 -0.1712267
0000d0 17 05 c8 3e fc f7 bd 3d 27 9a a3 3d fd 84 88 3e
       0.39066383 0.09275815 0.079883866 0.26663962
0000e0 63 46 91 bb 13 6b 09 be 4d 53 97 3e c0 56 a5 3d
       -0.0044334396 -0.13419752 0.2955574 0.08073187
0000f0 3d 01 96 be 06 f2 ca 3c dc 9c 6d 3d 07 73 06 3e
       -0.2929782 0.024773609 0.05801092 0.13129817
000100 62 c2 48 be 15 a8 e8 bd 57 44 40 bd 59 fb ce 3d
       -0.19605401 -0.11360184 -0.046940174 0.101065345
000110 78 4b a5 bd f7 dc 45 be 7f 69 2d 3e ad 39 fe bd
       -0.08071035 -0.19322573 0.16934775 -0.124133445
000120 d0 a5 34 3e 5f ce af ba 03 92 84 3e 2d 90 33 3e
       0.17641377 -0.0013412944 0.25892648 0.17535467
000130 9c d7 7a bc ad ff 71 bc 27 3c 9f be 47 cf a6 3c
       -0.015310194 -0.0147704305 -0.3110058 0.02036251
000140 a5 b1 3f be ac 63 73 be 81 fb f3 3d 6f eb 0f 3c
       -0.1872011 -0.2376849 0.11913205 0.008784159
000150 a3 83 f4 3e c9 ac 3c 3b 2a c3 0c bf a6 d0 22 3f
       0.4775668 0.0028789511 -0.54985297 0.6359962
000160 88 8f 72 be 2e 33 48 3e 4b 43 b1 3d 9b eb 25 be
       -0.23687565 0.19550774 0.08655413 -0.16203158
000170 36 62 49 3e af 45 7d 3d 85 2f d3 be d8 ca 9d bc
       0.19666371 0.061834034 -0.41247192 -0.019261762
000180 61 94 05 bc 34 3e 13 be c9 fd 66 bd 70 88 93 bd
       -0.008153052 -0.14379197 -0.056394372 -0.07203758
000190 26 05 a4 3e 8e ee 80 3d 84 93 b0 3e 48 3b 7d 3e
       0.32035178 0.06295501 0.34487545 0.24729645
0001a0 fd 6a bc 3b 2d 53 78 be 9d 05 b2 3e 0a da 3a 3e
       0.0057500587 -0.24250479 0.34769908 0.18247238
0001b0 21 f4 ce 3e 3f 8c 22 bd 4a 95 ac bc 49 c2 02 3e
       0.4042063 -0.03968453 -0.02106728 0.12769426
0001c0 a2 d8 8a 3e 58 62 cf be 14 98 64 3d 91 55 12 3e
       0.27118403 -0.40504718 0.055809096 0.14290453
0001d0 cd e8 d4 3e c1 7f 54 3d 0f 20 f9 3e a4 e9 24 be
       0.41583863 0.051879648 0.4865727 -0.16104752
0001e0 c2 9e a8 bd e8 3f 1a 3c 90 0d 50 3f e8 06 ad be
       -0.08233406 0.0094146505 0.81270695 -0.33794332
0001f0 7e b4 92 bd 41 d9 a8 3d 23 27 09 bf 4d 0d 9d be
       -0.071633324 0.08244563 -0.5357534 -0.3067421
000200 eb bf 21 3e 87 90 9c 3e c2 fa 99 be bf b6 a3 bd
       0.15795867 0.30579016 -0.30074126 -0.079938404
000210 5b 4b cc 3e 32 51 1f 3e fb 2d 81 3e 8b 63 f1 3e
       0.39901242 0.15558317 0.25230393 0.47146258
000220 fa fb 91 3e 9f 6f eb 3e cb 49 80 bc 0d 0d 06 bd
       0.28512555 0.45983598 -0.015660187 -0.03272729
000230 33 de a8 be 20 48 0a bb 7e 82 39 be 23 7e 24 3e
       -0.32982025 -0.0021100119 -0.18116185 0.16063742
000240 11 2e 3a 3e aa 11 af 3c 32 d3 8e 3c 3a 0d 0b 3e
       0.18181635 0.021370728 0.01743469 0.13579264
000250 fa 2a 10 3e f7 ed 1e 3e 13 f4 0e be 02 c9 ba 3e
       0.14078894 0.15520464 -0.13960294 0.36481482
000260 cd 22 21 3d d1 67 a8 bd 86 33 f5 be 37 45 69 bc
       0.03933983 -0.082229264 -0.47890872 -0.0142376935
000270 6a b3 a6 be 3c 0e 32 be bd 5c 43 3e af a9 c0 3d
       -0.32558757 -0.17388242 0.19078346 0.094073646
000280 bf f4 e8 be 60 b4 d7 3a 1b 17 ab 3d 83 6b 2c 3e
       -0.45499226 0.0016456954 0.083540164 0.16837887
000290 f5 3d 0d bb 95 f4 bf 3d 0b 56 2f 3e 3d 91 eb 3d
       -0.0021551822 0.09372822 0.17122667 0.115023114
0002a0 40 d6 3b be c6 3e 59 bd 5e 72 a1 be 75 70 db bd
       -0.18343449 -0.05303838 -0.31532568 -0.10714809
0002b0 72 67 29 3e 49 11 69 3e 30 45 f1 3e 1b 9b 0f 3e
       0.16543368 0.227605 0.47123098 0.14024012
0002c0 b5 e1 bb 3e 4e e1 b2 bd 9e 31 d8 be 2e 33 ea 3e
       0.36695638 -0.0873438 -0.42225355 0.45742172
0002d0 51 44 c0 3c 8c 22 0e 3d 09 84 01 bf 91 dd 0f be
       0.023470076 0.034700915 -0.50592095 -0.14049365
0002e0 37 e6 ec bd e3 89 65 3e 8f 99 20 bf 88 6b 73 be
       -0.115673475 0.22415881 -0.6273431 -0.23771489
0002f0 60 ec 12 be 1c 7c 1c be 24 d1 0f 3e 16 6c 13 3d
       -0.14347982 -0.15281719 0.14044625 0.03599175
000300 4b 9e 88 be 13 21 c3 bd 6b 99 8b ba 90 19 37 bd
       -0.26683268 -0.09527793 -0.001065058 -0.044702113
000310 9b f9 89 3d 03 35 41 3e bc b7 14 3f 09 69 84 3e
       0.067370616 0.18867879 0.58092856 0.25861385
000320 f5 01 ba 3e 1d 7e cc be 28 a3 cc 3e 95 b3 c8 bd
       0.36329618 -0.39939967 0.39968228 -0.097998776
000330 61 98 8b 3e 77 11 24 3e 7b a6 4a 3e ab a6 34 3e
       0.27264693 0.16022287 0.1979007 0.17641704
000340 d5 30 6e 3c 5b ea 1f 3e 03 ee 2e 3d 4e 42 65 3e
       0.01453801 0.15616743 0.042707454 0.22388574
000350 0f d9 b0 be 72 5c 7a 3e a9 e8 48 3f 6a f9 e2 3e
       -0.34540603 0.24449328 0.7848001 0.44330913
000360 67 82 49 3e 16 fd 4d be d4 74 85 3d 97 23 29 3e
       0.19678651 -0.20116076 0.06516424 0.16517483
000370 28 5a b7 be 12 dc 06 bc dc 1b 32 be 9c 24 a0 be
       -0.3581097 -0.00823118 -0.1739344 -0.3127793
000380 db dc 20 3e 2b e2 f0 bd 2e 85 70 be 5e c7 0d 3f
       0.1570925 -0.11761888 -0.23488304 0.55382335
000390 52 dc de 3e 3b 1d e6 3e dd 64 93 bd 99 1c 80 be
       0.43527466 0.44944176 -0.071969725 -0.25021818
0003a0 35 92 45 3e e7 1c bf 3d 05 1a 41 3e 12 08 da bd
       0.19294055 0.093316846 0.18857582 -0.106460705
0003b0 c9 6b 7d be 76 0a 8f 3d 24 23 19 3d be 0a 8c bd
       -0.24748148 0.06984417 0.03738703 -0.068379864
0003c0 f3 f8 11 bf d8 3f 3e be eb 59 b5 3c ce 45 16 3e
       -0.5702049 -0.18579042 0.022137603 0.14675066
0003d0 ad 92 b0 be cd 46 45 3e e4 1a d0 be 43 19 53 be
       -0.34486905 0.1926529 -0.40645516 -0.20615105
0003e0 4c 5e da bc b9 b8 d5 bd ad b5 d5 3d bf 9e 03 bc
       -0.026656292 -0.10435624 0.104350425 -0.0080334535
0003f0 f1 1f 52 3e 0e 27 2d 3e 51 53 a3 be 25 31 92 bd
       0.20519997 0.1690943 -0.31899503 -0.0713828

net.net.0.bias f4 [256]
000000 d4 19 6e be 3d bf ca 3e d5 c8 b3 3e 3a ca 05 3e
       -0.2325204 0.39599028 0.3511416 0.13065425
000010 c8 9d 10 3f 22 13 cc 3e 6e 0d e5 3d 09 63 f8 3e
       0.56490755 0.39858347 0.11184202 0.48513058
000020 37 4c 5a be 6f f1 ec 3d 04 0e bd 3e bd 79 72 3e
       -0.21318136 0.11569487 0.36924756 0.23679252
000030 80 e3 8f be 48 39 a8 3d 9f 8a c1 3d ce 55 76 3e
       -0.28103256 0.082140505 0.09450268 0.2405617
000040 be 95 a4 3e 35 a1 9d be ef 68 5d 3e 5f 1e b0 be
       0.32145494 -0.30787054 0.2162206 -0.3439817
000050 52 cd 43 bd e3 b9 38 be 1f 91 1b be 8a ea f1 3e
       -0.04780323 -0.1803966 -0.15192078 0.47249252
000060 31 5f ab be 1e 4c dd 3e bb 40 47 3e 45 96 b9 bd
       -0.33471063 0.43222135 0.19458286 -0.09061865
000070 95 31 39 3f 9a 5d 1d 3f c2 00 0d bf 6c 86 bd 3e
       0.7234128 0.6147095 -0.5507928 0.37016618
000080 a8 cb 92 3e 12 73 ce be 54 ed d4 3e 06 bb f5 3e
       0.28671002 -0.40322167 0.41587317 0.4799425
000090 99 2e 06 3f fc 67 bb be d8 1c 19 be 32 50 cc 3e
       0.5241485 -0.3660277 -0.1495241 0.39904934
0000a0 28 b4 6e be 14 09 0f 3f fb ab 87 3e 35 53 ea 3e
       -0.23310912 0.5587323 0.26498398 0.45766607
0000b0 b8 35 d1 3d f7 73 ff 3e 06 5e 76 3e de 1b 0c be
       0.10215324 0.49893162 0.24059305 -0.13682505
0000c0 c5 5f 22 3f c0 21 8b be c6 7e 71 be 84 dd 9e be
       0.6342738 -0.27174187 -0.23583516 -0.31028378
0000d0 cf 9e b8 be fe 64 1d 3f b5 35 2a bb 40 b0 1e 3e
       -0.3605866 0.61482227 -0.0025971953 0.15496922
0000e0 36 a8 7b 3d 5d 4f 96 be 8b c8 18 3f ca 1f 8b be
       0.061439715 -0.29357424 0.59681004 -0.2717269
0000f0 81 40 09 3f e5 cc d5 be 79 72 d2 3e bb d9 91 be
       0.5361405 -0.41757885 0.4110296 -0.28486428
000100 de de 7f be d2 51 29 3f 05 af dc 3e 54 f9 60 be
       -0.24987361 0.6614047 0.4310228 -0.21970111
000110 96 65 f9 3c bb 42 88 be 72 e8 0b 3f f4 a5 10 3f
       0.030443948 -0.2661341 0.5465156 0.56503224
000120 c4 22 1e 3e c7 13 a6 3e 17 65 fa 3e 25 ad e5 3e
       0.1544295 0.32436964 0.4890525 0.4485866
000130 22 f8 bb bc c0 7e 25 3f 47 f2 71 be 2b c8 02 3f
       -0.022945467 0.6464653 -0.23627578 0.5108668
000140 e4 64 6d be c1 2a e6 3e ca 2a ed be ef f0 bd 3e
       -0.23183018 0.44954494 -0.46321708 0.3709788
000150 4a 30 3a be 89 50 e8 bd 99 f5 c6 be 74 35 09 3f
       -0.18182483 -0.11343486 -0.3885925 0.5359719
000160 71 e8 ce 3e ab 14 8e bd 80 c7 00 3f 37 03 c6 be
       0.40411714 -0.06937536 0.5030441 -0.38674328
000170 97 12 0b 3c 1d b9 9e be ea ee 24 be c9 dc 1e 3f
       0.008488319 -0.31000605 -0.16106763 0.6205564
000180 26 58 42 be e2 5f dc 3e 35 cd 7e 3e e9 3c bd be
       -0.18978938 0.43041903 0.24882968 -0.36960533
000190 21 e8 bc be 93 08 c8 3e b7 20 05 3f a7 81 57 3e
       -0.3689585 0.39069042 0.52003044 0.21045552
0001a0 63 b7 e8 3e b1 72 1e 3c d7 f6 92 3e 50 6c 8b 3e
       0.45452413 0.009670899 0.2870395 0.27231073
0001b0 b9 bd 2b 3e a0 4c 0c 3f 29 94 08 3f 96 42 1b 3f
       0.16771592 0.5480442 0.53351074 0.6064848
0001c0 6d c3 20 3f 2f 7b cf be a8 1b 51 be 21 77 00 3f
       0.62798196 -0.4052367 -0.20420706 0.50181776
0001d0 e8 aa d6 3e 7f bc a8 3e e9 05 c3 3e 38 9a ca 3e
       0.41927266 0.3295631 0.38090447 0.39570785
0001e0 70 e4 f3 3e cf ea 32 bd 0e cd 86 3e 18 44 ec 3d
       0.4763522 -0.043680962 0.2632832 0.11536425
0001f0 cf a9 dd 3e 7e a8 03 3c 89 e4 83 3e 1b 25 1f 3f
       0.43293616 0.008035777 0.25760296 0.62165993
000200 a8 a9 e8 3e d8 a8 12 3f e0 12 c1 3e 1c c9 d4 be
       0.45441937 0.57288885 0.37709713 -0.41559684
000210 e6 1f a1 be b0 d1 5a bd f9 77 3c be 7c f4 e7 bd
       -0.3146965 -0.05342263 -0.18405141 -0.113259286
000220 b2 aa e3 3c 85 d5 b9 be 4b af c3 3e 58 53 a2 3e
       0.027791355 -0.36295715 0.38219675 0.3170421
000230 59 f8 0d be 2a 69 38 be e2 f0 38 be 91 8c ff 3e
       -0.13864268 -0.18008867 -0.1806064 0.4991193
000240 41 15 06 3f 9d 0c 4c be e9 b3 85 be 64 37 44 3e
       0.5237618 -0.19926687 -0.26113823 0.19161755
000250 b6 12 58 be d1 74 fc be 73 2c 77 be 92 c4 c6 3e
       -0.21100888 -0.49307874 -0.2413805 0.38821846
000260 b9 36 4c be 49 c2 09 3f 58 09 18 3f 78 78 ed 3d
       -0.1994275 0.5381208 0.5938926 0.11595243
000270 63 a1 b1 be 89 87 08 3f 65 bc 0e 3d 29 a8 90 be
       -0.3469344 0.5333181 0.034847636 -0.28253296
000280 90 05 f0 3e a6 83 55 bd 45 8d e5 3e 7c 5a a5 3e
       0.46879244 -0.052127503 0.44834343 0.32295597
000290 9f 5c a1 be 72 1e 64 be 28 e9 ce 3e cb 49 91 3c
       -0.31515977 -0.22277239 0.4041226 0.017735383
0002a0 57 5e 01 3f cd 96 26 3e ac 39 b6 bd 0f 83 ec bb
       0.50534576 0.16268463 -0.08897719 -0.007217772
0002b0 70 0b d8 3e 22 b8 d1 bd 0e e9 78 3e 58 10 12 3f
       0.42196226 -0.10240199 0.24307653 0.5705619
0002c0 db 47 17 3f c9 33 01 3f 57 53 24 3f a2 a1 f6 bd
       0.5909402 0.5046964 0.64189667 -0.12042548
0002d0 71 64 48 be 35 bd 6e be 8e 74 92 be 82 f0 8b 3e
       -0.19569565 -0.23314364 -0.2860455 0.2733193
0002e0 f9 48 12 3f 74 ab 93 be 4f 06 ce 3e 53 49 9c be
       0.571426 -0.28841746 0.40239188 -0.30524692
0002f0 65 9f ae 3e 2e 79 a4 3e 4c 49 0e bd e4 56 0d 3f
       0.34105983 0.32123703 -0.03473787 0.5521071
000300 ad 3e c4 be 5e f6 51 be d3 f4 06 3e 79 7e f7 3e
       -0.38329068 -0.20504138 0.1317933 0.48338678
000310 8d ab 7e 3e cc d1 e6 be 98 5b e7 bd ea 9b 2e 3e
       0.24870129 -0.45081937 -0.11296767 0.17051664
000320 f4 0b ae 3e 3f 90 f9 3e 5b 40 a0 be 1f e8 bf 3e
       0.33993495 0.48742864 -0.312991 0.37481782
000330 89 fe 0f be 65 16 21 3e c9 13 80 bd 13 c5 e2 bd
       -0.14061941 0.15731199 -0.06253774 -0.11072745
000340 f6 ce e0 3e 0f 61 91 be fc 7e 9a 3e 07 ab 21 be
       0.439079 -0.28394362 0.30175006 -0.15787898
000350 9e bd 95 3e 40 92 85 3e 6a b6 c4 bd 19 69 32 be
       0.2924623 0.26088142 -0.09605105 -0.17422904
000360 60 bd a7 be 38 e2 c5 3d c2 53 ce 3e ea ee 53 be
       -0.3276167 0.096622884 0.40298277 -0.20696607
000370 9b a3 db bd 7d 07 38 be 5b c1 4e 3e a5 fc 9a be
       -0.10724565 -0.17971607 0.20190947 -0.30270877
000380 05 94 0d be c6 d6 20 3f f1 1b 3f be b7 d6 0c 3f
       -0.13825996 0.6282772 -0.18663003 0.5501513
000390 b2 fb f3 3e 4e 43 3d be 7f 90 b4 3e 69 b6 08 bf
       0.47652966 -0.18482706 0.35266492 -0.53403336
0003a0 60 56 44 3a f1 2a 92 be 58 dc 80 be 6f 3b d4 3e
       0.00074896775 -0.28548387 -0.2516811 0.41451594
0003b0 3c c4 d9 3e 66 21 ec bd 90 fe 78 3e 10 4f e3 ba
       0.42532527 -0.11529808 0.24315858 -0.0017342288
0003c0 25 78 db be 86 a7 eb 3e c5 e9 9a 3c a8 be 82 be
       -0.428651 0.46026248 0.018910298 -0.25536084
0003d0 a9 f1 15 3f 4f 6f 49 3e 3a 9e 99 be 62 49 8d be
       0.5857187 0.19671367 -0.3000353 -0.2759505
0003e0 72 f9 16 3f a8 24 0a 3f 0a 8f bc be 34 24 a1 3e
       0.58974373 0.53962183 -0.3682788 0.31472933
0003f0 03 1e 12 3f 43 ef ff bc 81 83 cf 3d 41 86 8d be
       0.57077044 -0.031242019 0.10132504 -0.2764149
