generated_data/iql_hopper_medium_replay_v2_seed2.pt (torch, 842140 bytes, 16 tensors)

backbone.net.0.weight f4 [256, 11]
-0.3416857 0.16155386 -0.099621296 0.15339808 0.28044814 -0.06423951 0.11568559 -0.24424544
0.2753536 -0.11429166 -0.5766245 0.14710556 -0.09490153 -0.034709893 0.6688903 0.18248609
0.11008674 -0.33663398 0.019553313 -0.15823229 0.10470927 -0.31939897 0.21657185 0.20312114
-0.1238043 0.029901316 0.144093 -0.0953377 -0.2919822 0.22912507 -0.36035535 -0.21501411
-0.32126623 -0.36523065 -0.12702626 -0.0010941341 0.042902477 0.21883217 -0.02079309 0.28217635
0.053756833 0.04021979 0.03738589 0.18073209 -0.2615853 -0.08965828 0.29907116 0.057483234
0.21634437 0.2380716 0.07047345 -0.012978941 0.09824184 -0.11946188 0.3473716 0.33565038
0.13151944 -0.040189967 0.0020924024 -0.20021622 -0.27857152 0.09936226 -0.11736777 -0.29110995
-0.18310462 0.1894248 -0.25780967 -0.35902396 0.1323208 0.14584902 0.08299404 -0.29660892
-0.4034783 -0.18782493 -0.07247885 0.28894606 -0.28238973 0.06201631 -0.30793273 0.114249825
-0.19873124 -0.047747806 0.1454554 -0.1665272 -0.0999177 -0.22632414 0.082102716 -0.29907137
0.047929805 -0.20815729 0.23472401 0.36684334 -0.012298565 -0.38153154 0.31269488 -0.11134948
-0.1544552 -0.11979243 -0.017129917 0.32401145 0.046845865 -0.14736637 -0.100862265 0.38420644
0.030447394 -0.44917592 -0.13454269 -0.01901066 0.08490973 -0.1090004 0.017857317 -0.08756125
-0.07006017 -0.07081869 -0.10618145 0.33193567 -0.20302145 -0.04991965 0.2627913 0.30339518
0.112630144 -0.035891972 -0.026594395 0.4290289 -0.16748884 0.22747079 -0.32936814 -0.05975653
-0.30052274 0.18594931 0.3205024 0.16757634 -0.15953025 -0.046125557 0.11735558 0.15064086
-0.19356066 -0.12598939 -0.25428283 0.20829245 -0.27722377 -0.3195443 -0.2651345 -0.20654273
-0.015063905 -0.23208025 -0.31580663 0.18587516 0.45458066 -0.008835134 0.016126327 -0.06875986
-0.05613723 -0.3568607 0.13545783 -0.10905727 -0.09690476 0.46639353 0.12951648 0.111934744
-0.18442015 -0.16782872 0.016324654 0.23241872 0.017227363 -0.14045845 0.17651923 -0.008069949
0.3988787 0.31820026 0.25436604 0.092615284 0.11073713 -0.025837151 0.11992665 -0.3635953
0.2307377 0.42114118 -0.06419156 -0.21768533 0.08185457 0.06367198 -0.501764 -0.05484339
0.21665226 0.16258043 -0.11287664 0.045442887 -0.33646083 0.20197798 0.23011227 -0.26028603
-0.352008 0.17824067 -0.26008472 0.47182107 0.27919388 -0.488947 0.23264089 0.123622425
0.19767182 -0.10239959 -0.15087014 0.66363007 0.39430243 -0.06156533 -0.027068326 -0.042213533
-0.14095643 -0.15979573 0.020928156 -0.16131726 0.31440604 0.35114983 -0.079692766 0.21982497
-0.21975538 0.22923085 0.047592137 -0.16139945 0.03442342 0.09583361 0.21726148 0.20986868
0.09813305 0.35759044 -0.12484152 0.1272173 0.19011305 -0.26166883 0.028398328 0.27632073
0.0521227 -0.28224808 0.14748538 0.028255152 -0.081952326 0.28665417 0.13670391 -0.23613024
0.23439007 0.45341983 0.50774926 -0.03937848 0.21088968 -0.18652011 0.2978597 0.29387853
0.28995556 -0.16304003 -0.02414075 0.1766263 0.25819615 0.08455704 -0.11892024 -0.010297519
00000000: 6ef1 aebe 606e 253e 4006 ccbd 6314 1d3e
00000010: e696 8f3e 0190 83bd 91ec ec3d 7a1b 7abe
00000020: 26fb 8c3e bf11 eabd aa9d 13bf d7a2 163e
00000030: bc5b c2bd f62b 0ebd 653c 2b3f a2dd 3a3e
00000040: 2875 e13d 4a5b acbe 452e a03c a507 22be
00000050: d071 d63d 4388 a3be 03c5 5d3e fdfe 4f3e
00000060: 1c8d fdbd 9bf3 f43c 1e8d 133e 6940 c3bd
00000070: b17e 95be c39f 6a3e 7f80 b8be a92c 5cbe
00000080: 027d a4be 83ff babe 2c13 02be 0c69 8fba
00000090: 82ba 2f3d 8a15 603e 4556 aabc 6b79 903e
000000a0: 2030 5c3d 82bd 243d f221 193d d511 393e
000000b0: 82ee 85be c39e b7bd db1f 993e 8a73 6b3d
000000c0: 6189 5d3e 0bc9 733e 6254 903d a0a5 54bc
000000d0: 0533 c93d 6ea8 f4bd b1da b13e 5eda ab3e
000000e0: 08ad 063e 3c9e 24bd b020 093b 7b05 4dbe
000000f0: eda0 8ebe 717e cb3d 835e f0bd 5d0c 95be
00000100: c77f 3bbe 93f8 413e a1ff 83be fdd1 b7be
00000110: 1b7f 073e 7259 153e c7f8 a93d 20dd 97be
00000120: b594 cebe 2e55 40be cb6f 94bd bdf0 933e
00000130: 6395 90be d004 7e3d 5ca9 9dbe d0fb e93d
00000140: 3480 4bbe 3493 43bd 43f2 143e 1b86 2abe
00000150: a7a1 ccbd 84c1 67be 7825 a83d e21f 99be
00000160: 0b52 443d 2f27 55be 7e5b 703e e4d2 bb3e
00000170: ec7f 49bc 1a58 c3be 8b19 a03e 320b e4bd
00000180: 8129 1ebe bc55 f5bd 0a54 8cbc d4e4 a53e
00000190: 73e1 3f3d 36e7 16be e090 cebd b5b6 c43e
000001a0: d06c f93c 63fa e5be 8fc5 09be 3ebc 9bbc
000001b0: 27e5 ad3d 9a3b dfbd 8249 923c 5053 b3bd
000001c0: b57b 8fbd 6409 91bd a975 d9bd 79f3 a93e
000001d0: dbe4 4fbe 8c78 4cbd 958c 863e 9d56 9b3e
000001e0: a2aa e63d 7603 13bd 7ddc d9bc ada9 db3e
000001f0: 3282 2bbe 1aee 683e f1a2 a8be 43c3 74bd
00000200: 1ede 99be 7f69 3e3e e418 a43e 2299 2b3e
00000210: e65b 23be 27ee 3cbd 1f58 f03d 9941 1a3e
00000220: c434 46be 5d03 01be 5c31 82be 9e4a 553e
00000230: 46f0 8dbe 4f9b a3be b6bf 87be f07f 53be
00000240: 99ce 76bc 72a6 6dbe 68b1 a1be 0f56 3e3e
00000250: ccbe e83e 3dc1 10bc 5c1b 843c f8d1 8cbd
00000260: 27f0 65bd 72b6 b6be 75b5 0a3e 6b59 dfbd
00000270: 0176 c6bd 22cb ee3e f89f 043e 0b3e e53d
00000280: a3d8 3cbe 4bdb 2bbe 48bb 853c 2cff 6d3e
00000290: 6620 8d3c 57d4 0fbe 75c1 343e d237 04bc
000002a0: d439 cc3e 25eb a23e 443c 823e 15ad bd3d
000002b0: 26ca e23d 6fa8 d3bc 1a9c f53d 2a29 babe
000002c0: 8146 6c3e d19f d73e dd76 83bd e7e8 5ebe
000002d0: 5ea3 a73d 7466 823d 9b73 00bf 76a3 60bd
000002e0: 17da 5d3e 7c7b 263e de2b e7bd 5222 3a3d
000002f0: 9844 acbe 51d3 4e3e 8da2 6b3e 3644 85be
00000300: 643a b4be b984 363e d329 85be 8892 f13e
00000310: 80f2 8e3e 4357 fabe 6a39 6e3e c12d fd3d
00000320: 7b6a 4a3e e0b6 d1bd b47d 1abe a9e3 293f
00000330: 02e2 c93e ed2b 7cbd 65be ddbc 19e8 2cbd
00000340: e256 10be 7ea1 23be 8671 ab3c 5a30 25be
00000350: d4f9 a03e e9c9 b33e f635 a3bd cc19 613e
00000360: 8e07 61be 7ebb 6a3e f9ef 423d e645 25be
00000370: 92ff 0c3d 6944 c43d cb79 5e3e d1e7 563e
00000380: fbf9 c83d 1816 b73e e9ac ffbd 4045 023e
00000390: ffac 423e 75f9 85be 9ca3 e83c e979 8d3e
000003a0: 9d7e 553d d282 90be 6806 173e 5977 e73c
000003b0: 9fd6 a7bd 56c4 923e 1cfc 0b3e 20cc 71be
000003c0: f303 703e a526 e83e dbfb 013f 544b 21bd
000003d0: 77f3 573e 21ff 3ebe 1181 983e 3f77 963e
000003e0: 0e75 943e f7f3 26be d2c2 c5bc 86dd 343e
000003f0: 4932 843e 3e2c ad3d 748c f3bd edb6 28bc

backbone.net.0.bias f4 [256]
-0.4439192 -0.44621557 -0.43077615 0.119861454 0.22365718 0.39656886 -0.034535006 0.08236856
0.009359112 0.15386648 0.2025859 -0.3441607 0.1668302 -0.14677842 0.07416516 0.019465199
-0.25926048 -0.033859666 -0.5080251 0.18505795 0.19682935 -0.2011525 -0.28793186 0.041671265
-0.008799101 -0.12670523 -0.1369645 0.04071716 -0.17768878 0.10215723 -0.41249293 0.062326856
0.19927792 -0.22384757 -0.2519409 -0.3516135 0.09340776 0.18411411 -0.034201417 -0.16380438
-0.47488683 0.20613119 0.12451023 -0.14463775 -0.066311374 -0.2762754 0.024432033 0.079815395
-0.5129535 0.2003272 -0.027457274 -0.30077046 0.005724846 0.19561651 -0.2689442 -0.3521326
0.21673714 -0.26598102 0.2875016 -0.081389494 -0.4903171 -0.26773953 0.03701418 -0.06651695
-0.20162892 -0.42761874 -0.36676455 -0.2143463 0.027085759 -0.28796613 -0.28372124 -0.2562256
0.18023027 0.1506229 0.01629577 -0.24069811 -0.05776742 0.27210477 -0.22943366 -0.14168462
0.045503017 -0.107066095 0.17284337 -0.13902639 -0.38983655 -0.23504713 -0.35186306 0.2293148
-0.2972409 -0.05376012 -0.08949466 0.23046882 0.19900545 -0.42559388 -0.050138623 0.20682181
-0.31658763 -0.23669957 -0.32557273 -0.2185088 -0.2053298 -0.117243044 -0.020090174 -0.12382562
0.07861201 0.06368391 0.102667645 -0.101258546 -0.4649902 0.019864073 0.10710975 0.033394158
0.23416607 0.049653076 -0.4776692 -0.29727203 0.24565576 -0.38781503 -0.09034737 -0.15426849
0.18395388 -0.17109747 -0.062589936 -0.37578946 -0.40362233 -0.37404126 0.124154165 -0.09605843
-0.13951686 -0.1920609 -0.12432531 -0.2954376 0.13582279 0.11323902 0.21413541 -0.22976284
-0.019199044 -0.3652237 -0.078072555 -0.11654266 -0.023897381 0.048667736 -0.05667151 -0.42818478
-0.169052 0.06951424 -0.062514745 -0.13670473 -0.13873257 -0.36618078 0.023660984 -0.3789277
0.2678692 -0.29851076 0.2823309 -0.47706637 -0.36110848 0.06567901 -0.025363335 -0.02059978
-0.2484799 0.2617555 -0.117437385 0.07490063 -0.3311021 -0.19974701 0.29685435 -0.13632418
-0.2842379 0.12839386 -0.05080397 0.04682595 -0.32937402 0.059116438 -0.35300124 0.21883151
0.068648785 -0.15288685 0.24501126 0.05694135 -0.31506932 -0.123319104 0.07236335 -0.10367425
-0.1040987 0.18086423 -0.22024103 -0.22233544 -0.058895465 -0.3525801 -0.4495112 0.08013869
0.19244952 0.013530477 -0.443055 0.029225685 -0.33051962 -0.35033837 -0.19051996 -0.3408504
0.17070311 0.14655373 0.44610828 -0.3633124 0.23598242 -0.45884272 0.12586716 0.18608308
0.106626935 -0.014863199 -0.17865081 0.005610183 -0.07184017 0.10880453 -0.16818765 0.2308784
-0.085749164 -0.38910642 0.1578786 -0.5013783 0.11561458 -0.016626183 -0.13427651 0.026366986
-0.057358697 0.04962799 -0.2752918 -0.17802924 -0.022229763 -0.4226828 -0.062349148 -0.36420244
0.048638884 -0.25985003 -0.2853347 -0.24739659 -0.21180953 -0.021575004 -0.14605372 -0.21959904
0.04953 0.19536896 0.060933497 -0.368287 -0.39434752 -0.27983075 -0.5248128 -0.03975704
0.21770504 -0.2832312 0.16475275 -0.4613339 -0.41209805 0.1356625 -0.2277289 0.004936089
00000000: 6149 e3be 5e76 e4be b18e dcbe ec79 f53d
00000010: 6306 653e 130b cb3e 9474 0dbd d9b0 a83d
00000020: f656 193c 2d8f 1d3e ae72 4f3e d535 b0be
00000030: 89d5 2a3e 154d 16be e7e3 973d 7b75 9f3c
00000040: cabd 84be 6fb0 0abd ef0d 02bf d57f 3d3e
00000050: a28d 493e ecfa 4dbe ce6b 93be 7daf 2a3d
00000060: 1b2a 10bc 04bf 01be 6c40 0cbe 09c7 263d
00000070: 0cf4 35be cf37 d13d 4632 d3be 724a 7f3d
00000080: 830f 4c3e 4c38 65be 66fe 80be af06 b4be
00000090: 914c bf3d 6988 3c3e c916 0cbd 56bc 27be
000000a0: 5e24 f3be 0e14 533e 38ff fe3d eb1b 14be
000000b0: 42ce 87bd f873 8dbe b025 c83c 4176 a33d
000000c0: ec50 03bf 9322 4d3e 14ee e0bc 96fe 99be
000000d0: 7d97 bb3b b24f 483e 0eb3 89be b94a b4be
000000e0: 57f0 5d3e aa2e 88be 6933 933e 89af a6bd
000000f0: d80a fbbe 2815 89be 2e9c 173d 0a3a 88bd
00000100: d077 4ebe d8f0 dabe 90c8 bbbe 997d 5bbe
00000110: f4e2 dd3c 4c70 93be e943 91be 0030 83be
00000120: 498e 383e e43c 1a3e b57e 853c 9179 76be
00000130: 889d 6cbd 5151 8b3e a8f0 6abe c615 11be
00000140: 5f61 3a3d 7845 dbbd dafd 303e ef5c 0ebe
00000150: a898 c7be 32b0 70be 6527 b4be 80d1 6a3e
00000160: f62f 98be 9233 5cbd fa48 b7bd 0500 6c3e
00000170: 16c8 4b3e 71e7 d9be 285e 4dbd 19c9 533e
00000180: c617 a2be 5f61 72be 78b1 a6be c5c0 5fbe
00000190: fa41 52be 1f1d f0bd 2694 a4bc 4998 fdbd
000001a0: 55ff a03d b66c 823d 6a43 d23d a460 cfbd
000001b0: 3213 eebe fbb9 a23c 5b5c db3d 50c8 083d
000001c0: 3bc9 6f3e 0661 4b3d 0f91 f4be 0a34 98be
000001d0: 2f8d 7b3e b18f c6be 0b08 b9bd 8ff8 1dbe
000001e0: 685e 3c3e 2d34 2fbe 272f 80bd 7a67 c0be
000001f0: 96a7 cebe 5682 bfbe 8a44 fe3d 48ba c4bd
00000200: 82dd 0ebe 9dab 44be 459e febd 9943 97be
00000210: 2115 0b3e dce9 e73d 5046 5b3e f346 6bbe
00000220: 5047 9dbc 9afe babe 81e4 9fbd ebad eebd
00000230: 71c4 c3bc d257 473d 6320 68bd 093b dbbe
00000240: f81b 2dbe 7b5d 8e3d bb07 80bd 53fc 0bbe
00000250: e90f 0ebe 0c7c bbbe aed4 c13c d002 c2be
00000260: 2726 893e 67d6 98be ad8d 903e 0b42 f4be
00000270: 36e3 b8be b782 863d c5c6 cfbc dfc0 a8bc
00000280: 8471 7ebe d104 863e 0383 f0bd 8065 993d
00000290: 3786 a9be 7b8a 4cbe 4bfd 973e 9198 0bbe
000002a0: a187 91be ae79 033e d317 50bd 91cc 3f3d
000002b0: b6a3 a8be 1424 723d 94bc b4be 5e15 603e
000002c0: bc97 8c3d 5f8e 1cbe 3be4 7a3e 553b 693d
000002d0: c450 a1be ba8e fcbd 3c33 943d 2a53 d4bd
000002e0: b331 d5bd 7934 393e dd86 61be e7ab 63be
000002f0: 5f3c 71bd 6185 b4be 5526 e6be c11f a43d
00000300: 7d11 453e efae 5d3c 1bd8 e2be b46a ef3c
00000310: de39 a9be 8d5f b3be aa17 43be f283 aebe
00000320: cccc 2e3e 2e12 163e 4e68 e43e 1504 babe
00000330: 60a5 713e 6fed eabe 52e3 003e 908c 3e3e
00000340: 395f da3d c684 73bc 3df0 36be a0d5 b73b
00000350: f020 93bd e9d4 de3d 6239 2cbe 636b 6c3e
00000360: 429d afbd f538 c7be edaa 213e 545a 00bf
00000370: 56c7 ec3d a233 88bc c87f 09be 94ff d73c
00000380: f4f0 6abd b846 4b3d 0cf3 8cbe 4c4d 36be
00000390: 311b b6bc e169 d8be d261 7fbd be78 babe
000003a0: 9139 473d 100b 85be 6417 92be 8855 7dbe
000003b0: 99e4 58be 10be b0bc 1b8f 15be 92de 60be
000003c0: f8df 4a3d cd0e 483e 6795 793d 1d90 bcbe
000003d0: ebe7 c9be fa45 8fbe 225a 06bf 47d8 22bd
000003e0: 12ee 5e3e ae03 91be f2b4 283e f533 ecbe
000003f0: 84fe d2be 1ceb 0a3e c431 69be eabe a13b

backbone.net.2.weight f4 [256, 256]
-0.0007502762 0.09074761 -0.009964836 -0.031338416 -0.122976 0.12434515 -0.059811175 -0.1166081
0.015739558 -0.023028612 0.03379692 -0.50165206 -0.016705547 -0.041733317 0.07775701 0.083375946
0.14113955 0.014379739 -0.02639281 0.109565504 0.019756133 0.003648217 -0.15133214 -0.11134864
0.059606295 -0.024315393 -0.024912031 0.060514536 0.031298947 -0.05430814 -0.032581996 0.051602036
0.060954493 0.12674275 0.13797082 -0.02087056 -0.0063656927 -0.044773206 0.029124985 0.26824012
-0.17392708 -0.15454902 0.080059476 -0.03368899 0.0040738606 -0.05067599 -0.15645376 -0.07590973
0.12315937 0.024345895 0.08553517 0.10127673 0.03224695 0.109164484 0.030829716 0.022955256
-0.14669193 0.16432309 -0.16749524 -0.08623889 -0.010452895 0.13170473 0.039136898 0.021765456
-0.006785892 0.2046662 -0.009957734 0.12064747 0.08391277 -0.079511136 0.13023528 0.047247443
0.04577405 0.0048579834 -0.017454816 -0.035876956 0.07445068 0.06258734 0.00501047 0.055533372
-0.0044620223 0.21986523 0.15523255 0.002691687 -0.031192785 -0.022432495 0.058537595 -0.25526667
-0.12601775 -0.10950534 -0.09838782 -0.055062667 0.051435553 -0.051768668 0.06403449 0.0005661848
-0.027195796 -0.13038868 0.13503082 -0.047900114 0.028483288 0.002138693 -0.01816049 -0.09817418
0.081276916 0.08020546 0.043420393 0.015175454 0.027812121 -0.1504937 0.076378666 -0.03932038
0.067503825 -0.010901195 0.0004899683 0.20272885 0.017680326 0.17724924 -0.027914498 -0.021244925
0.0720837 0.03193767 0.07156996 -0.054641433 0.021150012 -0.018223979 -0.23574351 -0.028854536
-0.0124423 -0.09249216 -0.06826981 -0.14221303 -0.0226791 0.10807896 -0.05132775 -0.14502446
-0.08939035 0.09377283 0.07908014 -0.04854154 -0.1828275 -0.10691851 -0.049707323 0.019293264
0.00769834 0.03387751 0.10129981 -0.045469902 -0.1316457 0.15154503 -0.2674351 0.056956988
-0.043820567 -0.19445941 0.20663892 -0.06831875 -0.18676586 -0.086493954 0.033060327 0.096085966
0.08657756 0.078119226 -0.037863307 0.07825712 0.041522224 0.09211475 -0.041031536 0.007992265
0.038015727 0.004635381 -0.09612883 0.029802218 0.01572376 -0.0023529618 0.024511771 -0.046311468
0.06486205 0.06275506 -0.0040975073 0.13124421 -0.118260585 -0.075770594 -0.07960472 0.07310858
-0.103233784 0.073245086 0.012105842 -0.027195105 0.029112102 -0.06208561 -0.04893751 -0.14555427
0.005548467 0.020915836 0.14471085 -0.18885949 -0.18912399 -0.019245919 0.019071044 0.060682375
0.028030736 0.036251772 -0.038356397 -0.018555982 0.01896431 -0.0389805 0.07811926 -0.007243394
0.075981386 0.10771181 -0.027911734 -0.061828226 0.04531738 -0.09429413 -0.15576196 0.10107349
-0.06604454 -0.030145625 0.049728155 0.10505312 -0.15207534 -0.13729253 0.030508874 0.001738843
-0.46512163 -0.06532162 0.039717577 -0.09986495 -0.027872434 0.09849018 -0.09736393 -0.008011471
0.01900483 -0.051377624 0.089145795 0.04186007 -0.0062050438 -0.0064765983 -0.06937729 -0.033620704
-0.106235355 0.0801022 0.022889184 -0.025328886 -0.07450857 -0.005082633 0.061498273 0.09813548
-0.008216806 0.017620536 0.041086074 -0.012016717 0.059773557 0.016294295 0.0017967161 0.020779962
00000000: 2fae 44ba e2d9 b93d 8d43 23bc b65c 00bd
00000010: d7da fbbd aca8 fe3d 90fc 74bd 3ad0 eebd
00000020: 3ff0 803c 80a6 bcbc a46e 0a3d 456c 00bf
00000030: 12da 88bc 8ef0 2abd 113f 9f3d 02c1 aa3d
00000040: e386 103e ff98 6b3c bc35 d8bc e163 e03d
00000050: 9dd7 a13c ed16 6f3b d0f6 1abe c10a e4bd
00000060: bb25 743d 1331 c7bc 5114 ccbc 17de 773d
00000070: 5333 003d 3672 5ebd b374 05bd a85c 533d
00000080: 6bab 793d dac8 013e 3948 0d3e bdf8 aabc
00000090: 4d97 d0bb 1c64 37bd 8597 ee3c c556 893e
000000a0: f119 32be 1942 1ebe 39f6 a33d 77fd 09bd
000000b0: 057e 853b a091 4fbd 6a35 20be 8f76 9bbd
000000c0: fb3a fc3d 0b71 c73c 102d af3d 2d6a cf3d
000000d0: 6115 043d a191 df3d 9a8e fc3c a90c bc3c
000000e0: 6936 16be 5044 283e df83 2bbe 049e b0bd
000000f0: 9f42 2bbc 9bdd 063e 034e 203d 784d b23c
00000100: 305c debb 0494 513e c325 23bc 0516 f73d
00000110: 75da ab3d bcd6 a2bd 665c 053e 8986 413d
00000120: 927d 3b3d b82f 9f3b 67fd 8ebc b7f3 12bd
00000130: 9979 983d cb2d 803d de2e a43b f676 633d
00000140: 2836 92bb 5a24 613e 48f5 1e3e 0467 303b
00000150: 0388 ffbc 5ac4 b7bc 1ec5 6f3d 50b2 82be
00000160: cc0a 01be 5644 e0bd 8e7f c9bd 6489 61bd
00000170: 16ae 523d 620b 54bd 8424 833d 056c 143a
00000180: b8c9 debc 9c84 05be 8545 0a3e e932 44bd
00000190: c955 e93c 5029 0c3b 4fc5 94bc 8b0f c9bd
000001a0: 8374 a63d c342 a43d 95d9 313d 78a2 783c
000001b0: 3fd6 e33c 051b 1abe 6b6c 9c3d 680e 21bd
000001c0: 723f 8a3d ed9a 32bc 3771 003a 2798 4f3e
000001d0: 55d6 903c d380 353e f2ac e4bc d609 aebc
000001e0: 9ea0 933d 13d1 023d 4593 923d b2cf 5fbd
000001f0: ca42 ad3c 744a 95bc bf66 71be 5960 ecbc
00000200: cada 4bbc 886c bdbd 0bd1 8bbd 4ba0 11be
00000210: 85c9 b9bc 8058 dd3d 0c3d 52bd 4b81 14be
00000220: 4a12 b7bd f80b c03d c5f4 a13d 7ed3 46bd
00000230: 2237 3bbe 17f8 dabd e899 4bbd e80c 9e3c
00000240: 5b42 fc3b 25c3 0a3d 4676 cf3d a63e 3abd
00000250: 21ce 06be 9f2e 1b3e 41ed 88be bb4b 693d
00000260: 327d 33bd 5e20 47be 2799 533e b3ea 8bbd
00000270: 8d3f 3fbe be23 b1bd 446a 073d b8c8 c43d
00000280: 934f b13d f9fc 9f3d 8e16 1bbd 4545 a03d
00000290: 3513 2a3d a8a6 bc3d af10 28bd fdf1 023c
000002a0: 61b6 1b3d 65e4 973b 31df c4bd c823 f43c
000002b0: 1dcf 803c 2634 1abb e9cc c83c 18b1 3dbd
000002c0: 65d6 843d ba85 803d 6244 86bb e264 063e
000002d0: 9b32 f2bd 9d2d 9bbd cd07 a3bd f4b9 953d
000002e0: 3c6c d3bd 8501 963d 9557 463c 45c8 debc
000002f0: 817c ee3c 7b4d 7ebd b372 48bd 2e0c 15be
00000300: eacf b53b b057 ab3c 152f 143e 6264 41be
00000310: b8a9 41be 9ea9 9dbc e13a 9c3c 158e 783d
00000320: b7a0 e53c bd7c 143d 991b 1dbd b702 98bc
00000330: 0a5b 9b3c 04aa 1fbd fefc 9f3d fe59 edbb
00000340: 219c 9b3d 0298 dc3d 26a7 e4bc 983f 7dbd
00000350: b89e 393d 481d c1bd 1080 1fbe 9eff ce3d
00000360: 5c42 87bd f5f3 f6bc c0af 4b3d 1726 d73d
00000370: a3b9 1bbe 6a96 0cbe bfed f93c e4e9 e33a
00000380: 6c24 eebe 57c7 85bd e6ae 223d ff85 ccbd
00000390: bb54 e4bc 38b5 c93d bd66 c7bd 8b42 03bc
000003a0: 04b0 9b3c 5871 52bd 1292 b63d 7775 2b3d
000003b0: ae53 cbbb a539 d4bb ae15 8ebd ddb5 09bd
000003c0: ec91 d9bd 9f0c a43d 1982 bb3c 867e cfbc
000003d0: f397 98bd 378c a6bb 9de5 7b3d 41fb c83d
000003e0: c89f 06bc f158 903c df49 283d c4e1 44bc
000003f0: 1ed5 743d 9d7b 853c ca7f eb3a bd3a aa3c

backbone.net.2.bias f4 [256]
0.023926252 0.030905157 0.04107146 -0.06307743 -0.15721688 -0.10308182 0.019971889 0.03454819
0.023945978 -0.057648215 -0.07381911 0.07750536 -0.021098062 0.036929555 -0.03314666 -0.0627859
0.04584289 0.080081455 0.007485093 0.016280085 0.14977401 0.097111166 -0.061642602 0.0805951
-0.036109075 -0.01641803 -0.07606745 -0.09042842 0.025034688 -0.028291091 0.044544324 -0.1062577
-0.041332595 -0.0012549225 0.1462888 0.020200763 0.073738776 0.014177062 0.14242427 0.024366565
0.026994305 -0.037364777 -0.015304339 -0.070473365 -0.045611024 0.017045299 -0.027396567 0.14998762
0.07654536 -0.118959576 0.022749495 0.041323666 -0.016662745 0.0671396 -0.004978664 -0.024746645
-0.117202856 -0.05970436 0.0032350048 0.07207311 0.015932161 0.0050806385 0.027781537 -0.03075795
-0.15830612 0.040174793 0.109430596 0.084325686 -0.04255563 0.042262986 0.022943718 -0.16420983
-0.025271492 0.12856081 0.053529784 0.065198734 0.12657088 0.069129445 0.119696766 -0.008282605
-0.042322114 0.107530475 -0.012929634 0.03786551 -0.011470725 0.038979474 0.086714804 -0.016698616
-0.005637755 0.034335494 -0.0310334 -0.066999026 0.038429517 0.0032562874 -0.011459496 0.0077855266
-0.023586482 0.0857795 0.07527416 0.027138475 -0.08187026 0.033592645 -0.023913085 0.058424655
0.078811646 -0.03033062 -0.0014099041 -0.030475553 0.027670374 -0.08848833 -0.03100427 -0.1445986
0.020627365 0.02751649 -0.0034996169 -0.039372377 0.05925323 -0.06312185 0.06571224 -0.13008277
-0.07461274 0.09001885 -0.012498939 0.084505506 -0.10097089 0.0016386424 0.04565176 0.010859722
0.049417526 -0.016287295 -0.029265719 0.03373048 -0.045123175 0.03398405 -0.08569038 -0.072998405
0.05500093 -0.08888697 -0.049096238 -0.05893544 0.021001598 -0.084296115 0.011536029 0.02376493
-0.016962877 -0.042040616 -0.015404061 -0.13313183 0.019061381 0.035536222 0.032011602 0.058986913
0.04140763 -0.1542693 0.110771455 0.08769437 -0.10726437 -0.03746669 -0.018794056 0.041060913
0.04042499 -0.076586165 -0.05089561 0.07231386 -0.052191015 0.0010898135 0.12730345 0.00089513866
0.10150837 0.02725871 -0.075038455 -0.04473649 -0.009589322 -0.030587353 -0.13197443 0.009451723
-0.091355555 -0.035178676 0.049483705 -0.004112179 0.06567394 0.09396501 0.0126197385 -0.0734808
0.06985495 0.014416458 0.09881611 0.054909993 0.037981447 0.14728487 0.099679746 0.00208241
0.024424052 0.032770358 0.03756651 -0.05222726 0.073246874 0.042753465 0.12904434 0.069284484
-0.037754647 -0.02960924 -0.117129 -0.06386372 -0.057515305 0.15148485 0.011467254 -0.09931166
-0.031748306 -0.0006233126 -0.15931031 0.06898551 0.07483019 -0.10097365 0.10131582 0.0934045
0.09033068 0.046853866 0.07930644 0.0839236 0.08927626 0.03125131 0.010427456 0.017237
0.03125862 0.13885766 0.06001764 -0.06345984 0.08225832 0.15282753 -0.040213834 0.022616496
0.081694365 -0.009182794 0.028183127 0.086507246 -0.080305986 -0.012956342 -0.084913075 -0.003461058
-0.0395032 0.07924178 -0.0059532463 -0.07052856 0.019737657 0.02970195 -0.0315227 0.044451118
0.018837832 -0.097841896 -0.014712288 -0.036126457 -0.07602621 -0.1068207 0.047480565 0.03089933
00000000: fd00 c43c d02c fd3c 8c3a 283d bd2e 81bd
00000010: 76fd 20be 901c d3bd 169c a33c 6782 0d3d
00000020: 5b2a c43c 8920 6cbd 792e 97bd 21bb 9e3d
00000030: d8d5 acbc 7243 173d cbc4 07bd e595 80bd
00000040: c1c5 3b3d bf01 a43d 8345 f53b d05d 853c
00000050: 5c5e 193e 38e2 c63d f47c 7cbd 0b0f a53d
00000060: 1ce7 13bd 1b7f 86bc 40c9 9bbd 8932 b9bd
00000070: 8c15 cd3c b8c2 e7bc 1c74 363d a39d d9bd
00000080: 5e4c 29bd 367c a4ba bbcc 153e 127c a53c
00000090: 5b04 973d e846 683c abd7 113e 649c c73c
000000a0: 2923 dd3c cf0b 19bd 0dbf 7abc 5754 90bd
000000b0: a0d2 3abd 95a2 8b3c c46e e0bc 5b96 193e
000000c0: d0c3 9c3d 14a1 f3bd 265d ba3c 0143 293d
000000d0: 4f80 88bc 7d80 893d 1024 a3bb 7ab9 cabc
000000e0: 0d08 f0bd 8f8c 74bd 6002 543b 119b 933d
000000f0: 2a84 823c 7c7b a63b 1b96 e33c 19f8 fbbc
00000100: 001b 22be 538e 243d 261d e03d f2b2 ac3d
00000110: d04e 2ebd f41b 2d3d 77f4 bb3c 9f26 28be
00000120: 2906 cfbc 72a5 033e 0c42 5b3d ea86 853d
00000130: cc9b 013e bd93 8d3d 9423 f53d c3b3 07bc
00000140: f459 2dbd f038 dc3d d1d6 53bc dd18 1b3d
00000150: b5ef 3bbc f1a8 1f3d 8897 b13d 89cb 88bc
00000160: ebbc b8bb 60a3 0c3d c239 febc c936 89bd
00000170: 4568 1d3d 7067 553b 9cc0 3bbc bb1d ff3b
00000180: 7038 c1bc 2aad af3d 5729 9a3d 8251 de3c
00000190: 98ab a7bd 7198 093d 60e5 c3bc b14e 6f3d
000001a0: 0068 a13d ec77 f8bc 88cc b8ba dea7 f9bc
000001b0: fbac e23c 5f39 b5bd abfc fdbc a811 14be
000001c0: b8fa a83c 436a e13c d459 65bb ee44 21bd
000001d0: 84b3 723d 0746 81bd 2494 863d 6b34 05be
000001e0: 90ce 98bd ce5b b83d 5ac8 4cbc 3911 ad3d
000001f0: d3c9 cebd b7c7 d63a 57fd 3a3d faec 313c
00000200: 086a 4a3d ef6c 85bc a9be efbc f928 0a3d
00000210: 14d3 38bd dc32 0b3d 707e afbd 3080 95bd
00000220: a848 613d 5f0a b6bd 2319 49bd 4a66 71bd
00000230: 8b0b ac3c 71a3 acbd 9d01 3d3c acae c23c
00000240: bbf5 8abc c832 2cbd 5161 7cbc b653 08be
00000250: 9d26 9c3c 6e8e 113d 991e 033d 439c 713d
00000260: 0c9b 293d c5f8 1dbe 25dc e23d 1b99 b33d
00000270: 6cad dbbd ac76 19bd fef5 99bc 7d2f 283d
00000280: ad94 253d 35d9 9cbd ea77 50bd 4a19 943d
00000290: 3fc6 55bd 13d8 8e3a d65b 023e bda7 6a3a
000002a0: 9fe3 cf3d a84d df3c c3ad 99bd 9c3d 37bd
000002b0: 881c 1dbc 5492 fabc 4e24 07be 66db 1a3c
000002c0: 9f18 bbbd 8417 10bd 6daf 4a3d 75bf 86bb
000002d0: 0f80 863d ba70 c03d 05c3 4e3c 1a7d 96bd
000002e0: 1d10 8f3d 0233 6c3c 1a60 ca3d 4de9 603d
000002f0: 6f92 1b3d d8d1 163e e524 cc3d 0b79 083b
00000300: f314 c83c 363a 063d 57df 193d 40ec 55bd
00000310: 7502 963d 421e 2f3d 3324 043e 06e5 8d3d
00000320: 9ea4 1abd 148f f2bc 54e1 efbd fbca 82bd
00000330: 2b95 6bbd d81e 1b3e 26e1 3b3c e963 cbbd
00000340: 830a 02bd cd65 23ba 3e22 23be 4648 8d3d
00000350: 9240 993d 46cb cebd ab7e cf3d dc4a bf3d
00000360: 4bff b83d d7e9 3f3d 6a6b a23d 23e0 ab3d
00000370: 79d6 b63d 6001 003d ecd7 2a3c 9c34 8d3c
00000380: 0a09 003d b430 0e3e 0fd5 753d 3cf7 81bd
00000390: 0d77 a83d d27e 1c3e 43b7 24bd 3b46 b93c
000003a0: 604f a73d 6e73 16bc 4de0 e63c b62a b13d
000003b0: 7777 a4bd d646 54bc e8e6 adbd ebd2 62bb
000003c0: 1cce 21bd 8449 a23d 7313 c3bb 4771 90bd
000003d0: deb0 a13c 8151 f33c f21d 01bd 6012 363d
000003e0: cc51 9a3c 5561 c8bd cf0b 71bc 56f9 13bd
000003f0: a1b3 9bbd d0c4 dabd fb7a 423d 9720 fd3c

backbone.net.4.weight f4 [3, 256]
0.14834085 -0.025888262 -0.15723722 0.02395464 -0.04823427 0.01641922 0.0020270036 -0.13885902
-0.07706843 0.17192438 0.028223937 -0.07963954 0.013711232 0.108586736 -0.10344114 0.0051811016
0.0016123715 -0.08261352 -0.17211476 -0.02071867 -0.30306256 0.13893542 0.113688275 0.00071296137
-0.013841167 -0.14100671 0.006396784 -0.028365891 -0.056412667 -0.19504486 -0.01569063 -0.13164163
0.10963726 0.08423082 -0.11919057 -0.16162032 0.04732964 0.060126916 0.096149415 0.050847508
0.16892506 0.08744569 -0.066280134 -0.07284398 -0.028302947 -0.2412281 -0.08939136 -0.1707715
-0.27661577 -0.0007898944 -0.042013254 0.0827241 -0.031713694 0.101433836 0.255704 0.089853294
-0.14205152 0.14158066 -0.35448074 0.46938267 0.14315118 0.11907483 -0.0024175767 -0.26885033
0.18921913 0.0802987 0.08885064 0.05695709 0.10035724 0.23625909 -0.019743918 -0.23065095
0.036884036 -0.12278625 -0.08427718 -0.02944211 -0.05690807 -0.20087972 0.108659506 -0.10075411
0.27731434 0.24009807 0.099097535 -0.032206487 0.11068709 -0.42561764 0.19102164 -0.2646414
0.16795625 -0.10648574 -0.1619413 -0.18718168 0.046518903 -0.097719766 -0.09169692 0.0011281739
0.19257349 -0.021230852 -0.022025006 0.23862837 -0.43441936 0.13068978 0.21403998 0.085087776
0.3369983 -0.07838587 -0.323865 0.079806514 0.10477549 -0.15838131 -0.15734766 -0.10628607
-0.32760438 0.10154693 -0.06053059 -0.1747194 -0.08951779 -0.024337921 -0.15049082 0.094042346
-0.15210086 -0.028052248 -0.18987055 -0.26498502 0.17832014 0.085871 0.1704422 0.015519303
-0.021594618 0.091209486 0.3736533 0.28731772 -0.0033662224 -0.042216904 0.2607762 0.14981064
-0.026944958 -0.11971972 0.013186323 -0.15324982 0.09291464 0.0012492859 0.032220088 0.011099724
-0.30013114 0.12912345 0.002498487 -0.15322012 -0.03166562 -0.14520785 -0.007088223 0.059844527
0.08100272 0.51154405 -0.2838641 -0.13545804 0.23679571 -0.060601987 -0.054031104 -0.024591098
-0.20139556 -0.19943035 0.020310236 0.10685574 0.37696573 0.061189976 0.068781905 0.06923581
-0.105980895 -0.041235898 0.10008683 0.052405335 -0.061268374 -0.053831633 -0.52465975 -0.16094013
-0.18716092 -0.17862551 -0.016469851 0.0072507984 -0.028967734 0.008056302 -0.2366221 0.020111488
0.19646695 0.31608444 0.27470148 -0.024180738 0.11284166 -0.3632211 0.5521699 0.21805128
-0.29856297 0.059414536 -0.12742126 -0.39676046 0.05281579 -0.24391666 0.13815781 0.0054172324
-0.13799419 0.089690685 -0.022009222 0.14312609 -0.09643137 -0.029237853 0.04342886 0.40319407
-0.044900466 0.107849546 -0.041988477 0.1633003 -0.18793476 0.2894603 -0.06982005 0.056000486
0.101317234 0.13659924 -0.15458913 0.21105172 0.16521166 -0.053114247 0.18098564 -0.2212112
-0.13903055 -0.00667234 0.07647825 0.05676588 0.059422094 0.4226728 -0.1521281 0.17462845
-0.063795194 0.18236084 -0.05768642 0.0010157231 -0.054322384 0.01608597 -0.2654048 0.076434694
-0.042004105 0.1317743 0.013236019 0.010336816 0.039363883 0.107363336 0.0071100835 -0.41803268
0.1307464 -0.24471629 -0.078699484 -0.21579143 0.07685627 0.19858895 0.12757726 0.07724398
00000000: aae6 173e 9f13 d4bc cb02 21be 853c c43c
00000010: 4c91 45bd 9a81 863c 7ad7 043b 0f31 0ebe
00000020: 0ed6 9dbd f20c 303e e335 e73c 0e1a a3bd
00000030: 13a5 603c b962 de3d f3d8 d3bd 3bc6 a93b
00000040: 3656 d33a 4731 a9bd da3e 30be 33ba a9bc
00000050: 042b 9bbe 1645 0e3e 66d5 e83d 07e6 3a3a
00000060: 10c6 62bc 1064 10be 1d9c d13b 965f e8bc
00000070: f810 67bd d7b9 47be a389 80bc 10cd 06be
00000080: 8089 e03d 3581 ac3d 301a f4bd cc7f 25be
00000090: b9dc 413d a447 763d fce9 c43d 7a45 503d
000000a0: b1fa 2c3e ba16 b33d e1bd 87bd 392f 95bd
000000b0: 95db e7bc 8004 77be d112 b7bd b9de 2ebe
000000c0: 95a0 8dbe ea10 4fba 1716 2cbd 416b a93d
000000d0: 38e6 01bd 8bbc cf3d a2eb 823e 0105 b83d
000000e0: f475 11be 85fa 103e 807e b5be ed52 f03e
000000f0: 3996 123e 81dd f33d 3570 1ebb c0a6 89be
00000100: a9c2 413e a573 a43d 53f7 b53d d64b 693d
00000110: 1988 cd3d e7ed 713e ffbd a1bc c32f 6cbe
00000120: b713 173d 5c77 fbbd 8499 acbd 9430 f1bc
00000130: 7018 69bd 6ab3 4dbe e088 de3d 2c58 cebd
00000140: 25fc 8d3e 45dc 753e a6f3 ca3d f3ea 03bd
00000150: eaaf e23d 8eea d9be 2d9b 433e 147f 87be
00000160: b9fc 2b3e 3215 dabd f1d3 25be 8eac 3fbe
00000170: 9b8a 3e3d 4d21 c8bd 98cb bbbd 3cdf 933a
00000180: fc31 453e 53ec adbc c96d b4bc ff5a 743e
00000190: 376c debe 8bd3 053e 4c2d 5b3e 8042 ae3d
000001a0: 0b8b ac3e c588 a0bd a2d1 a5be 9971 a33d
000001b0: 8894 d63d b62e 22be bf1f 21be 83ac d9bd
000001c0: c3bb a7be d6f7 cf3d edee 77bd a4e9 32be
000001d0: 1a55 b7bd 5260 c7bc 441a 1abe 4699 c03d
000001e0: 54c0 1bbe d4cd e5bc 6d6d 42be 1eac 87be
000001f0: 8e99 363e 23dd af3d 6688 2e3e ad44 7e3c
00000200: 32e7 b0bc 0acc ba3d 7c4f bf3e 4f1b 933e
00000210: d79b 5cbb a2eb 2cbd 7584 853e f667 193e
00000220: acbb dcbc 9d2f f5bd 730b 583c 85ed 1cbe
00000230: 084a be3d 14bf a33a 36f9 033d 9edb 353c
00000240: caaa 99be f038 043e a8bd 233b bce5 1cbe
00000250: cfb3 01bd 5eb1 14be 5344 e8bb 891f 753d
00000260: c1e4 a53d 8df4 023f a356 91be 83b5 0abe
00000270: 937a 723e ca39 78bd b84f 5dbd 4573 c9bc
00000280: a33a 4ebe 7837 4cbe a761 a63c 2fd7 da3d
00000290: a701 c13e 57a2 7a3d 87dd 8c3d 81cb 8d3d
000002a0: 830c d9bd f9e6 28bd 53fa cc3d faa6 563d
000002b0: 8cf4 7abd 8f7e 5cbd 1a50 06bf 7dcd 24be
000002c0: 1da7 3fbe 9be9 36be c8eb 86bc 1b98 ed3b
000002d0: be4d edbc 94fe 033c 104d 72be d9c0 a43c
000002e0: a22e 493e d2d5 a13e aca5 8c3e af16 c6bc
000002f0: 8719 e73d 1ef8 b9be 025b 0d3f d648 5f3e
00000300: 3fdd 98be a85c 733d b87a 02be 3024 cbbe
00000310: 5f55 583d 4ac5 79be 3e79 0d3e 0a83 b13b
00000320: 594e 0dbe c0af b73d af4c b4bc a58f 123e
00000330: cf7d c5bd 3984 efbc 76e2 313d 746f ce3e
00000340: 8de9 37bd 39e0 dc3d 1cfc 2bbd 3238 273e
00000350: f871 40be 2434 943e d0fd 8ebd c460 653d
00000360: 697f cf3d ace0 0b3e 9d4c 1ebe f11d 583e
00000370: 3f2d 293e 538e 59bd 4d54 393e 3085 62be
00000380: 065e 0ebe a5a3 dabb a1a0 9c3d 5783 683d
00000390: 9564 733d 9268 d83e 78c7 1bbe cdd1 323e
000003a0: 0ea7 82bd cdbc 3a3e 9848 6cbd 0322 853a
000003b0: 2681 5ebd b9c6 833c 23e3 87be cb89 9c3d
000003c0: 7f0c 2cbd d8ef 063e e3db 583c c05b 293c
000003d0: 063c 213d 4fe1 db3d b4fb e83b 6108 d6be
000003e0: 62e2 053e e896 7abe 322d a1bd 6ef8 5cbe
000003f0: d266 9d3d e75a 4b3e 9da3 023e 1732 9e3d

backbone.net.4.bias f4 [3]
-0.009719707 -0.03684516 -0.05093077
00000000: 683f 1fbc f3ea 16bd c89c 50bd

net.net.0.weight f4 [256, 14]
0.1414756 -0.054390498 0.08684381 0.054187328 0.16520867 0.15730801 -0.111366354 -0.14990684
0.078531064 -0.17287603 0.10085234 -0.13986309 -0.24473166 0.010447016 0.33649996 0.039469272
-0.027836094 -0.09893456 -0.20403469 0.5595464 -0.2566 -0.13220826 0.1892973 0.029545352
0.01307877 0.08489444 0.055157047 -0.07911225 -0.09251985 -0.044562858 -0.50518984 -0.21611048
-0.06599249 0.5055964 -0.24090518 -0.16063215 -0.0014612016 -0.045893237 0.08453799 -0.12329167
0.00867679 -0.14595768 0.15598331 0.14267194 0.33213308 0.41027004 0.26413444 -0.05132593
0.26501906 0.17126043 0.081287235 0.24133928 0.13006285 0.2722369 0.21708408 0.055376474
-0.3412815 0.19811311 0.3468585 0.2185353 0.20540431 -0.067081735 -0.032886818 0.24833533
0.051766735 0.0042024446 0.045466732 0.10341124 0.094821274 0.14617677 -0.4334963 0.25824064
-0.1879028 0.13452616 0.16953887 -0.034339055 0.010438762 -0.24951601 -0.10464214 -0.13420911
0.24399914 -0.35369772 -0.41339487 -0.04488667 -0.09970993 -0.28672877 0.13555568 0.28915197
-0.48332053 -0.23540576 -0.07315996 -0.14331572 0.23089117 -0.036103968 0.3108291 0.05365648
-0.1766907 -0.17649545 -0.059828825 0.2261583 -0.5790281 -0.09521498 -0.33560994 0.043590337
0.3563105 -0.21754834 0.26330245 0.32354176 -0.6866119 -0.057468273 -0.018382365 -0.32081795
0.2190389 0.016063116 -0.61730427 0.018101221 -0.025983362 0.39889902 -0.097803004 0.108707115
0.2811624 0.1285847 -0.6151303 0.41157606 0.09327437 -0.113464676 -0.13483886 0.2708889
-0.7232395 -0.3421148 -0.18878494 0.23816477 -0.37607506 -0.04470675 0.12361482 -0.13580596
-0.11283245 -0.033303786 -0.042374518 -0.11061126 -0.25660282 0.04992499 0.0625287 0.33266252
-0.102245614 0.6322688 -0.31436104 -0.12227628 0.24601236 -0.052995186 0.06855412 0.008314739
-0.15497097 -0.054000475 -0.117293715 -0.46069375 -0.4393065 -0.039606847 0.4064175 0.24496382
0.020396022 0.12843187 -0.06216076 -0.20574732 0.18813036 0.16010275 -0.115581535 0.004322412
-0.10644263 -0.17723896 -0.3769825 -0.01576615 0.21094616 0.14876626 -0.3864307 0.07796169
-0.25789598 -0.029297553 0.23941155 0.009277048 -0.013048505 0.086799584 0.32916385 0.116438106
-0.48423436 -0.19489598 -0.13987821 0.21274218 0.43570647 0.046477925 0.13508552 -0.07993975
-0.016885767 0.17153218 0.025756698 -0.019385554 0.015438659 -0.55556333 0.54873455 0.52415013
-0.09851046 -0.6291179 0.34123662 -0.26130348 -0.009260898 0.017868774 0.11051928 -0.30488968
-0.16758768 -0.13615909 -0.2574188 -0.043475483 0.13063923 -0.16262956 -0.33012882 0.031902947
0.041234124 -0.18663225 0.1788874 0.21355483 0.16106914 -0.21775155 0.031050883 0.19158196
0.0013771774 -0.052842595 0.461699 0.2464538 0.485465 -0.17314029 0.14684351 -0.0021362684
0.0028204622 -0.066068694 -0.27839944 -0.013010849 -0.048468247 0.0828364 -0.06933129 -0.36276415
0.0066516055 0.66302526 -0.44176254 -0.5307232 0.20118079 -0.11174365 0.24872802 0.05212121
-0.27027085 -0.0036661483 -0.06174018 -0.0007547543 0.28504637 -0.331286 -0.31273177 0.069001
00000000: fbde 103e 92c8 5ebd 2bdb b13d 88f3 5d3d
00000010: 762c 293e 5a15 213e 0b14 e4bd 2e81 19be
00000020: e5d4 a03d 6a06 31be ac8b ce3d 4538 0fbe
00000030: f09a 7abe f629 2b3c b949 ac3e 88aa 213d
00000040: 8508 e4bc 349e cabd 78ee 50be 6f3e 0f3f
00000050: 1361 83be 9a61 07be 27d7 413e 1809 f23c
00000060: 5648 563c 23dd ad3d 5bec 613d 9a05 a2bd
00000070: 0c7b bdbd 8b87 36bd 1f54 01bf 114c 5dbe
00000080: 1227 87bd c46e 013f d9af 76be c17c 24be
00000090: ca85 bfba 8cfa 3bbd 4122 ad3d 5880 fcbd
000000a0: 1829 0e3c ee75 15be 17ba 1f3e 9818 123e
000000b0: 590d aa3e ea0e d23e a13c 873e 233b 52bd
000000c0: 94b0 873e e55e 2f3e ec79 a63d a521 773e
000000d0: 322f 053e a362 8b3e 4a4b 5e3e 71d2 623d
000000e0: 73bc aebe 2ade 4a3e 7097 b13e b8c7 5f3e
000000f0: 8255 523e 2662 89bd 54b4 06bd 9e4b 7e3e
00000100: 5b09 543d a9b4 893b 533b 3a3d 46c9 d33d
00000110: a831 c23d 5daf 153e 3af3 ddbe 1e38 843e
00000120: 9769 40be 3ac1 093e 999b 2d3e 1ca7 0cbd
00000130: 5707 2b3c 2081 7fbe 9e4e d6bd 1d6e 09be
00000140: e9da 793e de17 b5be 7ea8 d3be 16db 37bd
00000150: b834 ccbd 1dce 92be 1ccf 0a3e ba0b 943e
00000160: ca75 f7be 350e 71be e4d4 95bd 5bc1 12be
00000170: bc6e 6c3e c1e1 13bd fe24 9f3e e6c6 5b3d
00000180: 68ee 34be 39bb 34be 120f 75bd 0b96 673e
00000190: 303b 14bf 1200 c3bd 11d5 abbe c88b 323d
000001a0: 546e b63e fec4 5ebe 94cf 863e 44a7 a53e
000001b0: ccc5 2fbf da63 6bbd 9d96 96bc 4042 a4be
000001c0: bc4b 603e cc96 833c a707 1ebf 0349 943c
000001d0: 0fdb d4bc 7e3c cc3e f14c c8bd d6a1 de3d
000001e0: 85f4 8f3e b5ab 033e 2e79 1dbf 19ba d23e
000001f0: a206 bf3d 2b60 e8bd 3313 0abe f3b1 8a3e
00000200: 3926 39bf ac29 afbe d750 41be 77e1 733e
00000210: e98c c0be 6d1e 37bd c429 fd3d b810 0bbe
00000220: b314 e7bd 8d69 08bd e790 2dbd 2888 e2bd
00000230: 7261 83be 257e 4c3d 0c0f 803d be52 aa3e
00000240: 2666 d1bd 5edc 213f eef3 a0be fc6b fabd
00000250: aaea 7b3e 7b11 59bd 1a66 8c3d 8b3a 083c
00000260: b6b0 1ebe 9a2f 5dbd b037 f0bd 0de0 ebbe
00000270: c8ec e0be ca3a 22bd f415 d03e ccd7 7a3e
00000280: 8f15 a73c a583 033e 489c 7ebd 6daf 52be
00000290: 3fa5 403e faf1 233e 03b6 ecbd 05a3 8d3b
000002a0: 98fe d9bd 217e 35be da03 c1be 0328 81bc
000002b0: 4502 583e 2f56 183e 3fda c5be 61aa 9f3d
000002c0: f10a 84be 6c01 f0bc 4d28 753e c2fe 173c
000002d0: 66c9 55bc fbc3 b13d 2a88 a83e 1a77 ee3d
000002e0: 91ed f7be d092 47be 3c3c 0fbe 16d9 593e
000002f0: eb14 df3e a35f 3e3d dc53 0a3e 74b7 a3bd
00000300: 0554 8abc 22a6 2f3e b6ff d23c 74ce 9ebc
00000310: 6ef2 7c3c 6639 0ebf de79 0c3f b42e 063f
00000320: dabf c9bd df0d 21bf 91b6 ae3e 92c9 85be
00000330: 06bb 17bc 8961 923c ef57 e23d 801a 9cbe
00000340: 1b9c 2bbe 4a6d 0bbe 66cc 83be 5913 32bd
00000350: 4ac6 053e 5d88 26be a506 a9be aaac 023d
00000360: 1de5 283d 861c 3fbe 422e 373e 1eae 5a3e
00000370: 4fef 243e 43fa 5ebe 6c5e fe3c 102e 443e
00000380: 6882 b43a 7a71 58bd d063 ec3e 635e 7c3e
00000390: de8e f83e b04b 31be 255e 163e a300 0cbb
000003a0: 81d7 383b 064f 87bd 5f8a 8ebe 752b 55bc
000003b0: a486 46bd 21a6 a93d 90fd 8dbd 39bc b9be
000003c0: b6f5 d93b 06bc 293f b32e e2be 7add 07bf
000003d0: 5602 4e3e dbd9 e4bd 8fb2 7e3e 0d7d 553d
000003e0: f160 8abe c343 70bb 45e3 7cbd b4da 45ba
000003f0: 99f1 913e 529e a9be 611e a0be 6550 8d3d

net.net.0.bias f4 [256]
0.48149666 0.13325597 -0.056859907 -0.16857955 0.5865238 -0.29743612 -0.14743175 0.017337376
0.091102116 0.40856007 -0.01270431 -0.21321832 0.3305663 0.5101977 -0.15191884 0.4203388
0.5275699 -0.28268626 0.29152104 0.33966514 -0.27185687 0.30404848 -0.30399987 0.44681928
-0.21574202 0.39072844 -0.03916594 0.13482305 0.32399243 0.4174419 -0.32797107 -0.16271217
-0.10554223 -0.07892416 -0.2552119 -0.05076334 0.28507003 0.04994403 -0.16699332 -0.13507822
-0.05197804 0.44188514 -0.03175777 -0.071154915 0.24078141 0.24580699 0.60445803 0.25277075
0.60325485 -0.40201744 0.113375805 0.19865827 0.4767083 -0.004699332 0.1616922 0.52415204
0.5738317 -0.4514841 0.33447194 0.3823687 0.6067661 0.6543235 -0.2880177 0.46200123
-0.07658481 0.50445515 0.19754139 -0.26368618 -0.15470874 0.3003767 0.40721884 0.21807444
-0.44226456 -0.3891094 -0.30282384 -0.1575925 -0.14868182 0.03315825 0.09386976 -0.24568269
0.38625228 -0.2595955 -0.45897445 0.2931441 0.5108666 0.5195121 0.1615187 0.12740748
0.6897469 -0.010033413 0.15301812 -0.123587735 0.39890802 -0.12057462 0.36196795 -0.24756828
0.65066206 0.31294557 -0.2078582 0.1750341 0.40462467 -0.24895431 -0.7427699 -0.1409303
0.528396 0.019431936 -0.2789742 -0.46659675 0.4447337 -0.08751317 0.21549442 0.50833166
0.52415794 -0.028996283 -0.08451726 0.037339143 0.519438 0.41190013 -0.35280263 0.50364256
0.41734135 0.23072259 -0.20746723 -0.27483505 -0.17235197 0.4683561 0.09515703 -0.28591305
-0.32500327 -0.19451365 0.3466102 0.22633742 0.14799634 0.36095828 0.5129466 0.5773843
0.3816782 0.5324234 -0.1971932 0.5557412 0.30116087 0.5607553 -0.14525941 -0.16699909
-0.029229552 -0.39449206 -0.28691545 -0.31005055 0.34605393 0.65799093 -0.20307809 -0.08237691
-0.024529668 0.71731967 0.22667521 0.46628213 0.45328075 0.2833165 0.43796876 0.12189976
-0.40710756 0.020825053 0.7070875 0.58804137 0.32637462 0.33997676 0.45678246 0.46471602
0.5960411 -0.15931335 0.5230234 0.5656358 0.59943104 0.6255961 0.530157 0.66202104
-0.33413687 0.14241944 0.4945111 -0.17089453 0.48305538 0.13539067 0.47655413 0.50790286
-0.045840293 -0.10437063 0.10717955 0.53417814 -0.406478 -0.31790018 0.22996289 0.52404255
-0.0029570113 0.1856651 0.4614424 0.62110406 0.59891385 -0.071852796 -0.2077641 0.35790953
0.6420028 0.41314465 0.45897952 0.43675375 -0.24575981 -0.37384114 -0.18552041 0.23932004
-0.31119397 -0.057009988 -0.5971518 -0.17606495 0.34354174 -0.36178133 -0.013661962 0.5663202
0.031482015 0.40900415 -0.5269538 0.12115953 0.12835388 0.55475295 0.12688729 -0.26308206
-0.14563264 -0.4268176 0.50106925 -0.38546506 0.47855696 -0.258462 0.6988814 0.17081434
0.043486968 0.11750216 -0.2897774 -0.61842334 0.568561 -0.24096513 0.4856569 -0.42078692
-0.19548716 0.5118277 -0.5111946 0.1624201 0.45562658 -0.19253588 -0.2241056 -0.08305449
-0.2992286 -0.1283734 -0.13105911 0.16270496 -0.106491625 0.5718488 0.61051965 0.52989537
00000000: bb86 f63e 4174 083e efe5 68bd 1ea0 2cbe
00000010: 6c26 163f 8c49 98be 59f8 16be 1d07 8e3c
00000020: bf93 ba3d c92e d13e bd25 50bc e755 5abe
00000030: fc3f a93e 519c 023f 9d90 1bbe a636 d73e
00000040: d20e 073f 41bc 90be 3f42 953e 97e8 ad3e
00000050: d330 8bbe 3eac 9b3e dfa5 9bbe 7fc5 e43e
00000060: 7aeb 5cbe 8f0d c83e 776c 20bd 0e0f 0a3e
00000070: 56e2 a53e f2ba d53e d3eb a7be 059e 26be
00000080: 8626 d8bd fda2 a1bd 22ab 82be 38ed 4fbd
00000090: b3f4 913e 1c92 4c3d 4c00 2bbe f251 0abe
000000a0: ede6 54bd c53e e23e 6f14 02bd abb9 91bd
000000b0: 678f 763e d4b4 7b3e c3bd 1a3f 2b6b 813e
000000c0: e96e 1a3f 3bd5 cdbe 9331 e83d 136d 4b3e
000000d0: 1c13 f43e dbfc 99bb a492 253e d42e 063f
000000e0: a2e6 123f ed28 e7be e83f ab3e d5c5 c33e
000000f0: 0655 1b3f bf81 273f 0e77 93be 6d8b ec3e
00000100: 7fd8 9cbd f923 013f 4a48 4a3e e001 87be
00000110: f86b 1ebe faca 993e fd7e d03e e84e 5f3e
00000120: 8070 e2be 5939 c7be ba0b 9bbe ee5f 21be
00000130: 0c40 18be f2d0 073d ca3e c03d 3e94 7bbe
00000140: dcc2 c53e b4e9 84be b3fe eabe fc16 963e
00000150: 27c8 023f bffe 043f 2865 253e 1b77 023e
00000160: 4193 303f 2f63 24bc c8b0 1c3e 911b fdbd
00000170: ac3d cc3e d4ef f6bd dd53 b93e 8a82 7dbe
00000180: ca91 263f 673a a03e c8d8 54be 243c 333e
00000190: f72a cf3e e1ed 7ebe 2b26 3ebf 0850 10be
000001a0: f644 073f b92f 9f3c b5d5 8ebe c5e5 eebe
000001b0: 23b4 e33e 1b3a b3bd 92aa 5c3e 0622 023f
000001c0: 372f 063f 9d89 edbc 6317 adbd eef0 183d
000001d0: e4f9 043f 93e4 d23e 8ca2 b4be b8ee 003f
000001e0: c4ad d53e 8b42 6c3e 4a72 54be 2eb7 8cbe
000001f0: 097d 30be 5fcc ef3e b0e1 c23d 3263 92be
00000200: d466 a6be 962e 47be e476 b13e ffc4 673e
00000210: 5a8c 173e 86cf b83e 7850 033f 75cf 133f
00000220: 536b c33e e64c 083f 04ed 49be 0e45 0e3f
00000230: c231 9a3e a98d 0f3f e2be 14be cf01 2bbe
00000240: d072 efbc ddfa c9be 95e6 92be f2be 9ebe
00000250: fb2d b13e 1872 283f b4f3 4fbe 3ab5 a8bd
00000260: 71f2 c8bc 43a2 373f 8c1d 683e 88bc ee3e
00000270: 6a14 e83e dc0e 913e 713d e03e 95a6 f93d
00000280: 6770 d0be 4d99 aa3c b003 353f e189 163f
00000290: 931a a73e 6f11 ae3e 64df e93e 42ef ed3e
000002a0: 2696 183f 0a23 23be dde4 053f 82cd 103f
000002b0: 5074 193f 1127 203f 5fb8 073f 367a 293f
000002c0: fd13 abbe 67d6 113e 8f30 fd3e fafe 2ebe
000002d0: 0953 f73e daa3 0a3e e7fe f33e ec05 023f
000002e0: 08c3 3bbd 45c0 d5bd f480 db3d e6bf 083f
000002f0: e21d d0be d0c3 a2be 647b 6b3e a727 063f
00000300: 6bca 41bb fe1e 3e3e 2e42 ec3e ad00 1f3f
00000310: 6b52 193f 8f27 93bd 1dc0 54be eb3f b73e
00000320: 4c5a 243f b287 d33e 5dff ea3e 309e df3e
00000330: 76a8 7bbe 1b68 bfbe 10f9 3dbe 5010 753e
00000340: d154 9fbe 4e83 69bd f1de 18bf 5f4a 34be
00000350: b4e4 af3e 673b b9be 6cd6 5fbc 5cfa 103f
00000360: 49f3 003d fe68 d13e 72e6 06bf 7d22 f83d
00000370: 336f 033e 4a04 0e3f beee 013e b1b2 86be
00000380: b920 15be d687 dabe 1346 003f ad5b c5be
00000390: 6b05 f53e 2255 84be e4e9 323f f4e9 2e3e
000003a0: 641f 323d f9a4 f03d b45d 94be fe50 1ebf
000003b0: 378d 113f 90bf 76be 05a8 f83e 6271 d7be
000003c0: c92d 48be 2407 033f a6dd 02bf 7451 263e
000003d0: e347 e93e 2028 45be f07b 65be 7918 aabd
000003e0: 7e34 99be 5174 03be 5c34 06be 219c 263e
000003f0: 4818 dabd af64 123f 044b 1c3f 39a7 073f

net.net.2.weight f4 [256, 256]
0.10943062 -0.07093001 0.027166447 -0.037031185 0.18068665 -0.043238413 -0.14295773 0.007863884
0.0471037 0.105360836 -0.04109766 -0.113049194 -5.3431668e-05 0.10688549 -0.25229877 0.081051685
0.29199347 -0.15411526 0.13439213 0.049519807 -0.15204918 0.079194054 -0.083344325 0.16735743
0.00060556765 0.0915358 0.13497774 0.022286104 0.23536207 0.24713528 -0.10123361 -0.020849833
-0.10062677 -0.06870634 0.06779003 -0.20833445 0.116693236 0.069126 -0.11065912 -0.19041517
-0.010136139 0.16996516 -0.0002809844 0.09048064 0.023672119 0.07135072 0.2839411 0.08755819
0.17447332 -0.0885098 0.13078943 0.105918884 0.07377751 -0.069268264 0.05073762 0.14467043
0.2178058 -0.17691521 -0.018620297 0.021573532 0.19916482 0.16285107 -0.12492932 0.22875154
-0.09918373 0.08990912 0.13717224 -0.22220708 -0.07682577 0.103454344 0.21075018 0.016527079
-0.1566305 -0.02179298 -0.2646067 -0.021221397 0.027625393 0.074369855 0.077195786 -0.05262227
0.15403362 -0.122581646 -0.07037892 0.23558252 0.20976402 0.15811943 0.21706522 0.0674311
0.17805381 -0.012283017 -0.0012626164 0.15997693 0.10759344 -0.23722339 0.09993586 -0.3820823
0.13469398 0.1210239 -0.27810606 0.07358295 0.08846332 -0.022550944 -0.42235366 -0.055622645
0.034266748 0.12368238 -0.09799131 -0.3355028 0.0987078 -0.036678135 -0.013760065 0.20569538
0.09527595 0.14838536 0.027034901 0.080039605 0.08340304 0.1494567 -0.3400447 0.147412
0.15240946 0.1509399 -0.1738693 -0.14789294 -0.09471302 0.04780395 -0.015159634 -0.18205966
-0.42127523 -0.16124736 0.09025282 0.17524786 -0.025631832 0.28203976 0.15493512 0.042378843
0.12297628 0.07126801 -0.11430333 0.08742702 0.08506008 0.080650255 0.031567823 0.1560553
0.083898194 -0.08754839 -0.106892824 0.1608164 -0.081039324 0.22098903 -0.10041445 -0.10397275
0.05724566 0.34789488 0.1687344 0.24632674 0.15450305 0.10558216 0.10491113 0.1336282
-0.10924334 0.023179201 0.10637037 0.2337268 0.06445261 0.09512887 0.060552187 0.032232292
0.12116354 -0.021067122 0.08678865 0.076570846 0.23169138 0.18089822 0.19053274 0.15325972
-0.20087224 0.03794547 0.101794705 -0.21332486 0.11042886 -0.10035299 0.1300927 0.13714112
-0.13120425 -0.052524332 -0.10133255 0.082675666 -0.1561372 -0.2289029 0.031280898 0.06962607
-0.074188806 0.075306594 0.19421896 0.05807103 0.12775216 -0.11255717 -0.09683917 0.04051781
0.2646085 0.12497695 0.011255539 0.043524526 -0.24618243 -0.21209052 -0.23145477 0.08723182
-0.08092973 -0.07090073 -0.36073393 -0.066973254 0.08259438 -0.08325257 0.16117616 0.05211525
-0.04109302 0.12066656 -0.13547046 -0.042288937 0.0554894 0.15343523 -0.035562802 -0.058095768
0.058882203 -0.0077266064 0.11655024 -0.094060116 0.097483575 -0.065104574 0.20200166 0.10697362
0.16582225 0.037748072 -0.14972815 -0.31791446 0.16664076 0.022095924 0.12209725 -0.060029127
0.015853552 0.07679353 -0.17190392 -0.020641737 0.06906818 -0.027230004 -0.05671462 0.007609376
-0.12386136 0.017921282 -0.028229345 0.14990471 0.09858764 0.119052626 0.18881442 0.09744978
00000000: 291d e03d c143 91bd 2b8c de3c 03ae 17bd
00000010: ec05 393e c31a 31bd 8363 12be 85d7 003c
00000020: cfef 403d 6cc7 d73d 0556 28bd 5686 e7bd
00000030: d11b 60b8 c8e6 da3d 4e2d 81be 6dfe a53d
00000040: 2b80 953e 64d0 1dbe 179e 093e 48d5 4a3d
00000050: c8b2 1bbe 7e30 a23d 6eb0 aabd bf5f 2b3e
00000060: f5be 1e3a 1f77 bb3d 9b37 0a3e 5991 b63c
00000070: c102 713e 0811 7d3e 9153 cfbd 45cd aabc
00000080: 6815 cebd e9b5 8cbd 80d5 8a3d a055 55be
00000090: ddfc ee3d ef91 8d3d 40a1 e2bd 32fc 42be
000000a0: 0c12 26bc 590b 2e3e 1651 93b9 ea4d b93d
000000b0: 08ec c13c 5420 923d ba60 913e b551 b33d
000000c0: 22a9 323e a044 b5bd aaed 053e 00ec d83d
000000d0: aa18 973d 85dc 8dbd 40d2 4f3d 7c24 143e
000000e0: 7c08 5f3e 4329 35be 9889 98bc faba b03c
000000f0: ddf1 4b3e 6ec2 263e f1da ffbd d83d 6a3e
00000100: d720 cbbd 4622 b83d e176 0c3e 418a 63be
00000110: d456 9dbd dfdf d33d e5ce 573e cc63 873c
00000120: bf63 20be 3187 b2bc 887a 87be 7fd8 adbc
00000130: a64e e23c 394f 983d d318 9e3d 738a 57bd
00000140: fdba 1d3e 160c fbbd d322 90bd 8b3c 713e
00000150: 61cc 563e 0fea 213e 5846 5e3e 5119 8a3d
00000160: bd53 363e b53e 49bc 607e a5ba fed0 233e
00000170: f359 dc3d b0ea 72be 2cab cc3d 4ba0 c3be
00000180: 38ed 093e 61db f73d eb63 8ebe a8b2 963d
00000190: 422c b53d c2bc b8bc bd3e d8be 92d4 63bd
000001a0: 4a5b 0c3d 304d fd3d abaf c8bd 06c7 abbe
000001b0: 5127 ca3d d03b 16bd e571 61bc cfa1 523e
000001c0: 0a20 c33d 55f2 173e 4c78 dd3c ceeb a33d
000001d0: 37cf aa3d 2d0b 193e 571a aebe 2cf3 163e
000001e0: 3a11 1c3e fd8f 1a3e cb0a 32be 3f71 17be
000001f0: e6f8 c1bd 13ce 433d 1d60 78bc d96d 3abe
00000200: 63b1 d7be 071e 25be 78d6 b83d 2d74 333e
00000210: d9f9 d1bc 8467 903e 50a7 1e3e 7095 2d3d
00000220: fdda fb3d f6f4 913d dd17 eabd f00c b33d
00000230: fb33 ae3d f62b a53d 434d 013d f6cc 1f3e
00000240: d1d2 ab3d 924c b3bd a0ea dabd 0ead 243e
00000250: f2f7 a5bd f34a 623e 17a6 cdbd aaef d4bd
00000260: 6d7a 6a3d 471f b23e b6c8 2c3e 143d 7c3e
00000270: 0c36 1e3e 763b d83d a6db d63d d5d5 083e
00000280: f9ba dfbd 4fe2 bd3c b5d8 d93d 1456 6f3e
00000290: bbff 833d edd2 c23d 9205 783d 0206 043d
000002a0: 9724 f83d f594 acbc 3fbe b13d 2dd1 9c3d
000002b0: 8140 6d3e 623d 393e 041b 433e 1ef0 1c3e
000002c0: 74b1 4dbe b66c 1b3d be79 d03d d571 5abe
000002d0: 8728 e23d de85 cdbd 0537 053e b96e 0c3e
000002e0: 685a 06be c123 57bd 7187 cfbd dc51 a93d
000002f0: 6ee2 1fbe 8665 6abe 6620 003d 1d98 8e3d
00000300: 4df0 97bd 583a 9a3d 56e1 463e e3db 6d3d
00000310: 76d1 023e 6084 e6bd 9d53 c6bd 01f6 253d
00000320: c47a 873e eaf3 ff3d 2769 383c c646 323d
00000330: 3f17 7cbe 422e 59be 7b02 6dbe 99a6 b23d
00000340: 7cbe a5bd 6734 91bd 1eb2 b8be 4629 89bd
00000350: 3e27 a93d 5380 aabd 5d0b 253e cd76 553d
00000360: 2851 28bd 0820 f73d c5b8 0abe 2a37 2dbd
00000370: da48 633d 201e 1d3e 4daa 11bd d4f5 6dbd
00000380: 772e 713d 792f fdbb e4b1 ee3d 97a2 c0bd
00000390: 78a5 c73d 8c55 85bd 86d9 4e3e fc14 db3d
000003a0: 4fcd 293e b99d 1a3d 5652 19be afc5 a2be
000003b0: e0a3 2a3e 8302 b53c 1f0e fa3d 1ae1 75bd
000003c0: 4fdf 813c ed45 9d3d 9507 30be dc18 a9bc
000003d0: 9e73 8d3d 7511 dfbc 974d 68bd 1358 f93b
000003e0: 06ab fdbd a7cf 923c 3a41 e7bc 9f80 193e
000003f0: 51e8 c93d ddd1 f33d 9158 413e c093 c73d
