generated_data/iql_walker2d_medium_v2_seed0.pt (torch, 866670 bytes, 16 tensors)

backbone.net.0.weight f4 [256, 17]
0.26360378 -0.5752261 0.09954776 0.10553847 0.113571845 0.19941127 -0.07476035 -0.059411835
0.25406402 0.2741583 0.09608994 -0.18574613 0.04075648 0.052981548 0.14890847 0.21044245
0.051601425 -0.03684868 0.3237577 -0.009497415 -0.22188829 0.26540276 -0.22387038 -0.37811184
0.13634539 -0.2959119 0.26452053 -0.27402577 0.1255668 0.1475639 0.19445784 0.017490458
0.02189963 0.10691862 0.12426749 0.04605198 0.07579041 -0.00037307592 -0.039502136 -0.13779618
-0.21354254 -0.3561275 -0.2674456 -0.002900912 -0.21100667 -0.016360383 0.20427577 -0.24793291
0.0826539 0.26648405 0.31333166 0.037543386 -0.17921682 0.003794894 0.005451643 -0.1764892
-0.19530445 -0.12178193 -0.44016185 0.14656787 -0.282228 -0.45848674 -0.09379579 -0.15890603
0.13706213 0.38911185 0.460654 -0.16614567 -0.0070660785 -0.3870281 0.118136756 0.122724384
0.32764497 0.20737667 -0.15402411 -0.34459507 0.054711204 -0.22277166 -0.16981402 0.028350467
-0.20448774 0.17165188 0.04036498 0.24691243 -0.08860491 0.041993473 -0.2807263 0.12769061
0.07112513 -0.17224178 -0.029849278 0.20711549 -0.25452024 -0.13869657 -0.06780668 -0.17606965
0.04970766 -0.30452886 0.14878027 0.061339103 -0.12414001 0.1723464 0.28164586 0.21211857
-0.1001755 -0.1211347 0.0014942589 0.04905802 0.039260797 0.14414011 -0.06254582 0.07056947
0.051358264 -0.101503074 -0.19522539 -0.13376556 -0.011159023 -0.11155873 0.14794292 -0.16206665
0.2530151 -0.0040219435 -0.06809058 -0.19092977 -0.1635246 0.31530955 0.096778974 0.075362444
-0.27103293 -0.2531219 0.07623019 0.12625997 -0.08841055 0.12119633 -0.074257664 -0.08336733
-0.2141283 0.15651992 -0.19966742 0.18063894 0.17884545 -0.14941967 0.01861351 0.09518048
0.18319623 0.15514228 0.12393219 0.033056255 0.11765696 -0.014443216 -0.07630039 -0.06081328
-0.11338876 -0.12856998 0.13377966 -0.036690485 0.102819964 0.45480907 0.38343045 0.3059796
-0.05671108 -0.048509173 -0.19920506 -0.018046014 -0.1764169 -0.06213494 -0.081222415 0.27486804
0.078597456 0.11516553 0.056650586 0.17743874 -0.20406184 -0.10833078 0.09309224 -0.07490321
0.20494936 -0.08541086 0.08160223 0.18078688 -0.015163211 -0.25356385 -0.032232855 -0.021361178
0.20233631 0.19780083 0.06444264 0.09084953 0.18095165 -0.056772817 -0.18377611 0.1660059
-0.16623698 -0.27979013 -0.20834996 -0.39568132 0.028908735 0.102140635 -0.10502836 0.18019041
-0.29060274 0.1549157 0.37500438 -0.024570355 -0.23561744 0.3378435 0.039902605 0.17423566
0.3013519 0.043634053 -0.26006693 0.3953222 -0.04781086 -0.10702951 -0.11748976 0.19202079
-0.0010789376 0.016008075 -0.053623125 0.026316578 -0.16000158 0.08331859 0.009992518 -0.22385842
0.14757511 -0.32726404 0.30164754 -0.09059684 -0.30980033 -0.0324587 -0.06118653 -0.18474656
-0.048031587 0.26360932 -0.22247715 0.03920669 0.17699362 -0.014201246 -0.02636293 0.4673284
-0.081633836 0.12483441 0.020007126 0.22553593 -0.12588497 0.20965168 -0.11938657 -0.1604541
0.02939811 0.083817385 -0.120925926 0.11057212 -0.07506883 -0.053662688 0.004686025 0.18114842
00000000: 13f7 863e 0542 13bf b2df cb3d 8e24 d83d
00000010: 5b98 e83d 7832 4c3e f41b 99bd d359 73bd
00000020: ae14 823e 7a5e 8c3e cdca c43d 3c34 3ebe
00000030: 44f0 263d 2e03 593d 767b 183e 3a7e 573e
00000040: 045c 533d a4ee 16bd 92c3 a53e 0c9b 1bbc
00000050: af36 63be dfe2 873e 473e 65be e097 c1be
00000060: 209e 0b3e c481 97be 3c6f 873e 1b4d 8cbe
00000070: 9594 003e fe1a 173e f51f 473e 2648 8f3c
00000080: da66 b33c 26f8 da3d f47f fe3d 00a1 3c3d
00000090: 0138 9b3d 6799 c3b9 fecc 21bd 711a 0dbe
000000a0: e5aa 5abe 5856 b6be a1ee 88be 3a1d 3ebb
000000b0: 2212 58be 3606 86bc ab2d 513e 20e2 7dbe
000000c0: 7346 a93d 9970 883e 026d a03e 18c7 193d
000000d0: 9d84 37be c2b3 783b b2a3 b23b 96b9 34be
000000e0: e4fd 47be ce68 f9bd e55c e1be e315 163e
000000f0: 3080 90be c6be eabe 0218 c0bd 43b8 22be
00000100: 045a 0c3e ab39 c73e d7da eb3e 1722 2abe
00000110: 908a e7bb 8c28 c6be aff1 f13d ec56 fb3d
00000120: 15c1 a73e 8d5a 543e 7fb8 1dbe c46e b0be
00000130: db18 603d 411e 64be bae3 2dbe 3d3f e83c
00000140: 3c65 51be 83c5 2f3e c055 253d 9dd6 7c3e
00000150: 7e76 b5bd 5901 2c3d 5cbb 8fbe 54c1 023e
00000160: 0daa 913d 2660 30be 7986 f4bc 1516 543e
00000170: 7a50 82be 7906 0ebe 3bde 8abd 9a4b 34be
00000180: 429a 4b3d 35eb 9bbe db59 183e b63e 7b3d
00000190: 1e3d febd 937b 303e e333 903e 9c35 593e
000001a0: d028 cdbd 7815 f8bd 02db c33a 10f1 483d
000001b0: eecf 203d 7799 133e 0618 80bd ba86 903d
000001c0: 0b5d 523d d8e0 cfbd 2ae9 47be d7f9 08be
000001d0: 56d4 36bc e778 e4bd 597e 173e cdf4 25be
000001e0: 328b 813e 82ca 83bb 1373 8bbd 1883 43be
000001f0: fe72 27be 4170 a13e 0e34 c63d a057 9a3d
00000200: d4c4 8abe 3299 81be 931e 9c3d 4b4a 013e
00000210: 9710 b5bd c835 f83d 6714 98bd 7ebc aabd
00000220: 7344 5bbe c246 203e 9e75 4cbe 6af9 383e
00000230: 4323 373e 7801 19be 5c7b 983c fced c23d
00000240: cb97 3b3e 9edd 1e3e 29d0 fd3d ff65 073d
00000250: 22f6 f03d 3da3 6cbc 6143 9cbd 5917 79bd
00000260: 5e38 e8bd d9a7 03be 89fd 083e c348 16bd
00000270: 4693 d23d bcdc e83e ff50 c43e 5ca9 9c3e
00000280: e149 68bd 8eb1 46bd 69fc 4bbe 3cd5 93bc
00000290: a2a6 34be 3581 7ebd f057 a6bd 81bb 8c3e
000002a0: b4f7 a03d e8db eb3d 720a 683d 80b2 353e
000002b0: 96f5 50be 87dc ddbd 25a7 be3d db66 99bd
000002c0: 3fde 513e e4eb aebd 121f a73d 3220 393e
000002d0: 1e6f 78bc 1fd3 81be 9906 04bd a3fd aebc
000002e0: 4031 4f3e 4d8c 4a3e 81fa 833d 520f ba3d
000002f0: 644b 393e 9d8a 68bd ce2f 3cbe 73fd 293e
00000300: 073a 2abe a740 8fbe b159 55be be96 cabe
00000310: 03d2 ec3c 1c2f d13d 1c19 d7bd d683 383e
00000320: e2c9 94be 39a2 1e3e 9300 c03e c547 c9bc
00000330: b345 71be d3f9 ac3e ea70 233d d56a 323e
00000340: cc4a 9a3e 9fb9 323d 7e27 85be ac67 ca3e
00000350: 52d5 43bd 4a32 dbbd 799e f0bd 19a1 443e
00000360: 236b 8dba 5e23 833c eca3 5bbd dd95 d73c
00000370: 74d7 23be f0a2 aa3d a9b7 233c 243b 65be
00000380: ee1d 173e 278f a7be 8c71 9a3e d68a b9bd
00000390: 269e 9ebe 6af3 04bd ba9e 7abd 342e 3dbe
000003a0: c5bc 44bd cdf7 863e 0dd1 63be 3297 203d
000003b0: d13d 353e 58ac 68bc 12f7 d7bc ab45 ef3e
000003c0: a42f a7bd 2fa9 ff3d fce5 a33c e4f2 663e
000003d0: fde7 00be eeae 563e f280 f4bd 144e 24be
000003e0: 4ed4 f03c 73a8 ab3d 03a8 f7bd a373 e23d
000003f0: b0bd 99bd 68cd 5bbd 3a8d 993b f97e 393e

backbone.net.0.bias f4 [256]
0.045744434 -0.27967516 -0.32420734 -0.46342278 -0.018650657 -0.5533683 -0.044590898 -0.4449031
0.005962905 -0.157281 0.014285909 -0.44854212 0.04551662 -0.21327125 -0.102941014 -0.043683857
-0.014530766 -0.20138396 -0.05834432 0.24475646 -0.33172783 0.25134912 -0.44490403 0.34639463
-0.61388576 -0.055697165 -0.6426863 -0.3772848 -0.14567447 -0.22627567 -0.3239133 0.09473668
-0.49472982 -0.17471002 -0.25549975 -0.40186927 -0.27375954 0.07483901 -0.6183756 -0.104003355
-0.002306249 -0.20338005 -0.4587884 -0.2719165 0.14226371 -0.049498994 0.044105154 -0.35954267
0.18201618 -0.019882811 -0.16541176 -0.33949605 -0.71989936 -0.4341526 -0.25557026 -0.34204927
-0.11694172 0.33300024 -0.579736 -0.17775983 -0.034338977 -0.21216485 -0.33078557 -0.43872538
0.13633487 -0.41129744 -0.28892505 -0.3428038 -0.20788737 -0.2580872 -0.4234963 -0.24214162
-0.41222712 -0.016511476 0.2283573 -0.030191045 0.06881055 -0.14798288 0.025067309 -0.023216195
-0.19316036 -0.44154865 -0.14346734 -0.014927009 -0.07767885 0.19892667 -0.028906537 -0.58969617
-0.031286355 -0.1174425 -0.33325654 -0.26659167 -0.33632922 -0.36086303 -0.4346727 -0.4408296
-0.18192573 -0.08320031 -0.01910755 -0.119515926 -0.42050192 -0.070575856 -0.021505427 0.03697107
-0.04883025 -0.50810516 -0.23386975 -0.27875993 -0.40736222 -0.09879098 -0.02853971 0.07790185
-0.15321413 -0.15122403 -0.3307268 -0.82431805 -0.13113922 -0.46440142 0.110198565 -0.081780955
0.0043748138 -0.11304318 -0.28947416 -0.46083075 -0.45836446 -0.4501858 0.03406805 -0.30258316
-0.5337117 -0.37540847 -0.03855132 -0.17291488 -0.14415431 0.13782792 -0.24160752 -0.20430374
-0.1475706 -0.5082841 -0.27978113 -0.042776547 -0.08073009 -0.11255657 -0.6691536 -0.22983533
-0.3249429 0.090613835 -0.5981099 -0.2955884 -0.23273621 -0.58792704 -0.4216758 -0.6201299
0.024694232 -0.10536744 -0.118493006 -0.28819957 0.06986225 -0.13533397 0.042281207 -0.48202935
-0.36725405 -0.6938801 -0.13240471 -0.3633075 -0.20193574 -0.51624453 -0.10168775 -0.3381598
-0.18759312 -0.22892195 -0.5878144 -0.1532583 -0.23978128 0.04498887 -0.312163 -0.2692028
-0.11784482 -0.22447205 -0.096802376 -0.28866512 0.032177757 -0.32177803 -0.43008155 -0.63311344
-0.5586823 -0.18311019 -0.34136462 0.26180837 -0.3314575 -0.5253803 -0.5348394 -0.549916
-0.45512098 0.35380438 0.14230949 -0.066423334 -0.4273237 0.034835737 0.31937945 0.1901765
0.0130000105 0.054629337 -0.37799466 -0.33878028 -0.47416803 -0.35800987 -0.08761714 -0.26947924
0.06792974 -0.3403449 -0.5372429 0.13905092 -0.2092478 -0.050620615 -0.25115496 0.046608597
0.016939053 -0.46393508 -0.15619668 -0.33950296 0.026602078 0.07299316 -0.2619696 -0.08655272
-0.5395776 -0.19908912 -0.09802716 -0.29351676 0.027916612 0.029434131 -0.051926322 -0.3943006
-0.32513326 -0.08165603 -0.14950635 -0.36614564 -0.1832134 -0.29352173 -0.1712828 -0.02253798
-0.26600432 -0.016326215 -0.5193928 0.03191222 -0.5002963 -0.34946808 0.07995898 -0.40998968
-0.2560026 0.0031682109 -0.02747566 -0.37405145 -0.44787154 -0.5278366 -0.14501184 -0.0125659965
00000000: 845e 3b3d 9531 8fbe 81fe a5be c045 edbe
00000010: 43c9 98bc 8ba9 0dbf f2a4 36bd 57ca e3be
00000020: 7964 c33b 450e 21be 720f 6a3c 50a7 e5be
00000030: a36f 3a3d c763 5abe bdd2 d2bd d8ed 32bd
00000040: 7312 6ebc 9937 4ebe 74fa 6ebd 70a1 7a3e
00000050: 3bd8 a9be d5b0 803e 76ca e3be a35a b13e
00000060: 9e27 1dbf b622 64bd 1787 24bf 792b c1be
00000070: b02b 15be cfb4 67be f7d7 a5be 4e05 c23d
00000080: 3a4d fdbe 2fe7 32be ddd0 82be cfc1 cdbe
00000090: 362a 8cbe 3245 993d dd4d 1ebf b6ff d4bd
000000a0: 7024 17bb dc42 50be 50e6 eabe a438 8bbe
000000b0: 94ad 113e 75bf 4abd 9ba7 343d fa15 b8be
000000c0: 7362 3a3e 47e1 a2bc b361 29be 6dd2 adbe
000000d0: 534b 38bf 4049 debe 1bda 82be 1521 afbe
000000e0: 247f efbd 027f aa3e 9469 14bf ac06 36be
000000f0: 07a7 0cbd be41 59be ba5c a9be 9da0 e0be
00000100: 5e9b 0b3e 9495 d2be fced 93be fb83 afbe
00000110: 6de0 54be 0124 84be 82d4 d8be f9f3 77be
00000120: 6f0f d3be 1343 87bc 7fd6 693e 3653 f7bc
00000130: 8cec 8c3d d388 17be f559 cd3c e42f bebc
00000140: d4cb 45be aa12 e2be 1ae9 12be 6a90 74bc
00000150: 1716 9fbd 6fb3 4b3e 67cd ecbc 54f6 16bf
00000160: 1f26 00bd b285 f0bd 9aa0 aabe b47e 88be
00000170: 5833 acbe 0ac3 b8be 6c8d debe 6bb4 e1be
00000180: bd4a 3abe ed64 aabd 7087 9cbc c4c4 f4bd
00000190: 074c d7be 138a 90bd 262c b0bc fa6e 173d
000001a0: 3a02 48bd 2e13 02bf 8d7b 6fbe 9fb9 8ebe
000001b0: c891 d0be ed52 cabd 1ccc e9bc 018b 9f3d
000001c0: 2ae4 1cbe 79da 1abe 0655 a9be 8206 53bf
000001d0: 5c49 06be 06c6 edbe c9af e13d c67c a7bd
000001e0: 995a 8f3b 2f83 e7bd f535 94be 02f2 ebbe
000001f0: bfae eabe c17e e6be f18a 0b3d 2eec 9abe
00000200: 54a1 08bf 8a35 c0be fde7 1dbd 9910 31be
00000210: 309d 13be c322 0d3e f667 77be 0035 51be
00000220: bf1c 17be e81e 02bf 793f 8fbe 7636 2fbd
00000230: d155 a5bd 0f84 e6bd a64d 2bbf f459 6bbe
00000240: ea5e a6be bf93 b93d bb1d 19bf 5d57 97be
00000250: 6752 6ebe 6382 16bf e4e5 d7be d5c0 1ebf
00000260: 8f4b ca3c e2ca d7bd 76ac f2bd e58e 93be
00000270: f013 8f3d fd94 0abe 0f2f 2d3d 8dcc f6be
00000280: b908 bcbe 20a2 31bf 1a95 07be 7103 babe
00000290: 3ec8 4ebe 9a28 04bf ab41 d0bd 4823 adbe
000002a0: 6918 40be 846a 6abe 017b 16bf beef 1cbe
000002b0: 3989 75be 4046 383d d4d3 9fbe f3d4 89be
000002c0: a058 f1bd 00dc 65be 5340 c6bd eacb 93be
000002d0: d3cc 033d 17c0 a4be a633 dcbe b913 22bf
000002e0: ce05 0fbf 3d81 3bbe 58c7 aebe bf0b 863e
000002f0: ccb4 a9be 537f 06bf 3ceb 08bf 4cc7 0cbf
00000300: 9e05 e9be d925 b53e 94b9 113e f508 88bd
00000310: 2cca dabe ebaf 0e3d b485 a33e a1bd 423e
00000320: fffd 543c 03c3 5f3d 8488 c1be 9c74 adbe
00000330: 27c6 f2be 124d b7be 9d70 b3bd 2ff9 89be
00000340: bf1e 8b3d b041 aebe c088 09bf 5d63 0e3e
00000350: 0e45 56be 9057 4fbd 6297 80be a8e8 3e3d
00000360: c5c3 8a3c e688 edbe 06f2 1fbe 55d3 adbe
00000370: 9aec d93c 707d 953d e120 86be 8d42 b1bd
00000380: c221 0abf 05de 4bbe 77c2 c8bd d447 96be
00000390: 61b1 e43c d91f f13c b2b0 54bd c5e1 c9be
000003a0: de77 a6be 473b a7bd 3118 19be 7177 bbbe
000003b0: 4b9c 3bbe 7b48 96be c264 2fbe 92a1 b8bc
000003c0: b831 88be 8ebe 85bc edf6 04bf 63b6 023d
000003d0: 6b13 00bf 7bed b2be 89c1 a33d 2bea d1be
000003e0: c612 83be c2a1 4f3b a314 e1bc ac83 bfbe
000003f0: 6b4f e5be 4d20 07bf fc7d 14be 9ce1 4dbc

backbone.net.2.weight f4 [256, 256]
-0.05492241 -0.33460334 -0.06812679 0.06436622 0.18098173 -0.0072464417 -0.20891936 -0.20557755
0.033636164 0.10115321 0.03871503 0.008524948 -0.11149632 -0.26168913 -0.08751304 0.07516265
0.17439476 0.08204269 0.20961832 0.00203631 0.23397559 0.0005090593 0.25567302 -0.29068244
-0.052316476 -0.0431392 0.011138709 0.13279969 -0.22195277 -0.056266792 0.03747651 -0.09799195
-0.028213523 0.056679662 -0.08047121 0.15118231 -0.11226295 0.09008032 -0.038356494 0.077323325
-0.010541024 -0.0011627941 -0.57963264 -0.0773877 0.029762292 0.03467406 -0.017840343 0.13198307
-0.27750725 0.018189868 0.032411255 -0.012473346 0.16651641 -0.48018834 0.10995428 -0.21247272
-0.13114971 0.018621132 -0.04308385 -0.11003586 0.03370128 0.14687271 -0.04106157 -0.032570004
0.2912214 -0.2446511 0.038757797 0.12257458 0.012186059 0.17813477 0.11832721 -0.11356652
-0.16913523 -0.2406704 -0.049261864 -0.09711564 -0.11709122 -0.17327248 -0.03054775 0.07036528
-0.27163187 -0.087338805 -0.527515 -0.045676578 -0.0847074 -0.036892354 -0.26948485 -0.6679609
-0.1218108 0.142403 -0.06399983 -0.2163409 -0.23098479 0.08798658 -0.06752716 0.10147498
-0.20208986 -0.20527434 -0.3872497 -0.032202937 -0.12647384 -0.15082432 -0.26813498 -0.017824706
-0.12691471 -0.15668538 -0.08828237 0.082708634 -0.11394532 0.015096648 -0.011824971 0.05100071
-0.09724946 -0.19898532 -0.063071504 -0.42649028 0.18055898 -0.14762455 0.078527816 -0.109014384
-0.039144196 0.06587551 -0.025235804 -0.57990843 -0.1631824 0.044195607 0.11848055 -0.16008486
-0.18561523 0.010808964 0.19616893 0.110069126 0.17768875 0.00760821 0.115567185 0.08889227
0.078806646 0.2929356 -0.41056558 -0.09938269 -0.5815238 0.0992996 -0.09490826 -0.084178485
-0.004744057 0.18734913 -0.14459765 0.053190414 0.19429883 0.05971528 -0.3055788 -0.25593314
-0.14952719 0.12198378 0.06897313 -0.062739484 -0.052668806 -0.063333094 0.19818428 -0.068143114
-0.16964273 -0.10147395 -0.08264807 0.013442678 0.0045588384 -0.35235718 0.22059302 0.008308445
0.107952684 -0.013901842 -0.26274297 -0.17678708 0.063218 0.029353868 -0.23679982 -0.104424685
0.08382165 -0.10288436 0.0462559 -0.107142046 0.0653124 0.04586934 0.044777054 -0.14454909
-0.057403132 -0.06927099 -0.27426085 -0.3178883 0.06504968 -0.035729095 -0.40514278 0.30356795
-0.16956027 0.045261018 0.015345321 0.102485806 -0.050366644 -0.0977348 0.11156502 -0.023832928
0.11372692 0.10381895 0.0571864 -0.20413226 -0.040348895 -0.27543706 -0.36886 -0.07122682
-0.06392996 -0.013783335 0.1609854 -0.093237385 -0.32582 -0.13370086 0.14187591 -0.14214963
-0.07870649 -0.3891758 0.01827439 0.06797241 0.13122864 0.0065282364 -0.5771176 0.011922198
0.15479669 -0.04228598 0.01568933 0.09785756 -0.012228999 -0.0854871 -0.13171531 -0.23311444
0.062914595 -0.0049848226 0.018605608 -0.033795487 -0.08452523 -0.030544281 0.038968623 0.026867041
0.08517411 -0.046435785 -0.09305198 0.021731272 -0.15574002 -0.050149463 -0.48599276 -0.06726567
-0.12793918 -0.005050976 -0.04230697 0.01893676 0.16949518 0.043508437 -0.15458599 -0.29462862
00000000: 52f6 60bd 2151 abbe 0f86 8bbd 70d2 833d
00000010: 4653 393e 8f73 edbb f5ee 55be ec82 52be
00000020: 13c6 093d 6a29 cf3d a793 1e3d 39ac 0b3c
00000030: 2f58 e4bd 1efc 85be 093a b3bd e0ee 993d
00000040: 8a94 323e ff05 a83d 2fa6 563e 9d73 053b
00000050: 4c97 6f3e 6472 053a 93e7 823e 54d4 94be
00000060: cd49 56bd bbb2 30bd 227f 363c a4fc 073e
00000070: 9647 63be 0278 66bd f880 193d 01b0 c8bd
00000080: 0c20 e7bc ef28 683d 17ce a4bd 89cf 1a3e
00000090: 1eea e5bd 087c b83d b31b 1dbd b15b 9e3d
000000a0: 42b4 2cbc e568 98ba ce62 14bf 717d 9ebd
000000b0: 0dd0 f33c 6306 0e3d e925 92bc 9226 073e
000000c0: 6e15 8ebe eb02 953c aac1 043d 015d 4cbc
000000d0: 4783 2a3e 3fdb f5be b62f e13d 7392 59be
000000e0: 1c4c 06be 588b 983c b178 30bd 7b5a e1bd
000000f0: 5a0a 0a3d cd65 163e 2d30 28bd 2068 05bd
00000100: f91a 953e d185 7abe 7fc0 1e3d 6208 fb3d
00000110: 09a8 473c f668 363e 8955 f23d 9095 e8bd
00000120: c931 2dbe 4d72 76be cfc6 49bd 91e4 c6bd
00000130: 86cd efbd 576e 31be 463f fabc ac1b 903d
00000140: 5513 8bbe b0de b2bd 390b 07bf 5d17 3bbd
00000150: 137b adbd 701c 17bd ebf9 89be 7cff 2abf
00000160: f177 f9bd 18d2 113e 5812 83bd 7888 5dbe
00000170: 4787 6cbe 4f32 b43d ae4b 8abd 1dd2 cf3d
00000180: a5f0 4ebe 7033 52be 9845 c6be 3ae7 03bd
00000190: 5c82 01be b171 1abe fd48 89be 1e05 92bc
000001a0: eef5 01be 2272 20be 63cd b4bd 2563 a93d
000001b0: 2a5c e9bd ee57 773c 86bd 41bc 1fe6 503d
000001c0: ba2a c7bd cfc2 4bbe a22b 81bd ef5c dabe
000001d0: 74e4 383e e42a 17be 31d3 a03d ef42 dfbd
000001e0: aa55 20bd bde9 863d 51bb cebc e174 14bf
000001f0: 4919 27be 7406 353d eea5 f23d 49ed 23be
00000200: eb11 3ebe 1518 313c 82e0 483e ec6b e13d
00000210: 0af4 353e 4b4e f93b 7dae ec3d 270d b63d
00000220: 6165 a13d a8fb 953e a735 d2be 2789 cbbd
00000230: bede 14bf 975d cb3d 435f c2bd c565 acbd
00000240: 0974 9bbb 73d8 3f3e 6811 14be 31de 593d
00000250: 46f6 463e 0298 743d d374 9cbe ab09 83be
00000260: a81d 19be a2d2 f93d c941 8d3d 8f7d 80bd
00000270: 3fbb 57bd c8b4 81bd d2f0 4a3e 9e8e 8bbd
00000280: d3b6 2dbe 93d1 cfbd 6443 a9bd ae3e 5c3c
00000290: 4f62 953b 2968 b4be 23e3 613e 2520 083c
000002a0: 4c16 dd3d 8dc4 63bc 3f86 86be ac07 35be
000002b0: 7078 813d 8677 f03c a77b 72be 9cdc d5bd
000002c0: afaa ab3d 09b5 d2bd d476 3d3d 4a6d dbbd
000002d0: 82c2 853d 7de1 3b3d 2568 373d ad04 14be
000002e0: 8c1f 6bbd f3dd 8dbd eb6b 8cbe 41c2 a2be
000002f0: c438 853d ac58 12bd e06e cfbe 426d 9b3e
00000300: 35a1 2dbe 9e63 393d f16a 7b3c 14e4 d13d
00000310: 414d 4ebd 2f29 c8bd 347c e43d 463d c3bc
00000320: a9e9 e83d 089f d43d 493c 6a3d 0c08 51be
00000330: e244 25bd 1606 8dbe 38db bcbe 5edf 91bd
00000340: b6ed 82bd 7fd3 61bc 5bd9 243e 3ef3 bebd
00000350: e1d1 a6be e1e8 08be eb47 113e ac8f 11be
00000360: de30 a1bd 0d42 c7be 2cb4 953c 1e35 8b3d
00000370: cd60 063e d1ea d53b fbbd 13bf 5355 433c
00000380: 0683 1e3e 1034 2dbd e986 803c 8b69 c83d
00000390: 245c 48bc dc13 afbd 61e0 06be 8db5 6ebe
000003a0: 5ed9 803d b957 a3bb ca6a 983c 236d 0abd
000003b0: 901b adbd 0038 fabc 909d 1f3d 4518 dc3c
000003c0: c46f ae3d 7333 3ebd 0992 bebd c805 b23c
000003d0: 507a 1fbe 8669 4dbd 0bd4 f8be 95c2 89bd
000003e0: 7d02 03be a882 a5bb 134a 2dbd 4421 9b3c
000003f0: 2590 2d3e e735 323d ca4b 1ebe 90d9 96be

backbone.net.2.bias f4 [256]
-0.0052199177 0.09970325 -0.081654504 -0.2886014 0.25525892 0.09611597 0.14383897 0.20408945
0.15234381 -0.012812959 -0.0062425323 0.32290965 0.10279626 0.09691689 0.01868095 0.040942706
0.009529132 0.21056423 -0.041187715 -0.10551804 0.10283655 -0.357052 -0.1892336 0.005821141
0.18390127 -0.13963214 -0.017790984 -0.060704563 0.30094555 0.072143435 -0.2713076 0.09979882
-0.038320083 0.10000451 -0.06244518 0.3196641 -0.16812392 0.2813059 0.1289759 0.22093101
0.010945559 0.10035044 -0.2162667 0.0035844082 -0.11849654 0.09346263 0.2533385 0.2286465
-0.044530362 0.21129161 0.026177077 -0.08174056 0.17404495 -0.078865565 0.26294804 0.01858922
0.0434988 -0.052429903 0.14688025 0.10935259 -0.2208296 -0.059090436 -0.1260468 0.12940484
-0.32907364 -0.13410397 -0.028316302 -0.016723728 -0.11903752 -0.83247316 -0.17752612 0.2092642
-0.026585065 0.122994654 0.089121126 0.013537261 -0.22162162 0.048611704 -0.28069243 0.055766825
-0.122979395 0.18380585 0.1483311 -0.12251166 0.087046035 -0.018938314 -0.049134936 0.065299585
-0.08546883 0.07568152 -0.03793697 0.041015953 0.043898914 -0.29464978 -0.034868237 0.22886449
-0.24698189 -0.10878278 0.14751118 0.0545334 0.041163 -0.1567207 -0.20627676 0.03321051
-0.15202378 -0.09463627 0.09111953 0.09079082 0.035080224 0.11734466 0.07301807 -0.03854693
-0.14383753 0.1409343 0.13486691 -0.12374633 -0.060538758 0.005076288 0.023846015 0.012337072
-0.0016266665 -0.06847594 0.06503244 0.09674893 0.17609584 0.017722365 0.32447854 -0.2535422
0.02114813 0.268919 -0.0377501 0.02421151 -0.18551598 -0.25007015 -0.04784662 -0.11413749
0.25338227 -0.1972508 -0.048710488 0.02452003 0.013091552 -0.25450087 0.26924142 0.05915479
0.36798832 0.2542797 0.2213451 -0.03308283 0.08371691 -0.16762212 0.24732801 0.050235726
0.06382002 -0.07709946 -0.20743872 -0.14213938 0.19443668 -0.27750072 -0.016792651 -0.38270503
-0.1527405 -0.035427276 -0.17027968 0.01772907 0.0953146 0.3304773 0.14350201 0.056393508
-0.14859754 -0.48606232 -0.094614916 0.20145959 0.08474658 -0.15854518 -0.16930078 -0.0649881
0.106918454 0.2590649 0.26984906 0.013709564 0.31165978 -0.13321207 -0.18366738 0.058205497
-0.18714277 -0.21927524 0.10359393 0.15787236 0.20167762 0.07589375 0.15667906 0.2272012
-0.100261934 -0.15949078 0.13086873 0.30163082 -0.07346924 0.06046215 0.08176861 0.26418284
0.044544224 0.0020212375 -0.08704355 0.037678137 0.24468417 -0.025803933 0.014075377 0.1426625
-0.08813012 -0.21467634 -0.20263414 0.28074077 -0.03553902 0.33244488 0.1637573 -0.001253008
-0.31883928 0.08275246 -0.30019256 0.08678663 -0.23986337 -0.08177048 0.20619884 -0.05962709
0.28925893 -0.02355644 0.03793328 0.26486903 -0.05961668 -0.6482587 -0.061113406 -0.042290293
-0.20261285 -0.11339214 -0.019911 0.17293532 0.24612696 0.003980863 0.028977219 -0.09714636
0.017523518 0.16940224 0.003814225 -0.063206 0.049359612 0.14525895 0.039211005 0.2784311
-0.38881803 -0.12226054 0.13431644 0.23702893 0.18879497 -0.097540095 0.024531035 0.19934416
00000000: d80b abbb 3831 cc3d 7a3a a7bd 90c3 93be
00000010: 4cb1 823e 73d8 c43d 864a 133e d3fc 503e
00000020: 0400 1c3e 72ed 51bc 288e ccbb 6a54 a53e
00000030: d886 d23d 5d7c c63d cb08 993c 8ab3 273d
00000040: 1420 1c3c 269e 573e 73b4 28bd d819 d8bd
00000050: f89b d23d 85cf b6be 74c6 41be 45bf be3b
00000060: 9d50 3c3e bafb 0ebe 66be 91bc 59a5 78bd
00000070: 8915 9a3e f0bf 933d d4e8 8abe 5363 cc3d
00000080: 85f5 1cbd 2acf cc3d 84c6 7fbd 03ab a33e
00000090: ad28 2cbe 5407 903e 4212 043e bd3b 623e
000000a0: 0055 333c 8884 cd3d 0575 5dbe 64e8 6a3b
000000b0: 50ae f2bd 5669 bf3d 95b5 813e 4f22 6a3e
000000c0: 7865 36bd d45c 583e 4f71 d63c 9867 a7bd
000000d0: d738 323e 4584 a1bd 20a1 863e 6b48 983c
000000e0: cc2b 323d bdc0 56bd c767 163e 40f4 df3d
000000f0: 2821 62be d008 72bd 6a12 01be b482 043e
00000100: 577c a8be 8d52 09be 97f7 e7bc 3300 89bc
00000110: f1c9 f3bd f61c 55bf 68c9 35be 5b49 563e
00000120: ecc8 d9bc 9fe4 fb3d 2385 b63d 63cb 5d3c
00000130: c7f0 62be 111d 473d ebb6 8fbe c16b 643d
00000140: 9fdc fbbd 9a37 3c3e 1ce4 173e 65e7 fabd
00000150: 3145 b23d 8624 9bbc b741 49bd cabb 853d
00000160: 480a afbd eafe 9a3d cc63 1bbd 5800 283d
00000170: 59cf 333d 56dc 96be ffd1 0ebd 745b 6a3e
00000180: d2e8 7cbe 82c9 debd 2c0d 173e 6a5e 5f3d
00000190: 899a 283d 647b 20be 373a 53be be07 083d
000001a0: 1fac 1bbe a9d0 c1bd e09c ba3d 8af0 b93d
000001b0: 48b0 0f3d 6652 f03d 7f8a 953d 63e3 1dbd
000001c0: 254a 13be 1551 103e 8d1a 0a3e b76e fdbd
000001d0: 7df7 77bd fd56 a63b b858 c33c 6e21 4a3c
000001e0: df35 d5ba 1d3d 8cbd ba2f 853d 4e24 c63d
000001f0: 7852 343e 7e2e 913c 0d22 a63e 49d0 81be
00000200: d83e ad3c c0af 893e d99f 1abd 3757 c63c
00000210: e7f7 3dbe 3209 80be d1fa 43bd ebc0 e9bd
00000220: 52bb 813e 1dfc 49be a684 47bd 3bde c83c
00000230: f37d 563c f04d 82be 03da 893e 4b4c 723d
00000240: f768 bc3e f330 823e 4aa8 623e dd81 07bd
00000250: c573 ab3d 22a5 2bbe 8e43 7d3e fac3 4d3d
00000260: 12b4 823d 52e6 9dbd d16a 54be fc8c 11be
00000270: 691a 473e 9314 8ebe be90 89bc eaf1 c3be
00000280: 0168 1cbe 311c 11bd cc5d 2ebe 8e3c 913c
00000290: 4d34 c33d 5234 a93e 31f2 123e e1fc 663d
000002a0: f429 18be 29dd f8be 77c5 c1bd 6c4b 4e3e
000002b0: 9d8f ad3d ab59 22be 2f5d 2dbe 7b18 85bd
000002c0: 10f8 da3d 28a4 843e a829 8a3e 149e 603c
000002d0: df91 9f3e bf68 08be 4d13 3cbe e368 6e3d
000002e0: 5ba2 3fbe b089 60be 0e29 d43d 4ba9 213e
000002f0: 9484 4e3e 2f6e 9b3d 7a70 203e 6ea7 683e
00000300: 2156 cdbd 8d51 23be 7402 063e 5b6f 9a3e
00000310: 0a77 96bd 29a7 773d 4d76 a73d f942 873e
00000320: 0174 363d bd76 043b e443 b2bd 6454 1a3d
00000330: 7d8e 7a3e c562 d3bc 699c 663c 1e16 123e
00000340: 907d b4bd 1dd4 5bbe 537f 4fbe 41bd 8f3e
00000350: 5d91 11bd 3736 aa3e feaf 273e f93b a4ba
00000360: e73e a3be 1f7a a93d d7b2 99be 30bd b13d
00000370: be9e 75be 4877 a7bd ca25 533e 893b 74bd
00000380: bf19 943e 6ff9 c0bc ed5f 1b3d ea9c 873e
00000390: 9f30 74bd 48f4 25bf 0d52 7abd 9638 2dbd
000003a0: be79 4fbe 233a e8bd 651c a3bc f515 313e
000003b0: b508 7c3e e671 823b a261 ed3c acf4 c6bd
000003c0: 7b8d 8f3c c877 2d3e 14f8 793b 2672 81bd
000003d0: 4e2d 4a3d c3be 143e b89b 203d 858e 8e3e
000003e0: 2813 c7be bc63 fabd 408a 093e b6b7 723e
000003f0: 7853 413e 1ac3 c7bd 4ff5 c83c e020 4c3e

backbone.net.4.weight f4 [6, 256]
-0.24375482 -0.118413 -0.015331328 0.29818627 0.13974793 -0.05967839 -0.021376355 0.14978667
0.08945438 -0.005117178 0.14968774 -0.12063375 0.26015112 -0.13662913 0.059039917 0.13854869
-0.13326432 -0.15969135 0.044261996 0.04842206 -0.031282954 -0.08923775 -0.20498367 -0.094286814
0.2384569 -0.11938743 -0.02282525 0.044892978 0.017241482 0.0067432374 0.14323929 0.122230016
-0.055344246 0.0055331006 -0.21581116 0.0015260124 0.032626286 0.022997227 -0.210958 -0.1192509
0.09405388 0.09452704 -0.03829981 0.011435228 -0.03091803 -0.0042154007 -0.050707415 0.09565184
-0.055111792 -0.09597546 0.11535771 -0.09122479 -0.0029507969 -0.13344955 -0.02821858 -0.005584518
0.011944496 -0.06567712 -0.10439074 0.1720375 0.048541944 0.16327102 0.035489272 0.16143675
0.043671142 -0.06946339 0.15193245 0.014254829 0.11058571 -0.09677572 0.022201598 -0.078029744
-0.024269417 -0.017800966 0.0061233174 -0.11732385 -0.0043188646 -0.19304673 -0.09652509 -0.053982366
-0.09164129 0.17031571 -0.046854876 -0.0388401 -0.078068815 -0.092426635 0.10695198 -0.027248727
0.04277037 0.084795795 -0.11076086 0.0109637035 0.007841507 -0.034056783 0.05369805 -0.013128377
-0.002213603 0.20665798 -0.20550622 -0.04580329 0.24322017 0.16037653 -0.19046284 0.12303024
-0.019594332 0.06670395 -0.046187967 0.086458705 0.058499273 -0.2342132 -0.1790314 -0.051880583
-0.057160817 -0.006312621 -0.056937225 0.017353397 -0.26102307 -0.036760386 0.10502904 -0.11772488
0.066641845 0.06488927 -0.022136211 0.10193038 -0.10091718 0.1978645 0.19168763 0.19527909
-0.09556077 0.08429553 0.019143106 -0.044880185 -0.03762978 0.040081743 -0.055294883 0.076622605
0.14604744 0.02098138 -0.119347 -0.19327627 0.14037658 -0.05772799 0.2646539 -0.121401004
-0.050444517 -0.028738992 -0.04003509 0.10475553 -0.039311633 0.08742075 -0.012232731 -0.116918504
-0.104278065 -0.050099336 -0.09734488 -0.05394161 0.09076996 0.06454977 0.19200104 0.32409385
-0.118522756 0.07370756 -0.06607713 0.13853326 -0.05086327 0.20401019 0.009398603 -0.04947097
-0.0230242 -0.17743424 0.08734765 0.048581198 0.093028255 -0.0582376 -0.038998734 -0.052731983
0.052307934 0.10736154 0.09172629 -0.12768055 0.026594827 0.16208294 -0.09067033 -0.08470759
-0.07992986 0.09842748 -0.1001031 -0.0547288 -0.11635714 -0.017159544 0.09236857 0.11657245
0.018664408 -0.08763761 0.06252634 -0.009088385 -0.02113752 -0.13590884 0.08026772 0.19003902
0.037988253 0.0641231 -0.115919255 0.060424227 0.12392697 -0.07646486 -0.013896053 0.006999983
-0.0669425 0.012312706 -0.25488296 0.31804672 0.04655463 0.16113436 0.22022748 -0.060013708
0.24743123 -0.10775413 -0.2016303 0.063649155 -0.062142715 0.06542484 0.0030102665 0.1171198
0.2299306 0.0126760015 -0.00094031834 0.08416521 0.080137305 0.26723555 -0.17843345 -0.029054012
0.032899972 0.04691522 0.025051782 -0.124988444 0.1114208 -0.07008494 0.0843024 0.028853398
0.09718719 -0.091514766 0.15601313 1.6676959e-05 -0.15050112 0.00970795 -0.017155336 -0.0020872378
0.14985184 -0.0872823 0.16029029 0.105049044 0.0022553513 -0.02259647 0.15059035 0.070124306
00000000: dd9a 79be 8482 f2bd 4030 7bbc dfab 983e
00000010: 151a 0f3e 5471 74bd 771d afbc ad61 193e
00000020: dc33 b73d 00ae a7bb be47 193e d40e f7bd
00000030: 8732 853e 82e8 0bbe d7d3 713d b5df 0d3e
00000040: 7176 08be 2186 23be 114c 353d 3656 463d
00000050: 8e22 00bd 48c2 b6bd 3de7 51be 7219 c1bd
00000060: 0c2e 743e 6681 f4bd 05fc babc b3e1 373d
00000070: 023e 8d3c 60f6 dc3b 52ad 123e bb53 fa3d
00000080: a6b0 62bd 034f b53b 9afd 5cbe 7b04 c83a
00000090: 24a3 053d ae64 bc3c 6005 58be d139 f4bd
000000a0: 529f c03d 6597 c13d 43e0 1cbd d35a 3b3c
000000b0: cf47 fdbc 5821 8abb 94b2 4fbd 1de5 c33d
000000c0: e7bc 61bd c88e c4bd aa40 ec3d 10d4 babd
000000d0: 2862 41bb 00a7 08be a72a e7bc 55fe b6bb
000000e0: d9b2 433c ba81 86bd d0ca d5bd 992a 303e
000000f0: ebd3 463d 8530 273e 335d 113d ad4f 253e
00000100: 83e0 323d d242 8ebd 2e94 1b3e 168d 693c
00000110: c37a e23d 5932 c6bd 20e0 b53c 0fce 9fbd
00000120: a8d0 c6bc 55d3 91bc 1ca6 c83b 7d47 f0bd
00000130: 4385 8dbb 0bae 45be f2ae c5bd 9d1c 5dbd
00000140: 6eae bbbd 3e67 2e3e e6ea 3fbd cc16 1fbd
00000150: 8be2 9fbd 2d4a bdbd a409 db3d b938 dfbc
00000160: fc2f 2f3d 6ba9 ad3d 97d6 e2bd 1ba1 333c
00000170: aa79 003c 207f 0bbd 7df2 5b3d 6718 57bc
00000180: 1812 11bb 269e 533e 3970 52be 3b9c 3bbd
00000190: b50e 793e bf39 243e b108 43be 47f7 fb3d
000001a0: 4b84 a0bc 159c 883d 982f 3dbd 4311 b13d
000001b0: ef9c 6f3d 96d5 6fbe 0254 37be bc80 54bd
000001c0: 7621 6abd 1ada cebb 0237 69bd b628 8e3c
000001d0: d1a4 85be 0f92 16bd 7719 d73d be19 f1bd
000001e0: 857b 883d aae4 843d 0057 b5bc e0c0 d03d
000001f0: abad cebd fe9c 4a3e c349 443e 3ef7 473e
00000200: 5db5 c3bd 23a3 ac3d 01d2 9c3c 49d4 37bd
00000210: af21 1abd c12c 243d e37c 62bd 50ec 9c3d
00000220: 768d 153e 25e1 ab3c 336c f4bd 37ea 45be
00000230: e1be 0f3e 2f74 6cbd b780 873e 17a1 f8bd
00000240: e99e 4ebd 096e ebbc d6fb 23bd 118a d63d
00000250: 3c05 21bd a609 b33d cb6b 48bc f872 efbd
00000260: bd8f d5bd f634 4dbd c15c c7bd e1f1 5cbd
00000270: 9ae5 b93d ab32 843d ec9b 443e a1ef a53e
00000280: 0fbc f2bd fdf3 963d 7253 87bd aadb 0d3e
00000290: 0156 50bd 0ce8 503e 99fc 193c 12a2 4abd
000002a0: 3f9d bcbc 52b1 35be 53e3 b23d 14fd 463d
000002b0: 9985 be3d 8d8a 6ebd 23bd 1fbd 7efd 57bd
000002c0: d840 563d 5ee0 db3d feda bb3d b1be 02be
000002d0: 65dd d93c 12f9 253e 5eb1 b9bd 2c7b adbd
000002e0: 44b2 a3bd 5994 c93d db02 cdbd 4e2b 60bd
000002f0: a74c eebd 2c92 8cbc bc2b bd3d 89bd ee3d
00000300: 1ae6 983c 597b b3bd cf0d 803d 73e7 14bc
00000310: 9828 adbc b02b 0bbe 6763 a43d 9799 423e
00000320: 9299 1b3d f952 833d 1367 edbd 657f 773d
00000330: 6ccd fd3d 9c99 9cbd 45ac 63bc 1d60 e53b
00000340: 2619 89bd 3bbb 493c 0580 82be 05d7 a23e
00000350: 11b0 3e3d 6800 253e 5083 613e efd0 75bd
00000360: 9d5e 7d3e 33ae dcbd 2c78 4ebe 7d5a 823d
00000370: 5c89 7ebd 75fd 853d e447 453b 81dc ef3d
00000380: ed72 6b3e 01af 4f3c b27f 76ba cf5e ac3d
00000390: 071f a43d 19d3 883e 42b7 36be ae02 eebc
000003a0: 1fc2 063d 2c2a 403d 6539 cd3c f1f9 ffbd
000003b0: 9730 e43d b188 8fbd bda6 ac3d f65d ec3c
000003c0: 140a c73d 186c bbbd e8c1 1f3e 7fe5 8b37
000003d0: f71c 1abe 180e 1f3c 5989 8cbc 0aca 08bb
000003e0: c372 193e 10c1 b2bd 2323 243e f423 d73d
000003f0: 84ce 133b 3b1c b9bc 5b34 1a3e 559d 8f3d

backbone.net.4.bias f4 [6]
0.04613422 -0.0057359342 0.14187689 0.10810508 0.07272383 0.0071789376
00000000: 3cf7 3c3d 81f4 bbbb 2d48 113e 3266 dd3d
00000010: 3bf0 943d 4b3d eb3b

net.net.0.weight f4 [256, 23]
0.2648918 0.08669536 -0.3365137 -0.1322251 0.01767664 0.14240198 -0.18983857 0.57519853
-0.05034935 -0.15873516 -0.00510302 0.041856952 -0.21403857 -0.14046946 -0.012696239 0.1844946
0.14413178 0.13767208 -0.31978235 -0.060692787 0.0123841455 0.12846884 0.15922084 0.21531448
-0.11931731 0.423462 0.37741974 -0.08266094 -0.22199579 -0.29181385 -0.08370186 0.15080696
0.2431312 -0.14060488 -0.12350452 -0.002989842 -0.15293376 0.08116452 0.26379344 -0.108763754
0.03795273 -0.063509144 -0.2826833 -0.113723084 0.04808407 -0.22598653 0.12588055 -0.011628239
0.06946235 -0.08379029 0.09186747 0.21654482 -0.017084068 -0.01942667 0.10283385 -0.11066637
0.18491109 -0.18560296 -0.0684064 -0.039782144 0.011383277 0.18136454 -0.09676489 0.046101972
0.121585995 -0.039837316 0.10499624 0.054776844 0.05537558 0.017041493 -0.43972868 0.09530533
0.022836272 0.5195557 0.48487353 0.5121859 0.31727228 -0.4302622 0.057186507 -0.1616938
-0.0023843956 0.11810524 0.11419898 -0.05494519 0.11455504 0.0279258 0.0704455 -0.006448033
0.30588818 -0.019805226 0.03497632 -0.025316052 0.08414149 0.09441317 -0.26436147 -0.009770923
0.12843189 -0.07115268 -0.20808645 -0.2717091 0.057524044 0.15914495 -0.061491232 0.09776929
-0.122732915 0.05282559 -0.054742303 0.01213698 0.042398572 -0.06991326 -0.10240026 0.048109565
-0.17130788 0.121400505 0.20224231 -0.04622979 -0.055179395 -0.0014637136 0.012836859 0.18474318
-0.0043963613 -0.073358364 -0.1911947 0.20741917 -0.19389717 -0.09281876 0.015085858 -0.008101296
0.035729576 -0.03677126 -0.019214643 -0.03807753 -0.12889771 -0.03664984 0.19789988 0.0034341605
-0.008964451 -0.021954747 0.3452577 0.11609894 0.3553531 0.41045097 0.36710244 -0.3073725
-0.55275804 -0.41041285 0.18577458 -0.039120633 0.24741027 -0.35191756 -0.19462219 -0.109414265
-0.00835761 -0.038256742 -0.068331376 -0.11275143 -0.0030535527 -0.23609401 -0.050260298 -0.11900017
0.022324914 -0.27345192 -0.13060676 -0.27264318 -0.1407977 0.4060867 -0.15874405 -0.24338076
0.22880122 -0.004024625 0.13961479 -0.27200705 0.1382493 0.0624833 -0.09881551 0.07353234
-0.16795114 -0.68894386 0.20652263 -0.07159706 -0.04693612 -0.1014506 0.11697912 -0.11689698
0.16630235 0.040179532 -0.0059687216 0.052742276 -0.01982717 0.1273248 0.04712277 0.017334241
-0.12353564 0.0899964 -0.17767961 -0.19684634 0.00015494521 -0.0016848209 0.13265541 0.11778934
0.08916842 -0.03248511 -0.0652188 -0.08429742 -0.11340987 -0.014259665 -0.05502266 0.58961797
0.16416314 0.2687218 0.08214454 -0.2226867 0.15833429 0.1251479 -0.32308972 0.0038536063
-0.15812156 -0.37359646 0.055811405 -0.15602721 -0.14521907 0.42120692 0.7553083 0.35621905
0.16337973 -0.3144697 -0.120382056 0.04332619 0.2239797 0.3513054 0.1721447 0.17884338
0.19161998 0.28203845 0.09286797 0.08859082 0.13235068 0.03849968 0.22313192 0.3482556
0.10732478 0.34931892 0.1590113 -0.27182767 0.034992605 -0.23632894 0.3875425 -0.23464099
-0.04714213 -0.24255732 -0.15316199 -0.12396571 0.5606537 0.11060258 0.17163557 0.06555763
00000000: e69f 873e 568d b13d 864b acbe 0466 07be
00000010: 9ace 903c d3d1 113e 0b65 42be 3640 133f
00000020: 1f3b 4ebd 788b 22be 3c37 a7bb 3272 2b3d
00000030: ed2c 5bbe 3ad7 0fbe e303 50bc 27ec 3c3e
00000040: 4897 133e e9f9 0c3e 83ba a3be 0099 78bd
00000050: dfe6 4a3c 568d 033e ca0a 233e 667b 5c3e
00000060: a25c f4bd 03d0 d83e 293d c13e 244a a9bd
00000070: dd52 63be a068 95be e16b abbd 246d 1a3e
00000080: 63f7 783e bafa 0fbe f0ef fcbd 3af1 43bb
00000090: ab9a 1cbe 9539 a63d ef0f 873e 88bf debd
000000a0: 5274 1b3d 1511 82bd debb 90be a6e7 e8bd
000000b0: cdf3 443d 0369 67be d5e6 003e 5f84 3ebc
000000c0: 4742 8e3d 3e9a abbd 0325 bc3d edbd 5d3e
000000d0: e3f3 8bbc ae24 9fbc 8e9a d23d 0da5 e2bd
000000e0: 5559 3d3e b40e 3ebe a818 8cbd 9af2 22bd
000000f0: ed80 3a3c a0b7 393e ac2c c6bd 6cd5 3c3d
00000100: 1402 f93d 742c 23bd 4508 d73d af5d 603d
00000110: 81d1 623d 9a9a 8b3c 1e24 e1be 712f c33d
00000120: 2213 bb3c 9a01 053f 5841 f83e 9d1e 033f
00000130: 8371 a23e 544b dcbe 663c 6a3d 0f93 25be
00000140: 8543 1cbb 29e1 f13d 28e1 e93d 350e 61bd
00000150: d59b ea3d a6c4 e43c bb45 903d 054a d3bb
00000160: 609d 9c3e 923e a2bc 5443 0f3d 9c63 cfbc
00000170: 6052 ac3d b15b c13d 635a 87be 3916 20bc
00000180: a683 033e 7fb8 91bd 9d14 55be 751d 8bbe
00000190: 559e 6b3d e5f6 223e 3bde 7bbd 443b c83d
000001a0: 655b fbbd a55f 583d 7739 60bd 2fda 463c
000001b0: 20aa 2d3d af2e 8fbd 3ab7 d1bd 890e 453d
000001c0: 556b 2fbe d4a0 f83d 9c18 4f3e 735b 3dbd
000001d0: ca03 62bd 14da bfba b051 523c 512d 3d3e
000001e0: 5a0f 90bb e93c 96bd 8bc8 43be b165 543e
000001f0: fb8c 46be c317 bebd ad2a 773c 4cbb 04bc
00000200: 2d59 123d 769d 16bd 0768 9dbc 2ff7 1bbd
00000210: c3fd 03be 251e 16bd 44a6 4a3e a70f 613b
00000220: a2df 12bc 71da b3bc 9ec5 b03e 48c5 ed3d
00000230: d7f0 b53e a126 d23e daf4 bb3e ee5f 9dbe
00000240: 8d81 0dbf a221 d2be b13b 3e3e f53c 20bd
00000250: 1e59 7d3e 8a2e b4be 0a4b 47be 9614 e0bd
00000260: 5bee 08bc 1ab3 1cbd 52f1 8bbd 39ea e6bd
00000270: 1d1e 48bb a1c2 71be bedd 4dbd 5cb6 f3bd
00000280: bde2 b63c e401 8cbe c7bd 05be e397 8bbe
00000290: 462d 10be 99ea cf3e cd8d 22be ce38 79be
000002a0: de4a 6a3e 00e1 83bb 2ef7 0e3e 8244 8bbe
000002b0: 3991 0d3e 7dee 7f3d c95f cabd 2098 963d
000002c0: 62fb 2bbe a05e 30bf ab7a 533e 7ba1 92bd
000002d0: 1740 40bd 55c5 cfbd c092 ef3d af67 efbd
000002e0: 2a4b 2a3e 4b93 243d 4495 c3bb 4908 583d
000002f0: 976c a2bc 6f61 023e ce03 413d 8a00 8e3c
00000300: 4100 fdbd 0850 b83d a5f1 35be 1692 49be
00000310: ca78 2239 35d5 dcba d2d6 073e 8a3b f13d
00000320: ef9d b63d 1b0f 05bd 6f91 85bd 20a4 acbd
00000330: 6f43 e8bd 5fa1 69bc 715f 61bd 34f1 163f
00000340: 621a 283e e795 893e 663b a83d fb07 64be
00000350: 6222 223e c526 003e 046c a5be c98c 7c3b
00000360: 9eea 21be 0948 bfbe 809a 643d 99c5 1fbe
00000370: 4fb4 14be 6fa8 d73e e25b 413f 5862 b63e
00000380: 044d 273e 2c02 a1be de8a f6bd ce76 313d
00000390: ef5a 653e 4dde b33e b346 303e b822 373e
000003a0: 0738 443e 5867 903e 9031 be3d 1b6f b53d
000003b0: f086 073e d7b1 1d3d b27c 643e 8f4e b23e
000003c0: 18cd db3d eed9 b23e dcd3 223e ff2c 8bbe
000003d0: 6854 0f3d 3700 72be f86b c63e ba45 70be
000003e0: 1b18 41bd f260 78be 7fd6 1cbe bce1 fdbd
000003f0: 0087 0f3f 9b83 e23d 3cc1 2f3e 1443 863d

net.net.0.bias f4 [256]
0.36352134 0.3542873 0.5513757 -0.26438206 0.55726963 0.75155073 0.2121626 0.10299659
0.6245793 0.40559754 -0.4976441 0.5579145 0.63187385 0.37172768 0.62311804 -0.18896161
0.0034298876 0.61891335 -0.41458282 0.39737147 0.33301237 0.41925734 0.22361362 -0.37133908
-0.26747435 -0.20959926 0.405718 0.12773503 -0.06992689 0.3532881 0.65886515 0.72745985
0.71094924 0.35174868 0.6935469 -0.32326663 -0.2563535 -0.104387775 0.45524156 0.4156738
0.65779203 -0.60603195 -0.02940951 0.6741123 0.3035551 0.47336602 0.48782027 0.53562456
-0.5776486 0.67888284 -0.09245675 0.543765 0.62091154 0.5884981 0.65913665 0.051770426
0.35920343 -0.35284525 0.41081187 -0.042885948 0.6607693 -0.260878 0.66858226 -0.1350282
0.44419724 -0.5248153 -0.4693726 0.15609445 0.6082495 0.3876777 0.7282367 -0.43727502
0.5015947 0.42618823 0.25391766 0.5822951 -0.40819284 0.3876026 -0.037567712 0.5469149
0.8005099 0.62970066 0.45322126 -0.20867288 0.7356112 0.67937505 0.37107903 0.2885867
0.46065393 0.580243 0.49541476 0.3263599 -0.223033 0.53605753 0.42107728 0.5306457
0.6115066 0.6577978 0.12877771 -0.22363946 0.77104735 -0.2818294 -0.28497282 -0.19980395
0.636051 0.5879618 0.649769 -0.58250207 -0.46096918 -0.19190405 0.21403632 -0.24882683
0.73386 -0.22853734 -0.2592643 0.35489637 0.42877302 0.38807762 -0.2660536 0.54961306
-0.23173456 0.33721793 -0.16620998 0.68525577 -0.6638766 0.70677525 -0.3015286 -0.37666738
0.2666403 -0.4249779 0.4848196 0.68155885 -0.29491737 -0.37923685 0.54921067 -0.42283887
0.71695405 0.30472913 0.7355075 0.4944667 0.59701633 -0.08763519 0.76543486 0.11445117
-0.20347944 0.5119802 0.52316207 0.61236835 0.5470982 0.49284723 0.53160703 0.6090395
0.6035689 0.11459277 0.71349025 -0.3320095 -0.17146295 0.6800235 -0.3081117 0.71159494
0.85890347 0.45533958 0.24411796 0.41152182 0.05021118 0.30989555 0.5193048 0.5100141
0.020155963 0.6241511 0.47965264 0.5532649 -0.27273697 -0.37181297 0.6934132 -0.15164417
0.5429236 -0.4875844 0.22480237 0.51011187 0.35016647 0.5479929 0.7159433 0.6723062
0.17552447 -0.36581266 0.3009406 -0.29450396 -0.28938377 0.49977502 0.2906356 0.7144245
0.6052213 0.7627565 0.519309 0.33199584 -0.24529149 -0.16403313 0.7378568 -0.46848974
0.54952115 0.5235994 0.30668068 -0.40196443 0.2942184 -0.24482185 -0.40613645 0.50230026
0.744932 0.5258246 -0.20405133 0.7268304 0.22449528 0.6393606 0.38712725 0.6804565
0.60386777 -0.2630332 0.6049502 0.71158653 -0.28972736 0.424382 0.5564292 0.3465326
0.6918441 0.73412085 0.35183427 0.6507549 -0.4076545 0.6163736 0.20473784 0.20372787
0.31484452 -0.38552263 0.38385907 0.29099908 0.60319847 0.73544616 -0.43923175 -0.1825749
-0.20345831 -0.18598832 -0.1611654 -0.084050566 0.6502685 -0.119466454 0.4455256 -0.3521008
-0.30202043 -0.21904664 0.38609174 0.6569738 0.6377483 -0.29777217 0.6584765 -0.5663356
00000000: 781f ba3e 2565 b53e f526 0d3f 165d 87be
00000010: 39a9 0e3f a165 403f 2741 593e e0ef d23d
00000020: 6ee4 1f3f 7baa cf3e 35cb febe 7cd3 0e3f
00000030: 7cc2 213f 1753 be3e aa84 1f3f 277f 41be
00000040: f7c7 603b 1b71 1e3f 3344 d4be 4674 cb3e
00000050: 9980 aa3e e6a8 d63e f8fa 643e 2820 bebe
00000060: 66f2 88be 30a1 56be 45ba cf3e f9cc 023e
00000070: d435 8fbd 2ee2 b43e 63ab 283f cf3a 3a3f
00000080: c500 363f 6718 b43e 4a8c 313f 3483 a5be
00000090: c440 83be 42c9 d5bd 6c15 e93e 32d3 d43e
000000a0: 0f65 283f e924 1bbf 36ec f0bc a092 2c3f
000000b0: 936b 9b3e 085d f23e 94c3 f93e b11e 093f
000000c0: c7e0 13bf 44cb 2d3f f759 bdbd 2f34 0b3f
000000d0: 0ff4 1e3f d0a7 163f 2ebd 283f 3a0d 543d
000000e0: 83e9 b73e 22a8 b4be ef55 d23e 2da9 2fbd
000000f0: 2d28 293f cd91 85be 3528 2b3f d544 0abe
00000100: d26d e33e 4c5a 06bf 9b51 f0be 39d7 1f3e
00000110: 3db6 1b3f b17d c63e b86d 3a3f 83e2 dfbe
00000120: 8368 003f 5835 da3e 7f01 823e 4b11 153f
00000130: a7fe d0be d973 c63e 9ae0 19bd 9d02 0c3f
00000140: 38ee 4c3f 1034 213f 9e0c e83e 58ae 55be
00000150: 0451 3c3f 86eb 2d3f 12fe bd3e a3c1 933e
00000160: d5da eb3e ce8a 143f 01a7 fd3e a518 a73e
00000170: c362 64be 113b 093f 7197 d73e 66d8 073f
00000180: b28b 1c3f 7065 283f 4ede 033e be01 65be
00000190: 5c63 453f f14b 90be f5e7 91be 6899 4cbe
000001a0: 3dd4 223f aa84 163f 4357 263f db1e 15bf
000001b0: 2704 ecbe 7f82 44be 562c 5b3e 76cc 7ebe
000001c0: 40de 3b3f b105 6abe 4abe 84be fab4 b53e
000001d0: 2388 db3e 1cb2 c63e 2d38 88be 71b3 0c3f
000001e0: d34b 6dbe d4a7 ac3e f332 2abe ec6c 2f3f
000001f0: d1f3 29bf 39ef 343f f561 9abe 8cda c0be
00000200: 1485 883e b496 d9be 463a f83e a47a 2e3f
00000210: 69ff 96be 552b c2be 1299 0c3f 567e d8be
00000220: 4d8a 373f 7505 9c3e 384a 3c3f bd2a fd3e
00000230: 10d6 183f 147a b3bd 8af3 433f 6065 ea3d
00000240: ea5c 50be 2211 033f f3ed 053f 2cc4 1c3f
00000250: a10e 0c3f 7956 fc3e 6617 083f 03ea 1b3f
00000260: 7e83 1a3f 9daf ea3d 4ca7 363f 26fd a9be
00000270: fc93 2fbe 0516 2e3f d1c0 9dbe 162b 363f
00000280: 19e1 5b3f 4522 e93e 0ffa 793e fdb2 d23e
00000290: 3daa 4d3d a1aa 9e3e 29f1 043f 4990 023f
000002a0: 1e1e a53c 5ec8 1f3f 0895 f53e c5a2 0d3f
000002b0: 2ea4 8bbe 455e bebe 8783 313f 9c48 1bbe
000002c0: 0bfd 0a3f aaa4 f9be 9832 663e b196 023f
000002d0: 0549 b33e 4349 0c3f 0f48 373f 421c 2c3f
000002e0: b0bc 333e cc4b bbbe e314 9a3e 39c9 96be
000002f0: 1c2a 94be 83e2 ff3e 30ce 943e 86e4 363f
00000300: c8ef 1a3f 0344 433f 6ff1 043f 5cfb a93e
00000310: b12d 7bbe 4df8 27be 2fe4 3c3f e3dd efbe
00000320: 6bad 0c3f 9c0a 063f 4005 9d3e 48ce cdbe
00000330: cba3 963e 94b2 7abe 1ef1 cfbe c096 003f
00000340: ddb3 3e3f 719c 063f d5f2 50be 8f11 3a3f
00000350: 17e2 653e 23ad 233f 8b35 c63e 6632 2e3f
00000360: 1497 1a3f 4aac 86be 04de 1a3f 892a 363f
00000370: 2557 94be 9948 d93e 2572 0e3f b96c b13e
00000380: b21c 313f 58ef 3b3f 9f23 b43e e097 263f
00000390: 17b8 d0be a9ca 1d3f cca6 513e 0a9e 503e
000003a0: 4d33 a13e 3963 c5be 2d89 c43e d5fd 943e
000003b0: 376b 1a3f 3346 3c3f fce2 e0be eaf4 3abe
000003c0: 6057 50be b973 3ebe 8b08 25be b422 acbd
000003d0: ff77 263f d4aa f4bd ee1b e43e 8e46 b4be
000003e0: 6ca2 9abe c34d 60be d1ad c53e 6f2f 283f
000003f0: 7943 233f 9875 98be ea91 283f 5ffb 10bf

net.net.2.weight f4 [256, 256]
0.01562733 0.0893551 0.14890972 -0.021447485 0.058737732 0.21674626 -0.025067862 0.01538111
0.10647109 -0.0101946425 0.059218068 0.16518182 0.113967404 0.0519299 0.15352294 0.05139458
0.036493015 0.16531289 -0.15110393 0.083183095 0.1381828 6.8206245e-05 0.03723309 -0.028864725
-0.003845193 -0.062215026 0.12580922 0.0070005697 0.053063944 0.07566044 0.12102148 0.14765148
0.21702105 0.10494539 0.22264934 -0.015419658 -0.016322052 0.048817568 0.04709784 0.18500093
0.124541655 -0.14774776 0.027026437 0.16631939 0.0499093 0.04809073 0.050651126 0.15181518
0.09314999 0.23047484 -0.013963439 0.14233439 0.06953495 0.02454689 0.16150123 0.0010241894
0.14665785 -0.0037021115 0.039497443 0.06209043 0.14580473 -0.046867836 0.14083254 -0.050313894
0.057785623 0.011548144 -0.082722574 0.089587435 0.1233509 0.05843083 0.080657534 -0.070444256
0.11204755 0.07065808 0.003907119 0.19833004 0.022582177 0.14099613 0.018738413 0.12289808
0.24081686 0.18272355 0.009388554 -0.13377908 0.17540248 0.14225988 0.10925106 0.11419358
0.027166499 0.15204903 0.015899852 0.08877471 0.014811366 0.16525505 0.093416534 0.046904877
0.20364872 0.1382518 0.08777852 0.05372477 0.2866075 -0.06841113 -0.0016449054 0.0039343494
0.112284824 0.18506642 0.246938 0.021914553 0.031052377 0.019919615 0.025338804 -0.038334064
0.1834918 -0.131673 -0.05244754 0.082914405 0.11595446 -0.010013102 -0.052191127 0.22972226
-0.07368082 0.11462453 0.013506885 0.25889695 0.04974137 0.24269915 0.0069130636 0.028724633
0.13216436 -0.07920903 -0.0020002273 0.22362074 -0.07529735 -0.06499971 0.18310884 0.06302315
0.21886998 0.030940238 0.2882859 0.1594291 0.20722443 -0.01717011 0.3074608 0.056139536
0.0039386493 0.119443364 0.18276873 0.07759014 0.11409095 0.12740324 0.14886355 0.21440476
0.25048378 0.0029077097 0.3184189 -0.017262952 0.039171692 0.21747555 -0.04781664 0.26359355
0.27307472 0.090127565 0.05182236 0.084838554 0.07535311 0.10802393 0.07536724 0.1494301
0.111083634 0.21735406 0.07777256 0.05346002 -0.109656766 -0.106075004 0.0802445 -0.004851596
0.14050792 0.044892713 0.014456661 0.14687186 0.11961396 0.18757464 0.29566723 0.17788082
0.06340183 -0.031489186 -0.008964642 -0.05862073 -0.021850334 0.20461479 0.18139021 0.2716934
0.14661132 0.15470499 0.20122711 0.022100387 -0.022619316 -0.02998973 0.31278598 -0.06335634
0.14874832 0.080872364 0.050597034 -0.06822346 0.19208051 0.093787916 -0.08127835 0.12656617
0.27219346 0.0795096 0.010761933 0.16796803 0.09367355 0.11178419 0.13491032 0.15359437
0.15930922 0.037813067 0.1757327 0.18090278 -0.07811624 0.10410715 0.23811159 0.05515073
0.16292255 0.17429006 0.15015408 0.1245022 -0.043956462 0.10945869 0.10077072 0.118844874
0.054377746 -0.0032036006 0.17573726 0.07445112 0.11699751 0.0814725 0.04151198 0.050892312
-0.047096368 0.002282013 0.01647472 0.009059705 0.13017148 0.09101757 0.09376304 -0.015461137
0.022001509 0.023971425 0.08443769 0.17687368 0.16175859 -0.00346641 0.11661618 -0.0599545
00000000: e304 803c cfff b63d ca7b 183e a3b2 afbc
00000010: fa96 703d bbf2 5d3e 1e5b cdbc 0d01 7c3c
00000020: 840d da3d 6e07 27bc a58e 723d 6c25 293e
00000030: be67 e93d 72b4 543d 1e35 1d3e 2083 523d
00000040: b379 153d c847 293e fdba 1abe e65b aa3d
00000050: cb7f 0d3e f309 8f38 b981 183d b775 ecbc
00000060: a2ff 7bbb 2fd5 7ebd 22d4 003e 0965 e53b
00000070: 9459 593d dcf3 9a3d 1cda f73d f331 173e
00000080: c43a 5e3e 9ced d63d 30fe 633e bca2 7cbc
00000090: d3b5 85bc eef4 473d aae9 403d e270 3d3e
000000a0: b20f ff3d 304b 17be 8c66 dd3c a14f 2a3e
000000b0: b26d 4c3d c9fa 443d 8e77 4f3d 7075 1b3e
000000c0: 6cc5 be3d 9901 6c3e e8c6 64bc 1bc0 113e
000000d0: 5768 8e3d 8f16 c93c 9460 253e 183e 863a
000000e0: 7a2d 163e 209f 72bb 12c8 213d 8952 7e3d
000000f0: d64d 153e 7df8 3fbd 6836 103e f115 4ebd
00000100: 9eb0 6c3d 6d34 3d3c 746a a9bd 9e79 b73d
00000110: 669f fc3d 2a55 6f3d c72f a53d 1445 90bd
00000120: 3079 e53d 2fb5 903d 4a07 803b 0817 4b3e
00000130: 42fe b83c 4a61 103e 4d81 993c fdb1 fb3d
00000140: b298 763e e21b 3b3e 73d2 193c 62fd 08be
00000150: b59c 333e 93ac 113e 05bf df3d 53de e93d
00000160: 478c de3c beb2 1b3e 6840 823c 84cf b53d
00000170: 5fab 723c 9f38 293e 2b51 bf3d 541f 403d
00000180: 4a89 503e e191 0d3e 3ac5 b33d 810e 5c3d
00000190: 38be 923e 221b 8cbd de99 d7ba b7eb 803b
000001a0: 96f5 e53d 0d82 3d3e 51dd 7c3e 2686 b33c
000001b0: 8e61 fe3c 762e a33c 5393 cf3c 2e04 1dbd
000001c0: 46e5 3b3e 49d5 06be 3bd3 56bd 07cf a93d
000001d0: 8879 ed3d fe0d 24bc 5dc6 55bd 503c 6b3e
000001e0: f8e5 96bd 44c0 ea3d fb4b 5d3c 248e 843e
000001f0: 9bbd 4b3d 2086 783e fb86 e23b ec4f eb3c
00000200: 1856 073e 5838 a2bd 3f16 03bb d6fc 643e
00000210: 7f35 9abd 911e 85bd e280 3b3e 4812 813d
00000220: 741f 603e 6276 fd3c 369a 933e 6241 233e
00000230: a432 543e 55a8 8cbc 816b 9d3e 92f2 653d
00000240: c90f 813b b99e f43d ba27 3b3e 94e7 9e3d
00000250: 84a8 e93d ff75 023e b06f 183e ec8c 5b3e
00000260: 693f 803e 468f 3e3b cd07 a33e 096b 8dbc
00000270: 7f72 203d e9b1 5e3e 62db 43bd bcf5 863e
00000280: 73d0 8b3e cd94 b83d af43 543d d6bf ad3d
00000290: bb52 9a3d a63b dd3d 245a 9a3d 3404 193e
000002a0: d17f e33d 1092 5e3e 3847 9f3d e5f8 5a3d
000002b0: ba93 e0bd da3d d9bd 3a57 a43d 23fa 9ebb
000002c0: 4fe1 0f3e 6ce1 373d a2db 6c3c 9465 163e
000002d0: 2af8 f43d 9113 403e b261 973e 6426 363e
000002e0: d2d8 813d cefa 00bd 6fe0 12bc 4a1c 70bd
000002f0: 79ff b2bc 8a86 513e 5bbe 393e 661b 8b3e
00000300: 4721 163e fc6a 1e3e 7b0e 4e3e df0b b53c
00000310: 254c b9bc 06ad f5bc 7c25 a03e f8c0 81bd
00000320: 7b51 183e 69a0 a53d d63e 4f3d beb8 8bbd
00000330: c1b0 443e e113 c03d 4375 a6bd 909a 013e
00000340: f15c 8b3e eed5 a23d d252 303c d0ff 2b3e
00000350: ebd7 bf3d 1cef e43d ee25 0a3e d847 1d3e
00000360: f521 233e e0e1 1a3d 46f3 333e 943e 393e
00000370: 68fb 9fbd 2136 d53d 86d3 733e bbe5 613d
00000380: 2bd5 263e 1879 323e fec1 193e 02fb fe3d
00000390: b10b 34bd e12b e03d e160 ce3d f164 f33d
000003a0: 33bb 5e3d 80f3 51bb 78f4 333e d479 983d
000003b0: 649c ef3d 0edb a63d 7708 2a3d 7574 503d
000003c0: 1fe8 40bd d38d 153b fef5 863c 286f 143c
000003d0: ac4b 053e 6b67 ba3d d606 c03d b550 7dbc
000003e0: 823c b43c b95f c43c abed ac3d 601e 353e
000003f0: 0ba4 253e b62c 63bb 77d4 ee3d da92 75bd
