generated_data/old non u checkpoints/iql_walker2d_medium_v2_seed1.pt (torch, 866195 bytes, 16 tensors)

backbone.net.0.weight f4 [256, 17]
0	0x3a18d3a6	0.0005829878
1	0x3dd283e3	0.10279062
2	0xbe059d1e	-0.13048217
3	0x3d1eadeb	0.03874008
4	0xbccea791	-0.025226386
5	0x3f11a41f	0.56891054
6	0x3f01ec00	0.5075073
7	0x3da6fea4	0.081540376
8	0xbe230243	-0.15918832
9	0x3d0587dc	0.03260027
10	0xbd6eb58e	-0.058278613
11	0xbdb05cbd	-0.086114384
12	0xbd5a6f9d	-0.0533291
13	0x3d2f30a7	0.042771008
14	0x3dc25d2e	0.09490429
15	0x3ea19481	0.31558612
16	0xbe0ed8fe	-0.13949963
17	0xbe6c90c5	-0.231021
18	0x3e87e4fd	0.26541892
19	0x3e1cb231	0.1530235
20	0x3e0d1daf	0.13780855
21	0xbe51296f	-0.20425962
22	0x3dab2388	0.083563864
23	0x3e727007	0.23675548
24	0x39f2ccae	0.00046310335
25	0x3e89190c	0.26776922
26	0xbd5cb0df	-0.053879615
27	0x3e140a70	0.14457107
28	0x3df5b9c1	0.1199832
29	0x3c19a93f	0.00937873
30	0x3d6285ef	0.05530351
31	0xbe0575e1	-0.13033248
32	0xbdedee94	-0.11617771
33	0x3e65784c	0.22409171
34	0xbcb71d35	-0.022352794
35	0x3e9340cf	0.28760383
36	0x3a9886b8	0.0011636829
37	0x3ce50422	0.027956072
38	0x3eb4e03d	0.3532733
39	0x3e8b478c	0.27203023
40	0xbe8a1bf0	-0.2697444
41	0x3eafc090	0.343266
42	0xbd3ede8b	-0.046598952
43	0x3d6a2fe8	0.057174593
44	0xbd86be74	-0.06579295
45	0x3d915dcf	0.07097971
46	0x3e551b94	0.20811301
47	0x3dfde5b1	0.12397326
48	0xbddc3874	-0.10752955
49	0xbecf2e02	-0.4046479
50	0xbe6403b6	-0.2226704
51	0xbeada7d5	-0.33917108
52	0xbe41e77e	-0.18935964
53	0xbe8f8a77	-0.28035328
54	0xbe62a11d	-0.22131772
55	0xbe89406e	-0.26806968
56	0x3e95f5cf	0.292891
57	0x3db559fb	0.08855053
58	0xbe982375	-0.29714552
59	0x3d2837e5	0.04106893
60	0x3e1eb090	0.15497041
61	0xbe03c1b7	-0.12866865
62	0xbcdeef7e	-0.027213808
63	0xbdec200d	-0.11529551
64	0xbcffe487	-0.0312369
65	0x3e142344	0.14466578
66	0x3e4f36f9	0.20235814
67	0x3de85770	0.113448024
68	0x3e1b4061	0.15161277
69	0xbea5481d	-0.3228158
70	0x3d9c9907	0.07646375
71	0xbe75af0d	-0.23992558
72	0xbd9d9931	-0.076952346
73	0x3e2dfa7c	0.16990083
74	0xbe1eb654	-0.1549924
75	0xbd775320	-0.06038201
76	0xbe1600cc	-0.14648741
77	0x3ed7af7d	0.42126074
78	0xbdd7dd19	-0.10540218
79	0xbece64fc	-0.4031142
80	0xbe61b7cb	-0.22042768
81	0x3d982948	0.07429749
82	0x3e60e669	0.21962894
83	0xbdb60140	-0.08886957
84	0xbcf358a3	-0.029705351
85	0xbe542db8	-0.20720565
86	0x3da3663c	0.07978484
87	0x3d29df83	0.041472923
88	0xbe2bdfb2	-0.16784552
89	0x3e116272	0.1419771
90	0xbe047b06	-0.12937555
91	0xbdec9ec4	-0.1155372
92	0xbd492d2f	-0.049115356
93	0xbe9570af	-0.29187533
94	0xbee86fe6	-0.45397872
95	0x3e3e3c37	0.18577658
96	0x3e1ef967	0.15524827
97	0x3dcf3aef	0.101186626
98	0x3e30c593	0.17262869
99	0xbe8c3cc7	-0.2739012
100	0x3dd3e644	0.10346654
101	0x3e0cb7cb	0.13741986
102	0x3da6e35b	0.08148833
103	0xbd565df7	-0.052335706
104	0x3e84f95e	0.25971502
105	0xbdd26fda	-0.1027524
106	0xbe998ab2	-0.2998863
107	0x3e0c6b16	0.13712725
108	0x3de00c90	0.10939896
109	0x3dbe9140	0.09305048
110	0xbe83710e	-0.2567219
111	0xbe7331c1	-0.23749448
112	0x3e479dc8	0.19493783
113	0x3e373955	0.17892964
114	0x3d13b6a9	0.03606287
115	0x3c515e22	0.012778791
116	0xbe461126	-0.19342479
117	0xbebb8c13	-0.36630306
118	0xbea5d8d9	-0.32392004
119	0x3c52c531	0.012864397
120	0xbd42ecaa	-0.04758898
121	0x3e7cd88e	0.24691984
122	0x3e7e6dd7	0.24846588
123	0xbe7fd146	-0.24982175
124	0xbd0f32c9	-0.034960542
125	0xbc7ceee0	-0.015437812
126	0xbf1d13cc	-0.6135833
127	0xbec98857	-0.39361832
128	0x3e88312a	0.2660001
129	0xbe263659	-0.1623167
130	0x3e992e0d	0.29917946
131	0x3e7c2863	0.24624781
132	0xbd1b277c	-0.037879452
133	0xbdbee193	-0.093203686
134	0xbcc2bb7b	-0.023771038
135	0x3e760474	0.24025136
136	0xbe674b16	-0.22587237
137	0x3e786183	0.24255948
138	0xbd88a1ac	-0.066714615
139	0xbd9bc667	-0.076062016
140	0xbe7e59b2	-0.24838904
141	0xbe731afd	-0.23740764
142	0xbe9a1a48	-0.30098176
143	0xbe3dedde	-0.1854777
144	0x3eb471be	0.35243028
145	0xbe4b5471	-0.1985643
146	0xbe63e0b1	-0.22253682
147	0x3d85f998	0.06541747
148	0x3bcb66cd	0.006207323
149	0x3ba9c98d	0.0051814974
150	0x3d434390	0.047671854
151	0xbd119322	-0.035540707
152	0x3da2ae8d	0.07943449
153	0xbea69696	-0.32536763
154	0x3e0d8af9	0.13822545
155	0x3c8fe5ef	0.017565696
156	0x3cce36ae	0.025172558
157	0xbdd5db60	-0.10442233
158	0xbd1015f6	-0.035177194
159	0xbe89c4ac	-0.2690786
160	0xbd4a6ed8	-0.049422115
161	0x3d8a51f1	0.0675391
162	0x3e79626a	0.24353948
163	0xbdb44a8a	-0.0880328
164	0xbdc7d737	-0.09757846
165	0xbe6e0520	-0.23244143
166	0x3e65aaa2	0.22428373
167	0x3e59d997	0.2127441
168	0x3e08782a	0.13327089
169	0x3e3d4f9b	0.18487398
170	0x3bf88235	0.0075838813
171	0x3d940e49	0.07229287
172	0x3ddf484b	0.10902461
173	0xbe2f88e7	-0.17142068
174	0x3d4e8e88	0.050428897
175	0xbe352df9	-0.17693318
176	0x3d69d6f3	0.057089757
177	0xbf0c4253	-0.547887
178	0x3ea0c9ae	0.3140387
179	0xbe297377	-0.16547953
180	0xbc6a24bc	-0.014290985
181	0x3e237e13	0.15966062
182	0x3e0308bb	0.12796299
183	0x3e3de559	0.1854452
184	0xbd933070	-0.07186973
185	0x3d954b4f	0.072897546
186	0xbd688cfa	-0.05677507
187	0x3e8e4224	0.27784836
188	0xbcf7d2a9	-0.030251818
189	0xbe2cd02f	-0.1687629
190	0xbe926a8d	-0.28596917
191	0xbd81cea6	-0.06338243
192	0xbe4a8be3	-0.19779925
193	0x3decbd63	0.1155956
194	0xbe248f54	-0.160703
195	0xbd6b1997	-0.05739745
196	0x3cbad224	0.022805281
197	0x3e9f0e64	0.31065667
198	0xbe1c62c9	-0.15272059
199	0xbe078bd9	-0.13236941
200	0x3e0d7b22	0.13816503
201	0xbe15c04d	-0.14624138
202	0xbe3eacb3	-0.18620567
203	0xbdcd7418	-0.10031909
204	0xbd53e730	-0.05173415
205	0xbdb7a19f	-0.08966374
206	0xbd82bfb6	-0.06384222
207	0xbd5337b1	-0.051566783
208	0x3dcd2b8d	0.10018072
209	0x3c9c0303	0.019044405
210	0x3d878b71	0.06618393
211	0x3ec5971d	0.38591853
212	0x3e9d2157	0.306895
213	0x3e4a9a70	0.19785476
214	0xbec51bb1	-0.3849769
215	0xbd87d33e	-0.06632088
216	0x3d318670	0.0433411
217	0xbd2afc37	-0.041744437
218	0x3cbf4af3	0.023351168
219	0x3e9e3939	0.30903032
220	0x3d6ceea6	0.05784478
221	0xbe0abc38	-0.13548362
222	0x3e536bd5	0.20646603
223	0xbe3e7ed1	-0.18603064
224	0x3e9f6f8f	0.311398
225	0x3e195ef1	0.14977624
226	0xbdf08ad4	-0.11745229
227	0xbe6287af	-0.22122072
228	0xbd2675a3	-0.04063953
229	0xbe022195	-0.12708123
230	0x3ecd8094	0.4013716
231	0xbc801e5f	-0.015639482
232	0xbde3c4aa	-0.11121495
233	0xbde05aba	-0.10954805
234	0x3d92fe79	0.07177443
235	0xbe0b2f66	-0.135923
236	0xbda839a8	-0.08214122
237	0x3ead6839	0.33868578
238	0x3ce2dca9	0.02769311
239	0xbe476247	-0.19471084
240	0x3e50cb7f	0.20390128
241	0xbd9edba3	-0.07756736
242	0x3dd35a29	0.10319931
243	0x3e8eb12e	0.27869552
244	0x3eb1c029	0.3471692
245	0x3edef0db	0.43543133
246	0x3cdee842	0.027210359
247	0x3ec3b926	0.38227195
248	0xbe359593	-0.1773284
249	0x3e404c61	0.18779136
250	0x3e48ebe5	0.19621237
251	0xbdc0509a	-0.093903735
252	0x3da8c0bc	0.08239886
253	0x3e163dab	0.14671962
254	0x3c49a997	0.0123085
255	0xbdc49c74	-0.096001536

backbone.net.0.bias f4 [256]
0	0xbec1ae46	-0.37828273
1	0xbd422016	-0.04739388
2	0xbedc6fa3	-0.43053922
3	0xbe990e59	-0.2989376
4	0xbf070770	-0.52745724
5	0xbf461312	-0.7737285
6	0xbec10c73	-0.3770481
7	0xbed64f4d	-0.41857377
8	0xbee4399e	-0.44575208
9	0xbf058c6c	-0.5216739
10	0xbe0fec2b	-0.14054935
11	0xbd479e56	-0.048734985
12	0xbe60e7fb	-0.21963494
13	0xbeb8709a	-0.36023408
14	0xbdd64805	-0.104629554
15	0xbd912d96	-0.07088773
16	0xbe307e98	-0.17235792
17	0x3d0222ce	0.031771474
18	0x3bb86cf7	0.005628224
19	0xbe318864	-0.17337185
20	0xbf301de4	-0.6879561
21	0x3df2a0ae	0.118470535
22	0xbe484ef3	-0.19561367
23	0xbe0dd310	-0.13850045
24	0xbe6b2518	-0.22963369
25	0xbec2b223	-0.38026533
26	0xbf14d9c0	-0.5814476
27	0xbeb7d62e	-0.35905594
28	0xbec23a89	-0.37935284
29	0xbe1ad8af	-0.1512172
30	0x3df582aa	0.11987813
31	0x3dbad86a	0.09123309
32	0xbea12b53	-0.31478366
33	0xbee34f30	-0.44396353
34	0xbdb05db3	-0.08611622
35	0xbea1ca81	-0.3159981
36	0xbe95ef58	-0.29284167
37	0xbf307631	-0.68930346
38	0xbdd9f87f	-0.106431
39	0xbe9f4a81	-0.3111153
40	0xbf065789	-0.5247732
41	0xbe4a98ec	-0.19784898
42	0xbf0336be	-0.51255405
43	0xbe6a6a17	-0.22892033
44	0xbe2cc18d	-0.16870709
45	0x3dd5fbfb	0.10448452
46	0xbc875f06	-0.016524803
47	0xbf2d2d50	-0.67647266
48	0xbe6e9034	-0.23297197
49	0x3dc8a649	0.097973414
50	0xbf360c97	-0.7111296
51	0xbd9924ea	-0.07477744
52	0xbea7805b	-0.32715115
53	0xbdf4c458	-0.11951512
54	0x3d37cb0c	0.044871375
55	0xbe190ac8	-0.14945519
56	0xbde6a777	-0.1126241
57	0xbe5281f2	-0.20557383
58	0xbe8b7e59	-0.27244833
59	0x3e33f987	0.17575656
60	0xbeada49a	-0.33914644
61	0xbebff922	-0.3749476
62	0xbd954bc5	-0.072898425
63	0x3c31fd80	0.010863662
64	0xbf1fb13f	-0.6237983
65	0xbe8af418	-0.27139354
66	0xbe82656c	-0.25468004
67	0x3dda98e4	0.10673693
68	0xbd8fe7b9	-0.070266195
69	0xbab6727b	-0.0013919616
70	0x3cbf027f	0.02331662
71	0xbf3cd0b9	-0.73755985
72	0xbe855d83	-0.26047906
73	0x3d5efe3e	0.054441683
74	0xbf11a3a8	-0.56890345
75	0x3d45e807	0.04831698
76	0xbebd02f8	-0.36916327
77	0xbe78c405	-0.24293526
78	0xbe5807eb	-0.2109677
79	0xbf026477	-0.5093455
80	0xbe9af188	-0.302624
81	0xbe0d2d7b	-0.1378688
82	0xbf1f47af	-0.62218755
83	0xbc2500c0	-0.01007098
84	0xbcdfb697	-0.027308745
85	0xbe06ee11	-0.13176753
86	0xbeac8f8e	-0.33703274
87	0xbeb573ab	-0.3543981
88	0x3e2233e1	0.15840103
89	0x3df36783	0.11884978
90	0xbf23997c	-0.63906074
91	0x3d906ae0	0.07051635
92	0x3e4bbf75	0.19897254
93	0xbe0105d0	-0.12599874
94	0xbe07ecd4	-0.13273937
95	0xbd942076	-0.07232754
96	0xbe8dfc76	-0.27731675
97	0x3d3784d2	0.0448044
98	0x3e828f21	0.25499824
99	0xbdcbecfb	-0.0995731
100	0xbebe022d	-0.37111035
101	0xbec17d10	-0.37790728
102	0xbe03c01d	-0.12866254
103	0xbef3cc2f	-0.47616717
104	0xbdcb6882	-0.09932043
105	0x3e074093	0.13208227
106	0xbeab3690	-0.33440065
107	0xbf2603ff	-0.6484985
108	0xbe46dd3d	-0.19420333
109	0xbeb29fad	-0.34887448
110	0xbefe9072	-0.49719578
111	0xbe7a7432	-0.24458387
112	0xbee34a37	-0.4439256
113	0xbc5e3ee2	-0.013564797
114	0xbd614977	-0.055001702
115	0xbeb05978	-0.3444326
116	0xbd30d0fc	-0.043168053
117	0xbe9e94c1	-0.30972865
118	0xbc529b8d	-0.012854469
119	0xbd5489c2	-0.05188919
120	0xbdc4d3d7	-0.09610718
121	0xbe9a638d	-0.30154076
122	0xbe80dbee	-0.25167793
123	0x3d1b559d	0.037923444
124	0xbe7977e0	-0.24362135
125	0xbdbf48ba	-0.09340043
126	0xbef1d924	-0.47235978
127	0xbefa18df	-0.488471
128	0xbd0af1e4	-0.03392209
129	0xbe3f644c	-0.18690604
130	0xbf060426	-0.5235008
131	0xbea63225	-0.32460132
132	0xbe77f9c3	-0.2421637
133	0xbf42c456	-0.76080835
134	0xbe12f54a	-0.14351383
135	0xbf597cac	-0.8495586
136	0xbe22617c	-0.158575
137	0xbe2e69ec	-0.17032593
138	0x3cf51314	0.029916324
139	0xbe9d04ef	-0.30667827
140	0x3da382cb	0.07983931
141	0xbeafc2b0	-0.34328222
142	0x3e48f308	0.19623959
143	0x3e98e514	0.29862273
144	0xbe027e3f	-0.12743472
145	0xbeb188c2	-0.3467465
146	0xbe1eedd6	-0.15520415
147	0xbeafa414	-0.3430487
148	0xbeb8b6bc	-0.36076915
149	0xbe5b5c00	-0.21421814
150	0xbe7d6fe0	-0.24749708
151	0xbca0fa8f	-0.019650726
152	0xbead5372	-0.33852726
153	0x3c117c83	0.008879784
154	0xbdfda0a4	-0.123841554
155	0xbe4fb59f	-0.20284127
156	0xbef04da7	-0.46934244
157	0xbe8b92a1	-0.27260306
158	0xbf2a2dcd	-0.66476136
159	0x3dd2cfa0	0.102935076
160	0xbe88b09d	-0.26697245
161	0xbe26af99	-0.16277923
162	0x3d847703	0.06468012
163	0xbd140307	-0.0361357
164	0xbd453234	-0.04814358
165	0x3d32b797	0.043632116
166	0xbedc32d8	-0.4300754
167	0x3e3981eb	0.18115966
168	0xbea752ea	-0.32680446
169	0xbce82dc1	-0.02834213
170	0x3d0be9ca	0.034158505
171	0xbf06a389	-0.52593285
172	0xbeaad0c0	-0.3336239
173	0xbf27547d	-0.65363294
174	0xbeb90f0a	-0.36144286
175	0xbf08fe11	-0.53512675
176	0xbdb2afef	-0.08724963
177	0xbea6a804	-0.3255006
178	0xbf052e4b	-0.5202376
179	0xbe8e769c	-0.27824867
180	0xbee5263b	-0.4475573
181	0x3ce2ce66	0.02768631
182	0xbeca6173	-0.39527473
183	0xbe424acd	-0.18973847
184	0xbe9ed9cc	-0.3102554
185	0xbebf03d5	-0.3730761
186	0x3e8c0769	0.27349404
187	0xbe6b0a05	-0.22953041
188	0xbee0d629	-0.4391339
189	0xbd903fc1	-0.0704341
190	0xbe27d3e4	-0.16389424
191	0xbe8c7dbb	-0.27439675
192	0xbec11b46	-0.3771612
193	0xbee62297	-0.44948265
194	0xbb094c04	-0.002094985
195	0xbec46ae2	-0.38362795
196	0x3e4eb856	0.20187506
197	0xbf08b8ab	-0.5340678
198	0xbe61cd84	-0.22051054
199	0x3e51072b	0.2041289
200	0xbe8c3629	-0.2738507
201	0xbe6bd32f	-0.23029779
202	0xbda170a6	-0.07882814
203	0xbdfefcec	-0.12450585
204	0x3e453913	0.19260053
205	0xbf10fc3a	-0.5663487
206	0xbe884773	-0.2661701
207	0xbedcdab8	-0.4313562
208	0xbe91c6b7	-0.2847192
209	0xbd165f8e	-0.03671222
210	0x3dcc8c12	0.09987654
211	0xbc3482a7	-0.011017478
212	0xbce65939	-0.028118717
213	0x3cf3841a	0.029726077
214	0xbe8a3857	-0.2699611
215	0xbdc688ee	-0.09694086
216	0xbd345e07	-0.044034984
217	0xbe22522b	-0.15851657
218	0xbe5d60eb	-0.21619003
219	0xbe946cfa	-0.28989393
220	0x3caf4755	0.021396318
221	0xbe8a11f8	-0.26966834
222	0xbeb97e61	-0.36229232
223	0xbe3ea180	-0.18616295
224	0xbb508576	-0.003181783
225	0xbe9a0baa	-0.30087024
226	0xbde394c4	-0.11112359
227	0xbf2fef49	-0.68724495
228	0xbe0d273a	-0.13784495
229	0xbeb27816	-0.34857243
230	0xbcbcd929	-0.023052769
231	0xbe8da9f8	-0.27668738
232	0xbe17036a	-0.14747396
233	0xbf043f0f	-0.5165872
234	0xbe604d9f	-0.2190461
235	0xbd670f09	-0.056410823
236	0x3dc4d853	0.09611573
237	0xbf229de4	-0.6352217
238	0x3d96da7a	0.0736589
239	0xbea958cc	-0.3307556
240	0xbecf3d03	-0.40476236
241	0xbeba1490	-0.36343813
242	0xbe5195aa	-0.20467249
243	0xbef1fe60	-0.47264385
244	0xbea6636a	-0.32497722
245	0x3d6e591b	0.058190446
246	0xbe856e94	-0.26060927
247	0xbe1bee20	-0.15227556
248	0xbd729989	-0.059228454
249	0xbd8df938	-0.069323
250	0xbed1f708	-0.41008782
251	0xbe838082	-0.2568398
252	0xbe4b9942	-0.19882682
253	0xbdeb5592	-0.114909306
254	0xbd006a4c	-0.031351373
255	0x3c98e03e	0.018661615

backbone.net.2.weight f4 [256, 256]
0	0x3bd9c9f3	0.0066463887
1	0xbdbac601	-0.091197975
2	0xbd9b676b	-0.07588085
3	0xbd9fc28d	-0.078007795
4	0x3d1161d1	0.035493676
5	0xbe3dc0fa	-0.18530646
6	0x3d4c46d2	0.049872227
7	0x3e0fffa1	0.14062358
8	0xbe4422b2	-0.1915386
9	0xbc1e993f	-0.009680091
10	0xbda760b5	-0.08172742
11	0x3c603aa1	0.013685853
12	0xbdcc2ae8	-0.09969121
13	0xbdd3ad7e	-0.103358254
14	0xbe0e31d4	-0.13886195
15	0xbe9db1db	-0.30799755
16	0xbdbe7ee2	-0.09301545
17	0xbcf5b9bc	-0.029995792
18	0xbe80475b	-0.2505444
19	0xbe12079b	-0.14260714
20	0xbe069468	-0.1314255
21	0x3e09a8e8	0.13443339
22	0xbe157680	-0.14595985
23	0xbd83285f	-0.064041846
24	0x3e04e932	0.12979582
25	0x3e7b3d61	0.24535133
26	0x3e240b36	0.16019902
27	0x3ddb5117	0.10708826
28	0xbdbc79e7	-0.092029385
29	0xbd8dd64b	-0.06925639
30	0xbdf5f8e8	-0.12010366
31	0x3da2fca4	0.079583436
32	0xbeb9ef37	-0.3631532
33	0xbe37dac7	-0.1795455
34	0x3d83ebc5	0.06441454
35	0x3e1866af	0.1488292
36	0xbc1cad1c	-0.009562757
37	0x3e89a08d	0.26880303
38	0x3dbfb736	0.093611166
39	0xbcd28caa	-0.02570184
40	0xbc8ea40b	-0.017412206
41	0x3c8fd3e9	0.017557101
42	0x3d63adf3	0.055585813
43	0xbd928ff9	-0.07156367
44	0x3e7463e5	0.23866232
45	0x3d8ed2e7	0.0697382
46	0x3d30aec2	0.043135412
47	0xbd8247fb	-0.063613854
48	0x3cb6b68d	0.022303844
49	0xbdfd0985	-0.12355331
50	0x3dd7a35c	0.10529205
51	0x3e052194	0.1300109
52	0xbe852b08	-0.26009393
53	0x3d9e8dc1	0.07741881
54	0x3d9451fd	0.072422005
55	0xbca0a2f4	-0.019608952
56	0xbd6f517a	-0.05842731
57	0x3e096ffd	0.13421626
58	0xbc123568	-0.008923866
59	0xbc604791	-0.013688938
60	0x3e2bb029	0.16766419
61	0x3e2be9fc	0.16788477
62	0x3cdf95c3	0.027293092
63	0x3e35be4a	0.17748371
64	0x3dbb8395	0.09155957
65	0x3d9732d0	0.073827386
66	0xbe1bcf44	-0.15215784
67	0xbe2ac4df	-0.16676663
68	0xbe9f10f6	-0.31067628
69	0x3d7c3017	0.0615693
70	0x3dadf21a	0.08493443
71	0xbe496788	-0.196684
72	0x3d24d0eb	0.040238302
73	0x3dd21292	0.10257448
74	0xbc80934d	-0.015695238
75	0xbd93f9df	-0.072253935
76	0xbee72ea5	-0.45152774
77	0x3e638c14	0.22221404
78	0xbe1c9b8f	-0.15293716
79	0x3db0ec3c	0.08638808
80	0x3a9aa513	0.0011798464
81	0x3d9012ab	0.07034811
82	0x3dd0ff9b	0.10205003
83	0xbd7f242f	-0.062290367
84	0x3df3e517	0.1190893
85	0xbd842911	-0.06453145
86	0x3e25b1dc	0.16181129
87	0x3ea8b81b	0.3295296
88	0xbe7d48d9	-0.2473482
89	0x3e0e794e	0.13913462
90	0x3df9ddd6	0.12200515
91	0x3dd76322	0.10516955
92	0xbccfe313	-0.025376832
93	0xbd5ac90c	-0.05341439
94	0xbcc95085	-0.024574528
95	0x3d216f2c	0.039412662
96	0x3ea15bc3	0.3151532
97	0xbe1f6544	-0.15565974
98	0x3dca68d6	0.09883277
99	0xbd01cdf8	-0.031690568
100	0xbd818c56	-0.06325595
101	0x3ca7bff0	0.020477265
102	0xbd8f3d64	-0.06994131
103	0xbed2b3b1	-0.4115272
104	0x3c22784c	0.009916376
105	0xbdfaf412	-0.12253584
106	0x3e5f1f40	0.21789265
107	0xbc95943d	-0.018259162
108	0x3e03a422	0.1285558
109	0xbd19b017	-0.037521448
110	0x3e07caba	0.13260928
111	0x3e4a01b2	0.19727209
112	0x3e9897d1	0.29803327
113	0x3c5778c5	0.013151352
114	0xbef05d8a	-0.46946365
115	0xbe97574b	-0.29558787
116	0x3de3535d	0.11099885
117	0xbd1b2b0b	-0.037882846
118	0xbe6329f2	-0.2218397
119	0xbca73f97	-0.020416064
120	0xbcab4a5c	-0.02090948
121	0x3db03d13	0.08605399
122	0x3daf6728	0.08564597
123	0x3c0e07ef	0.008668884
124	0xbd242468	-0.040073782
125	0xbe5e35b9	-0.21700181
126	0xbe847e94	-0.2587782
127	0xbdef8b08	-0.1169644
128	0xbd086097	-0.03329524
129	0xbbd2e67e	-0.006436168
130	0x3d6b932a	0.057513393
131	0x3d8048ff	0.06263923
132	0xbdff9a1c	-0.12480566
133	0x3df687a4	0.1203759
134	0x3e6c843c	0.23097318
135	0xbd8d7db0	-0.069087386
136	0xbe2d466b	-0.16921394
137	0xbde6ad0c	-0.11263475
138	0x3dc6da07	0.09709554
139	0xbeb5f83a	-0.35540944
140	0xbe4d9014	-0.20074493
141	0xbd928be7	-0.071555905
142	0xbeb1fb1e	-0.347619
143	0x3e08037d	0.1328258
144	0x3d86ea7f	0.06587695
145	0x3c6ac2da	0.014328683
146	0x3d825bd1	0.06365169
147	0x3db6aac8	0.08919293
148	0x3e5f4830	0.21804881
149	0x3d8e25d6	0.069408104
150	0x3e2b91fb	0.16754906
151	0xbd895600	-0.06705856
152	0x3cebaead	0.028769815
153	0xbd30bb92	-0.04314763
154	0x3e290468	0.16505587
155	0xbea227e6	-0.31671065
156	0xbcce1145	-0.02515472
157	0x3dd77086	0.10519509
158	0xbc88c004	-0.016693123
159	0x3c7adc8e	0.015311373
160	0xbe394e68	-0.18096316
161	0xbd20bd6a	-0.03924314
162	0xbea5f048	-0.32409883
163	0xbd2adb5a	-0.041713096
164	0x3d25720d	0.04039197
165	0x3e549b77	0.2076243
166	0xbe844bf6	-0.25839204
167	0x3d301895	0.042992193
168	0x3d93e10d	0.072206594
169	0xbdff3ae8	-0.12462407
170	0xbe62c015	-0.22143586
171	0x3dc3a5b0	0.09553087
172	0xbdfb2b49	-0.12264115
173	0xbd2819b3	-0.041040134
174	0xbd6f9f61	-0.058501605
175	0xbecc12f4	-0.3985821
176	0x3e9ac2f9	0.30226877
177	0x3cac44a8	0.021028832
178	0xbe590305	-0.21192558
179	0xbdf7b6f6	-0.12095444
180	0x3df89e8f	0.12139618
181	0xbd705770	-0.058677137
182	0x3e102688	0.14077199
183	0x3dab09f8	0.08351511
184	0x3e4bce3b	0.1990289
185	0x3e0ce38e	0.1375868
186	0x3c335e84	0.010947827
187	0x3cdbc432	0.026826952
188	0x3db7798d	0.08958731
189	0x3d8324bd	0.06403492
190	0xbe5c1cc8	-0.21495354
191	0x3e0112b9	0.12604798
192	0xbed1607a	-0.40893918
193	0xbe0d25b7	-0.13783918
194	0x3d1119b6	0.03542491
195	0x3c12f711	0.008970038
196	0xbe49225a	-0.1964201
197	0x3c904b50	0.017614037
198	0xbd13d617	-0.036092844
199	0x3d92af72	0.0716237
200	0x3df0e53f	0.11762475
201	0xbd2adf27	-0.04171672
202	0x3dd8fb32	0.10594787
203	0x3c2bdce4	0.010489676
204	0xbe0866a2	-0.13320401
205	0x3dd80dd7	0.10549515
206	0x3d825ff0	0.06365955
207	0x3dfff0c1	0.12497092
208	0x3e003d2c	0.12523335
209	0xbd225791	-0.03963429
210	0xbd3c910b	-0.04603676
211	0x3d8bc1b5	0.06824056
212	0x3e0d6034	0.1380623
213	0x3ddca270	0.1077317
214	0x3cd63325	0.026147434
215	0xbe21007d	-0.15722843
216	0xbe2ae7ff	-0.16690062
217	0xbdf8c8ce	-0.121476755
218	0x3db63f48	0.08898789
219	0xbd2314f7	-0.039814916
220	0x3e0c2a4c	0.1368801
221	0x3df51805	0.11967472
222	0x3e1da3c0	0.15394497
223	0xbd9aee51	-0.075649865
224	0xbe5cbc58	-0.21556222
225	0x3e33fc1c	0.17576641
226	0x3e32b9bb	0.17453663
227	0x3bc1c5fd	0.0059134946
228	0x3dc5b75d	0.096541144
229	0xbd7d5bdd	-0.061855186
230	0x3b424cb2	0.0029647765
231	0xbcd8f297	-0.026482863
232	0x3d107d70	0.035275877
233	0x3d9e2157	0.07721203
234	0xbd62d214	-0.055376127
235	0x3daec7de	0.085342154
236	0x3d639c3a	0.05556891
237	0xbdee5e93	-0.11639132
238	0x3e0c1e9b	0.1368355
239	0x3e6f2eca	0.23357692
240	0x3ddc66ae	0.10761772
241	0xbe58a6d8	-0.21157396
242	0xbbf8c12f	-0.0075913887
243	0x3e0edadc	0.13950676
244	0x3e74976a	0.23885885
245	0x3e65279c	0.22378391
246	0x3dbf22f8	0.09332842
247	0x3e405d13	0.18785505
248	0x3e23ac3a	0.15983668
249	0xbe0d4154	-0.13794452
250	0xbd805be9	-0.062675305
251	0x3dcfd571	0.101481326
252	0x3d4783bf	0.048709627
253	0x3d4cf96e	0.050042562
254	0xbe176521	-0.14784671
255	0xbe1fd716	-0.15609393

backbone.net.2.bias f4 [256]
0	0xbcf22da8	-0.029562786
1	0x3c86f302	0.016473297
2	0xbcd3d180	-0.025856733
3	0xbe8b2613	-0.27177486
4	0xbe891835	-0.2677628
5	0x3e6c332f	0.230664
6	0x3cc008c6	0.023441684
7	0xbccdf645	-0.025141845
8	0x3d377aeb	0.044794958
9	0x3d00a9e5	0.031412024
10	0xbd48ca43	-0.049021017
11	0xbd82c1e9	-0.06384642
12	0x3e9be99d	0.3045167
13	0xbe187267	-0.14887391
14	0x3e849c64	0.25900567
15	0x3e0877db	0.13326971
16	0xbe70ea45	-0.23526867
17	0xbe78da1f	-0.24301957
18	0x3e1c4340	0.15260029
19	0xbe8dd466	-0.2770111
20	0x3d16fea0	0.036863923
21	0xbee4f5fe	-0.44718927
22	0x3c60addd	0.013713327
23	0x3db31e91	0.087460645
24	0xbe32e15b	-0.17468779
25	0x3d255152	0.040360756
26	0x3e55decb	0.2088577
27	0x3c3fd96f	0.011709555
28	0x3deeaf2a	0.11654504
29	0x3e35b442	0.17744544
30	0x3d9b7b87	0.0759192
31	0xbe419f7c	-0.18908495
32	0x3db97492	0.09055437
33	0xbde85f6f	-0.113463275
34	0xbda64f44	-0.081205875
35	0x3e011096	0.12603983
36	0xbdfee419	-0.1244585
37	0x3d6f4018	0.058410734
38	0x3dd31b73	0.1030797
39	0xbe5f0737	-0.21780096
40	0x3e2bd498	0.16780317
41	0xbeabfdbe	-0.33592027
42	0x3c7efdb0	0.0155634135
43	0xbe17bee3	-0.14818911
44	0xbe66b3a1	-0.2252946
45	0x3eaf93ed	0.34292546
46	0x3e8d01d7	0.27540466
47	0xbddd5e7c	-0.10809037
48	0x3de341dc	0.11096546
49	0xbe8391c6	-0.25697154
50	0xbc06b7b6	-0.008222511
51	0x3d50def3	0.05099387
52	0xbe33d7ad	-0.17562743
53	0x3de60dc1	0.11233092
54	0x3d8bf9a8	0.068347275
55	0x3d84f4d4	0.0649201
56	0x3e5d6b91	0.21623065
57	0xbdfce3f4	-0.12348166
58	0xbe6960a5	-0.22790773
59	0xbd8a1d37	-0.067438535
60	0x3dbf3083	0.09335425
61	0xbdf826de	-0.12116788
62	0x3e41a034	0.18908769
63	0x3dada55e	0.08478807
64	0x3e081915	0.13290818
65	0xbe666660	-0.2249999
66	0xbe3e77af	-0.18600343
67	0x3e3f98ec	0.18710679
68	0x3ea2b9a6	0.31782264
69	0x3e925312	0.28579003
70	0xbd2a22b1	-0.04153699
71	0x3e273ed1	0.16332556
72	0x3e4a3edf	0.19750546
73	0x3d6b288f	0.057411727
74	0xbe06a035	-0.13147052
75	0xbd3c4e98	-0.04597339
76	0x3e30e306	0.17274103
77	0x3ba0dafc	0.0049089175
78	0x3d8c7cf1	0.06859768
79	0xbe23ff81	-0.16015436
80	0xbd9b85ea	-0.075939015
81	0x3e2a7155	0.16644795
82	0x3de65804	0.112472564
83	0x3c434279	0.011917704
84	0x3db4dae4	0.088308126
85	0xbe2300bc	-0.15918249
86	0xbda61378	-0.08109182
87	0x3e093355	0.13398488
88	0xbdcdf7bd	-0.10057018
89	0x3d0a05a1	0.033696774
90	0xbe310e5f	-0.17290638
91	0xbe34d6dd	-0.17660089
92	0x3e21e134	0.15808564
93	0xbd816d5d	-0.063196875
94	0xbd19db19	-0.037562463
95	0xbd8f6440	-0.07001543
96	0xbec600de	-0.38672537
97	0xbda6631e	-0.08124374
98	0xbe0c9408	-0.13728344
99	0x3d577673	0.052603196
100	0x3d5c2147	0.053742673
101	0x3d925e00	0.07146835
102	0x3d40d0e5	0.047074217
103	0x3d87f39a	0.0663826
104	0x3dd7df02	0.10540582
105	0xbd217b40	-0.03942418
106	0xbd757a2e	-0.059930973
107	0xbebd2b04	-0.3694688
108	0xbc3a947f	-0.011387943
109	0x3e42513a	0.18976298
110	0x3e076450	0.1322186
111	0x3c32c9d6	0.010912379
112	0x3d7fcf84	0.06245376
113	0xbd77b618	-0.060476393
114	0x3e68756a	0.2270104
115	0xbd5d00fe	-0.053956024
116	0xbd5e2972	-0.054238744
117	0x3df8cac6	0.12148051
118	0xbb6784ee	-0.0035327035
119	0x3eaa53a4	0.33266938
120	0x3dea1fc8	0.11431843
121	0xbd6db05e	-0.058029525
122	0x3c8702cb	0.016480824
123	0xbe94f1f7	-0.29090855
124	0xbdeac0f9	-0.11462588
125	0x3d7dff66	0.062011145
126	0x3e2be99c	0.16788334
127	0xbc81efea	-0.01586147
128	0x3d6706b2	0.05640287
129	0x3e888b75	0.26668897
130	0xbdb07d95	-0.08617703
131	0x3e9795a0	0.29606342
132	0xbe1347df	-0.14382885
133	0x3e1e664f	0.15468715
134	0xbd2966bb	-0.041357737
135	0xbe7821cd	-0.24231644
136	0xbe2bf881	-0.16794015
137	0x3e450482	0.19240001
138	0x3e948d20	0.2901392
139	0x3dca1a3f	0.09868287
140	0x3e1d976a	0.15389791
141	0xbd54bf0a	-0.05194
142	0xbce5ed3c	-0.028067224
143	0x3d7d99f1	0.061914388
144	0x3dc5a35d	0.096503
145	0x3daeee86	0.085415885
146	0xbe85ad15	-0.26108614
147	0xbc39b419	-0.0113344425
148	0xbea44975	-0.32087293
149	0xbe84de6f	-0.25950953
150	0x39652af8	0.00021855149
151	0x3e943ea2	0.28954035
152	0xbe97acd5	-0.29624048
153	0xbc623d30	-0.013808534
154	0x3e3f7d46	0.18700132
155	0x3dc32566	0.095286176
156	0xbe145ac8	-0.14487755
157	0x3e329f78	0.17443645
158	0xbe1e7670	-0.15474868
159	0x3e6ed319	0.23322715
160	0x3de85a9e	0.11345409
161	0x3db87bd9	0.09007997
162	0xbdbd07fa	-0.09230037
163	0x3db61a32	0.08891715
164	0x3e2e9c81	0.17051889
165	0x3d433bdc	0.04766451
166	0xbe46aaf3	-0.1940115
167	0x3e3e4916	0.18582568
168	0xbd9c0dc8	-0.07619816
169	0x3e448014	0.19189483
170	0xbdf22dd0	-0.11825144
171	0xbda08814	-0.07838455
172	0x3d5c2521	0.053746346
173	0x3e32872e	0.1743438
174	0xbe69e5f9	-0.22841634
175	0x3ce96a32	0.02849302
176	0x3d4162b5	0.047213275
177	0x3d9b7619	0.07590885
178	0xbd49f05e	-0.049301498
179	0x3e85c910	0.2612996
180	0x3c993639	0.018702613
181	0x3e8f7946	0.28022212
182	0xbe9d16f4	-0.30681574
183	0x3d78662f	0.060644325
184	0x3d888dfa	0.06667705
185	0x3e5b4446	0.21412763
186	0x3d838d30	0.06423414
187	0xbe58f657	-0.21187721
188	0x3cd28816	0.025699656
189	0xbe67e7a3	-0.22646956
190	0xbc087964	-0.008329723
191	0xbca62d06	-0.02028514
192	0x3dd20201	0.102542885
193	0xbd81b032	-0.06332435
194	0x3d8ec992	0.0697204
195	0x3e31ae36	0.17351612
196	0x3e0b1eee	0.13586017
197	0xbcbfb419	-0.023401307
198	0x3db4c464	0.08826521
199	0x3e27f816	0.16403231
200	0xbe1b1bfe	-0.15147397
201	0xbe158300	-0.14600754
202	0x3d2c0369	0.04199544
203	0x3d89a174	0.06720248
204	0x3e839f40	0.25707436
205	0xbdd919b7	-0.10600608
206	0x3e8271a1	0.25477317
207	0x3ea2688f	0.31720397
208	0xbebb1885	-0.36542144
209	0x3ddb7bea	0.10716994
210	0xbe9b0bac	-0.30282342
211	0x3e1495bf	0.14510249
212	0x3d7bf60e	0.061513953
213	0x3dac2150	0.08404791
214	0x3dfee46b	0.12445911
215	0x3e03464c	0.12819785
216	0xbe5820e1	-0.21106292
217	0x3e95a58f	0.29227874
218	0xbde8f7f1	-0.11375416
219	0xbcca80d2	-0.02471963
220	0x3dbdae64	0.09261778
221	0x3df612d7	0.12015312
222	0x3bf5e5d7	0.0075042057
223	0xbe6414fb	-0.22273628
224	0x3cc96406	0.024583828
225	0xbdea64c9	-0.114450045
226	0xbd1b8f8b	-0.03797869
227	0x3e71ed3c	0.23625654
228	0xbcb5cf63	-0.022193616
229	0x3d2c60a7	0.042084362
230	0xbe7ee6ae	-0.24892685
231	0x3e706edb	0.23479788
232	0xbda5f915	-0.08104149
233	0x3e4535cf	0.19258808
234	0x3eab5e01	0.33470157
235	0x3ecd891e	0.40143675
236	0xbdb9eea3	-0.090787195
237	0x3e19ce5a	0.15020123
238	0x3da53f3c	0.080687016
239	0x3cc5cb24	0.024144717
240	0x3e10a80f	0.1412661
241	0x3e168809	0.14700331
242	0x3e75fd12	0.2402232
243	0x3de02b97	0.10945814
244	0xbeb7957a	-0.3585623
245	0x3e6c213c	0.23059553
246	0x3dfdae3a	0.12386747
247	0x3c4379cc	0.011930894
248	0xbe5ca936	-0.21548924
249	0x3e7d12a2	0.24714139
250	0x3bf80c94	0.007569859
251	0x3eb4a0de	0.35278982
252	0x3e963346	0.29335994
253	0xbd0d931f	-0.034564134
254	0xba24c5e7	-0.0006285593
255	0x3e5d6da4	0.21623856

backbone.net.4.weight f4 [6, 256]
0	0xbae18b54	-0.0017207661
1	0x3e2c749b	0.16841356
2	0xbd287cb5	-0.041134555
3	0x3cd77cd6	0.026304644
4	0xbdfab11a	-0.12240811
5	0xbdbc1711	-0.09184087
6	0x3d28c687	0.041204955
7	0xbd72a5fb	-0.059240323
8	0x3e060c9e	0.1309075
9	0x3db44013	0.08801284
10	0x3c427290	0.011868134
11	0xbd8ca189	-0.06866748
12	0x3e155f24	0.14587075
13	0xbddf8a9e	-0.10915111
14	0xbe032f04	-0.12810904
15	0x3d93392a	0.071886376
16	0xbdab888a	-0.08375652
17	0x3e46b873	0.194063
18	0x3cdb5af2	0.026776765
19	0x3d51a088	0.051178485
20	0xbd09a2b9	-0.03360245
21	0x3a6eaa28	0.0009104335
22	0x3d28fe31	0.04125804
23	0x3c48cb3a	0.012255484
24	0x3d680f8c	0.05665545
25	0x3d3b92d4	0.045794323
26	0xbdb5bcd4	-0.08873907
27	0xbd492fa5	-0.049117703
28	0x3da033da	0.0782239
29	0xbcdcb3d2	-0.026941214
30	0x3d5145f2	0.051092096
31	0x3d119a82	0.03554774
32	0x3e8d76ac	0.27629602
33	0xbb3087dd	-0.002693645
34	0xbd8da660	-0.06916499
35	0x3dc45056	0.09585635
36	0x3b97d570	0.004633598
37	0x3e5277bc	0.20553488
38	0x3d83028d	0.06396971
39	0xbd5c9845	-0.053856153
40	0xbe59a010	-0.21252465
41	0xbeae3efc	-0.34032428
42	0x3cb3c604	0.021945007
43	0x3d8fe52d	0.07026134
44	0xbe4923d3	-0.19642572
45	0x3d678da5	0.056531567
46	0xbbc0299e	-0.005864336
47	0x3e85252f	0.2600493
48	0xbdb34318	-0.087530315
49	0xbe04861f	-0.12941788
50	0x3c2f6200	0.010704517
51	0x3c803cc1	0.01565397
52	0x3d97aa49	0.07405526
53	0x3d7829a7	0.060586598
54	0xbd21dc44	-0.039516702
55	0xbd3444aa	-0.044010796
56	0xbe1d9d91	-0.15392138
57	0xbdb0ee53	-0.08639207
58	0xbd93dccd	-0.07219849
59	0xbda83658	-0.0821349
60	0x3e0244f1	0.12721612
61	0x3e836f26	0.25670737
62	0xbda2b250	-0.07944167
63	0xbd1b6fd7	-0.037948456
64	0xbd40e1d7	-0.047090378
65	0x3d042d8d	0.032270003
66	0x3dae7858	0.085190475
67	0x3d9b6a97	0.0758869
68	0x3e52e0f1	0.20593621
69	0xbd271dd9	-0.04079995
70	0xbe509774	-0.20370275
71	0x3d46e034	0.04855366
72	0x3e0c7bd8	0.13719118
73	0xbe15fd12	-0.1464732
74	0x3e060c8e	0.13090727
75	0xbc108645	-0.008821075
76	0x3e20ef4f	0.15716289
77	0x3cce5d94	0.025191106
78	0xbd3e3d17	-0.04644498
79	0xbd9761b5	-0.07391683
80	0xbd0e5d51	-0.034756962
81	0xbc9d7429	-0.019220429
82	0x3dd1d770	0.102461696
83	0xbd9e1827	-0.077194504
84	0x3bf7f143	0.0075666024
85	0x3d4c152f	0.04982489
86	0x3d4867a2	0.048926957
87	0xbbb44e81	-0.0055025225
88	0xbdfc1263	-0.123081945
89	0xbd9bda99	-0.076100536
90	0xbd16be55	-0.03680261
91	0x3e4f5262	0.2024627
92	0xbdfdc8bc	-0.12391803
93	0x3d3ee408	0.046604186
94	0x3dfe4fbb	0.12417551
95	0x3c8c7b67	0.017148687
96	0x3e88006b	0.2656282
97	0xbdf35b8b	-0.11882695
98	0xbe5f6899	-0.21817245
99	0x3d8703b8	0.06592506
100	0xbdf4c5e3	-0.119518064
101	0xbe4123d7	-0.18861328
102	0x3e06645d	0.13124223
103	0x3e3b24fd	0.18275829
104	0x3d330d1a	0.043713666
105	0xbd9bd7fb	-0.076095544
106	0xbcd3c610	-0.02585128
107	0x3e33ed7f	0.17571066
108	0xbcdd5992	-0.02702025
109	0x3d0609e2	0.03272427
110	0x3e189e86	0.14904222
111	0xbdb0d2d0	-0.08633959
112	0xbdfc69b3	-0.12324848
113	0x3e01f1b8	0.12689865
114	0xbd5d1d40	-0.053982973
115	0xbd99699f	-0.07490849
116	0xbd0a0cb6	-0.03370353
117	0x3dd44d0e	0.103662595
118	0xbdd829d6	-0.105548546
119	0x3e495866	0.19662628
120	0xbde69525	-0.11258916
121	0xbe12150a	-0.14265838
122	0x3c871f28	0.016494349
123	0x3dbc5334	0.09195557
124	0xbd9ed7b2	-0.07755984
125	0xbdcf527a	-0.10123153
126	0x3d8130c5	0.0630813
127	0x3d1544eb	0.03644268
128	0x3d5198c5	0.051171083
129	0x3d3123bb	0.043246966
130	0xbd20fced	-0.03930371
131	0x3d89c32f	0.067266814
132	0x3e825728	0.2545712
133	0xbdb28d58	-0.087183654
134	0x3ba6e047	0.005092654
135	0x3a0dce00	0.00054094195
136	0xbe25a2f8	-0.16175449
137	0x3e2bb069	0.16766514
138	0xbd86d9e1	-0.06584526
139	0xbd875e8c	-0.0660983
140	0xbdda811c	-0.10669157
141	0x3df7cf9b	0.121001445
142	0xbd2479be	-0.040155165
143	0xbbdf6383	-0.0068172826
144	0x3e32384d	0.1740429
145	0xbe15bd9d	-0.14623113
146	0x3c9d0a65	0.019169996
147	0x3d474e1e	0.048658483
148	0xbc6c6739	-0.014428907
149	0xbe7908bd	-0.2431974
150	0xbd1e958b	-0.038716834
151	0x3bd97147	0.006635818
152	0xbdc82f66	-0.097746655
153	0x3d4c023e	0.049806826
154	0x3e0d2cfd	0.13786693
155	0xbd49b301	-0.049242977
156	0x3db84666	0.089978024
157	0xbd8b967a	-0.068158105
158	0xbc9ffcc6	-0.019529711
159	0xbd9db3aa	-0.07700284
160	0x3cd37df7	0.0258169
161	0x3dfc766c	0.12327275
162	0x3cfde573	0.030993199
163	0x3e16a788	0.14712346
164	0xbe286402	-0.164444
165	0xbca488e4	-0.020084806
166	0xbcd78c9d	-0.026312167
167	0x3e5efb78	0.21775615
168	0x3c078f1a	0.008273864
169	0xbe049843	-0.12948708
170	0xbe1a1ce4	-0.15050083
171	0xbddd4135	-0.10803453
172	0xbdcb8f46	-0.099394366
173	0x3dbdc5a5	0.09266213
174	0x3db60a46	0.08888678
175	0xbd0fd510	-0.0351153
176	0x3e1e33e5	0.15449484
177	0x3cb06c6f	0.02153608
178	0xbc8b886e	-0.017032828
179	0xbcbd87de	-0.023136076
180	0xbdf6444c	-0.12024745
181	0xbd806aa5	-0.06270341
182	0x3e02ed19	0.12785758
183	0xbdab91bd	-0.08377407
184	0x3e30c050	0.17260861
185	0x3d688a9d	0.056772817
186	0x3d9cedb3	0.07662525
187	0xbdf394c6	-0.11893611
188	0xbc31a2ab	-0.010842006
189	0xbd5515f2	-0.05202288
190	0x3ddbee5d	0.107388236
191	0xbc785d57	-0.015158973
192	0x3e411ecb	0.18859403
193	0xbd8ff830	-0.0702976
194	0xbda46ca3	-0.08028533
195	0xbd35daf6	-0.04439827
196	0x3e7ab157	0.24481712
197	0xbd529cf8	-0.05141923
198	0xbdae65b9	-0.08515496
199	0xbc7409b5	-0.014894892
200	0xbd34d190	-0.044145167
201	0x3df24abd	0.118306614
202	0xbd1d71a7	-0.038438465
203	0xbdb77f9a	-0.08959885
204	0x3e6e6931	0.23282315
205	0x3e0c31b4	0.13690835
206	0x3da69c94	0.08135334
207	0x3ebe7620	0.37199497
208	0xbd37b0e2	-0.044846423
209	0xbda7d089	-0.08194072
210	0xbdcd0061	-0.10009838
211	0xbdcae73c	-0.09907386
212	0x3dcb29ba	0.09920068
213	0x3db2c765	0.08729438
214	0xbe059323	-0.1304441
215	0xbe31fd98	-0.17381895
216	0x3dbf097e	0.09327982
217	0x3c6057d5	0.013692816
218	0xbe3761a4	-0.1790834
219	0xbe90576f	-0.28191707
220	0xbc891294	-0.016732492
221	0x3e087cfc	0.13328928
222	0x3d610640	0.0549376
223	0xbdcd899a	-0.10036011
224	0x3e10ac9a	0.14128342
225	0xbd88d071	-0.06680382
226	0xbda3eecd	-0.08004532
227	0xbd00e85e	-0.031471603
228	0x3e37d2d0	0.17951512
229	0x3df5b797	0.119979076
230	0x3df9b1d5	0.12192122
231	0xbca93d63	-0.020659154
232	0xbe233079	-0.1593646
233	0x3e4a5b7c	0.19761461
234	0x3e22b626	0.15889797
235	0x3dfcb95f	0.12340044
236	0x3da613f6	0.08109276
237	0x3d854782	0.0650778
238	0x3b1aec56	0.0023639402
239	0xbe4cd027	-0.20001279
240	0xbb86d6b5	-0.0041149505
241	0xbcb3f224	-0.021966048
242	0x3e0ee876	0.13955864
243	0x3d64e47f	0.055881973
244	0x3ddee368	0.10883218
245	0x3de18952	0.1101252
246	0x3e125525	0.14290293
247	0xbcd9fcae	-0.026609745
248	0xbe1b1104	-0.1514321
249	0x3d48a557	0.048985805
250	0x3d730534	0.059331134
251	0xbd71a704	-0.05899717
252	0x3d9ad212	0.07559599
253	0xbd8799ac	-0.066211075
254	0x3dc3975e	0.095503554
255	0xbdf5754b	-0.119852625

backbone.net.4.bias f4 [6]
0	0x3c96b3bc	0.01839625
1	0xbd55d45b	-0.05220447
2	0x3d9388d6	0.07203834
3	0x3dc74e8b	0.09731778
4	0x3b7ddbed	0.0038735822
5	0x3c5e7260	0.013577074

net.net.0.weight f4 [256, 23]
0	0x3e492d4f	0.1964619
1	0xbd650f75	-0.055922944
2	0xbcc21ba6	-0.023694824
3	0xbd7d51a8	-0.06184545
4	0xbd9be2d9	-0.07611627
5	0x3ea66122	0.3249598
6	0x3e1fd2df	0.15607785
7	0x3e1e3cf7	0.15452944
8	0xbd4fb7c1	-0.05071235
9	0x3e39df6d	0.18151636
10	0xbd01cc00	-0.03168869
11	0xbba0c023	-0.004905717
12	0x3d928052	0.071533814
13	0x3c5306dd	0.012880054
14	0x3cf3f282	0.029778723
15	0x3bf55f87	0.0074881944
16	0xbcae9f1e	-0.021316107
17	0x3c5ef9bc	0.013609346
18	0x3e210744	0.15725428
19	0xbc89a182	-0.016800646
20	0xbd2b057b	-0.041753273
21	0xbcc0db41	-0.023542048
22	0xbc77cf83	-0.015125158
23	0x3cf433b2	0.029809806
24	0xbe0c037d	-0.13673206
25	0xbd6e87cf	-0.058234986
26	0x3df6cd14	0.12050834
27	0x3e6075b4	0.219199
28	0xbe8d72cd	-0.2762665
29	0x3e989199	0.29798582
30	0x3d98f60c	0.07468805
31	0x3e482bde	0.19547984
32	0x3df3b1f3	0.118991755
33	0xbe65d60a	-0.2244493
34	0xbd329ada	-0.04360471
35	0x3c17150e	0.009221328
36	0x3d2f63fd	0.042819966
37	0x3c217ed7	0.009856901
38	0x3dac02f1	0.083989985
39	0x3d4f31b3	0.050584506
40	0x3df7f9b2	0.121081725
41	0xbca0fff6	-0.019653302
42	0x3e394470	0.18092513
43	0xbbbba329	-0.0057262373
44	0x3b15d658	0.0022863355
45	0x3d330371	0.043704454
46	0x3da6e02d	0.08148227
47	0x3d99620e	0.074894056
48	0xbcc00b98	-0.023443028
49	0xbe1683c8	-0.14698708
50	0xbdb26e87	-0.08712488
51	0xbd43b759	-0.047782276
52	0x3d09d04a	0.033645906
53	0x3e0fdc93	0.14048986
54	0x3eb3b468	0.35098577
55	0x3e162a56	0.14664587
56	0xbd1bf6ac	-0.03807704
57	0x3e288c1d	0.16459699
58	0x3e42a8a2	0.19009641
59	0xbd88a250	-0.06671584
60	0xbd5f49a3	-0.054513585
61	0x3e2eca6b	0.17069404
62	0x3c7e16a4	0.015508328
63	0x3e55660c	0.20839709
64	0x3e179b1f	0.14805268
65	0x3dbc8cfc	0.09206578
66	0x3c80846a	0.01568814
67	0x3e950a48	0.29109406
68	0xbd5513b0	-0.05202073
69	0xbeb5e4dd	-0.3552617
70	0x3ec4f0e9	0.3846505
71	0xbe396ff9	-0.1810912
72	0x3d735399	0.059405897
73	0x3e7e3234	0.24823838
74	0x3deaaff2	0.1145934
75	0x3e01bac9	0.12668909
76	0x3e357777	0.17721353
77	0x3ef98b32	0.4873901
78	0xbe5e6b15	-0.21720536
79	0x3d8b3b86	0.067984626
80	0xbdf86f0e	-0.12130557
81	0xbd7bb7a3	-0.061454426
82	0x3bdda441	0.0067639654
83	0x3d675d0c	0.05648522
84	0x3d3bbd7e	0.04583501
85	0xbdbbce10	-0.09170163
86	0x3d8891d4	0.066684395
87	0x3e897255	0.2684504
88	0x3d982946	0.07429747
89	0x3e1a324f	0.15058254
90	0x3e0ebdad	0.13939543
91	0xbc40dfa6	-0.011772072
92	0x3db229f1	0.08699406
93	0x3c0ffd61	0.008788438
94	0xbe106e78	-0.1410464
95	0xbc192157	-0.009346328
96	0xbd0ea309	-0.03482345
97	0x3d46d57f	0.04854345
98	0xbe40f911	-0.18845011
99	0xbdb0eee9	-0.086393185
100	0x3edc0e92	0.42979866
101	0x3b8458f2	0.0040389234
102	0xbd5a9bbe	-0.053371184
103	0xbd7483d3	-0.05969603
104	0xbdb97628	-0.0905574
105	0xbdbcf3cb	-0.09226187
106	0x3d951359	0.07279081
107	0xbd1e7402	-0.038684852
108	0x3d6cdbdd	0.057826865
109	0x3db44b51	0.08803428
110	0x3d7e0c01	0.062023167
111	0x3d854c5d	0.06508706
112	0x3e8a48d2	0.27008682
113	0xbe0579f9	-0.1303481
114	0x3d6c105e	0.057632796
115	0x3eca8a03	0.3955842
116	0xbe6151d1	-0.22003867
117	0x3ea8987e	0.32928842
118	0xbe3ab153	-0.18231706
119	0x3e096152	0.13416031
120	0x3cdf6eae	0.027274456
121	0x3e102e84	0.14080244
122	0x3eaba301	0.335228
123	0xbf017ceb	-0.50581235
124	0x3ea580d4	0.3232485
125	0x3e7b670a	0.24551025
126	0xbec980eb	-0.3935617
127	0xbea54aad	-0.32283536
128	0x3d7db74f	0.061942395
129	0x3e543544	0.20723444
130	0x3d9fec4e	0.078087434
131	0xbafc2ee8	-0.0019240053
132	0x3e407a37	0.18796621
133	0x3e014049	0.12622179
134	0x3e265ce8	0.16246378
135	0x3e69b7c6	0.2282401
136	0xbd970479	-0.073739
137	0x3e39722c	0.1810996
138	0xbe6fd765	-0.2342201
139	0xbf1a2f0d	-0.60228044
140	0xbe0a5649	-0.13509478
141	0xbba27de3	-0.0049588545
142	0xbdda4541	-0.106577404
143	0x3e7f63f1	0.24940468
144	0x3d28c002	0.041198738
145	0x3e2e22cc	0.17005461
146	0x3e507c22	0.20359853
147	0x3e955973	0.29169807
148	0x3ad7c13a	0.0016460784
149	0x3f021bc7	0.50823635
150	0x3ebe18f4	0.37128413
151	0x3e7e88de	0.24856898
152	0x3dd7bfd5	0.10534636
153	0xbce906ca	-0.02844562
154	0xbd168c04	-0.036754623
155	0xbe267109	-0.16254057
156	0xbd205255	-0.039141018
157	0xbd7d71a1	-0.061875943
158	0xbda2eea0	-0.0795567
159	0xbe061656	-0.13094458
160	0xbe36d90a	-0.17856231
161	0x3d9b0e22	0.07571055
162	0xbdff04ff	-0.12452125
163	0x3e2a2a3f	0.16617678
164	0xbeae66e3	-0.3406287
165	0xbe3aff75	-0.18261512
166	0x3e669c10	0.2252047
167	0x3e41e944	0.1893664
168	0xbe78b5b1	-0.2428806
169	0xbdab7235	-0.08371393
170	0xbe9f17ff	-0.31072995
171	0x3e564375	0.2092417
172	0x3d48deef	0.04904073
173	0xbb96496b	-0.004586389
174	0x3e59c6c7	0.21267234
175	0xbdc46e5b	-0.09591361
176	0x3ea1c2d5	0.31593958
177	0x3e361b71	0.17783906
178	0xbde8f962	-0.11375691
179	0x3e405dc3	0.18785767
180	0xbe1c6fa2	-0.1527696
181	0xbe353d6d	-0.17699213
182	0x3d05006d	0.03247111
183	0xbc617f43	-0.013763252
184	0xbce28bfc	-0.02765464
185	0x3ef26de1	0.47349456
186	0xbe88b04a	-0.26696998
187	0xbec7ab6e	-0.38997978
188	0x3da0182f	0.07817113
189	0x3d6b2eb8	0.0574176
190	0x3e0ad159	0.13556422
191	0xbe8c3e03	-0.2739106
192	0x3db03491	0.08603776
193	0xbdfc3d85	-0.123164214
194	0x3ec67193	0.38758525
195	0xbed5a655	-0.41728464
196	0xbe4aac57	-0.19792305
197	0xbce94556	-0.028475445
198	0xbc8d913c	-0.017281167
199	0x3c57c193	0.01316871
200	0x3c0d1af8	0.008612387
201	0xbdc6b7da	-0.09703036
202	0x3e09ed6c	0.13469476
203	0xbd805684	-0.062665015
204	0xbd8b9f9d	-0.06817553
205	0x3beaee24	0.007169502
206	0x3d3f136a	0.046649374
207	0x3d33830d	0.04382615
208	0x3e6e594c	0.23276252
209	0xbb70be28	-0.0036734436
210	0x3cee5e4b	0.029097697
211	0x3d8c0b4c	0.06838092
212	0xbec97b6b	-0.39351973
213	0x3e77dd2b	0.24205463
214	0x3ebeaf1a	0.37242967
215	0x3e0ab230	0.13544536
216	0xbdd8a1c2	-0.10577728
217	0xbe903f3f	-0.28173253
218	0x3d433439	0.047657225
219	0x3e0aaa46	0.13541517
220	0xbd5c93a8	-0.053851753
221	0xbc74bca2	-0.014937552
222	0xbd2ae524	-0.04172243
223	0xbdd9e2f9	-0.10638995
224	0xbe256cff	-0.1615486
225	0xbd7bff76	-0.061522923
226	0xbd5e794f	-0.054314908
227	0x3e476747	0.19472991
228	0xbcb7741d	-0.022394234
229	0xbd0efc3d	-0.034908522
230	0xbbd2a4f4	-0.0064283554
231	0x3c6336ba	0.013868028
232	0x3de103f7	0.10987084
233	0xbe31dff3	-0.17370586
234	0xbe283c19	-0.16429175
235	0x3d73fc54	0.05956681
236	0xbe3d7318	-0.18500936
237	0x3ddc6cd0	0.10762942
238	0x3e5f5109	0.21808256
239	0xbe119e52	-0.1422055
240	0xbdc0b331	-0.09409178
241	0x3dd9255a	0.10602827
242	0xbd6bc275	-0.057558496
243	0xbcf5dff7	-0.030014021
244	0x3c7972f8	0.015225165
245	0xbd2bda03	-0.04195596
246	0xbdd9431d	-0.10608504
247	0x3cf858d6	0.030315798
248	0xbdf7c449	-0.12097985
249	0x3d85326f	0.0650376
250	0x3e0eda21	0.13950397
251	0x3da7d5cd	0.08195076
252	0xbd6ac7cb	-0.057319444
253	0xbeb18218	-0.34669566
254	0x3e207d65	0.15672834
255	0xbdc1ea38	-0.09468502

net.net.0.bias f4 [256]
0	0x3ef2a229	0.47389343
1	0x3f31f56b	0.69515103
2	0x3edf1c1c	0.43576133
3	0x3ee8c060	0.4545927
4	0x3f07e97e	0.53090656
5	0xbe2a143c	-0.16609281
6	0x3e80e5eb	0.25175413
7	0xbe9a8ab1	-0.30183938
8	0xbe9b5c2c	-0.3034376
9	0x3f05dfce	0.52294624
10	0x3f4754ad	0.7786358
11	0xbdcc1dcb	-0.0996662
12	0x3f1d9954	0.61562085
13	0xbda98bf4	-0.08278647
14	0x3f49adb6	0.78780687
15	0xbe97e23e	-0.29664797
16	0xbed6db16	-0.41964024
17	0x3e25a800	0.16177368
18	0x3f54d976	0.8314432
19	0x3dc5c110	0.096559644
20	0x3f15a6eb	0.5845782
21	0x3f163dc6	0.5868801
22	0x3eb10d3e	0.34580415
23	0x3f2aafd9	0.6667457
24	0x3f39e0ff	0.7260894
25	0x3cc2c42e	0.023775186
26	0x3e5a9a47	0.21347915
27	0x3f406faf	0.75170416
28	0xbe8d8a45	-0.27644554
29	0x3d8fb30b	0.070165716
30	0x3e9ce9f3	0.3064724
31	0x3e9a5c94	0.30148757
32	0xbecf63cc	-0.40505826
33	0xbe33ea07	-0.17569743
34	0xbebc65c9	-0.36796406
35	0xbebb8195	-0.366223
36	0x3eeeff49	0.46679142
37	0xbdd92ae7	-0.10603886
38	0x3e7af7b6	0.24508557
39	0xbe82f0cb	-0.25574335
40	0x3f3742c0	0.7158623
41	0x3f43370a	0.7625586
42	0x3f3597e7	0.7093491
43	0xbe3995c7	-0.18123542
44	0xbea09082	-0.3136025
45	0x3e3a447d	0.18190189
46	0xbe6dfadc	-0.23240227
47	0x3ee2c6d5	0.44292322
48	0x3ed772f7	0.420799
49	0x3eeb9155	0.46009317
50	0x3f1824ca	0.59431136
51	0x3f01e313	0.5073711
52	0x3f2b8d21	0.6701222
53	0x3e9a961f	0.30192658
54	0x3ec92192	0.39283425
55	0x3ec6a041	0.3879414
56	0xbeb77fbe	-0.35839647
57	0xbe8b4bd9	-0.27206305
58	0xbec1e714	-0.3787161
59	0x3f1dc88e	0.6163415
60	0x3f425614	0.75912595
61	0x3efb016d	0.49024525
62	0xbe123347	-0.14277373
63	0xbebb832c	-0.36623514
64	0xbe632b45	-0.22184475
65	0x3f155b53	0.58342475
66	0x3f3e4cbf	0.74335855
67	0x3f16960e	0.58822715
68	0x3f1fdf41	0.62450033
69	0x3f0cd186	0.5500721
70	0xbe565f96	-0.209349
71	0x3e5ef1cc	0.21771926
72	0xbe109d1e	-0.14122435
73	0xbe6d0e19	-0.23149909
74	0x3f48d1f6	0.78445375
75	0x3f1a3cb7	0.60248893
76	0x3f311530	0.69172955
77	0xbea17639	-0.3153551
78	0x3efe140a	0.49624664
79	0xbd9a8ecc	-0.075467676
80	0x3ef3b32f	0.47597644
81	0xbee54224	-0.44777024
82	0xbef80d3b	-0.48447594
83	0xbe61808f	-0.22021697
84	0x3ec48965	0.38386074
85	0xbe83f24d	-0.25770798
86	0x3f168d32	0.58809197
87	0xbe907035	-0.28210607
88	0xbe39c2a6	-0.18140659
89	0x3ee74c28	0.4517529
90	0x3f26ac84	0.6510699
91	0xbead1b59	-0.33809927
92	0x3f2f29c1	0.68423086
93	0xbe990e20	-0.2989359
94	0x3f2df58c	0.679528
95	0xbeaf650c	-0.3425678
96	0x3e99f3dc	0.30068862
97	0xbebac0e3	-0.36475286
98	0xbe997125	-0.29969135
99	0x3f45a5a8	0.77205896
100	0x3f120427	0.57037586
101	0xbe55c47e	-0.20875737
102	0x3defb326	0.11704092
103	0x3f30b4b7	0.6902575
104	0x3f1fb883	0.6239092
105	0x3f090f64	0.5353911
106	0x3ebe937c	0.37221897
107	0x3f08db09	0.5345922
108	0xbec43892	-0.3832441
109	0x3e928cee	0.28623146
110	0x3eda14d4	0.42594016
111	0xbe51983d	-0.2046823
112	0x3e4430d4	0.19159251
113	0x3e82832a	0.25490695
114	0x3ef06c63	0.46957693
115	0xbe0c662e	-0.13710853
116	0x3f289c9d	0.6586397
117	0x3ee30a29	0.4434369
118	0xbe5522e8	-0.20814097
119	0x3f0c9e60	0.5492916
120	0x3f336673	0.700782
121	0x3f0a93d3	0.5413181
122	0x3e9cc8a2	0.3062182
123	0xbe91cd1a	-0.28476793
124	0x3ed9c9fc	0.42536914
125	0x3ee69a3f	0.45039555
126	0x3f089535	0.5335267
127	0x3f284cc0	0.6574211
128	0x3f1ff837	0.6248812
129	0x3ee366d7	0.44414398
130	0x3e950111	0.29102376
131	0x3f30b117	0.6902022
132	0x3f32950e	0.6975869
133	0x3f273ab0	0.65323925
134	0x3f132b66	0.57488096
135	0x3f05d832	0.5228301
136	0x3ef5d6bc	0.48015392
137	0x3f3e7c1b	0.7440812
138	0xbeb28e98	-0.34874415
139	0x3ef7a346	0.48366755
140	0xbe8c9e6a	-0.2746461
141	0x3eaa6071	0.33276704
142	0x3ef221e8	0.47291493
143	0xbe900839	-0.28131273
144	0x3ecb47d1	0.3970323
145	0x3f30d440	0.6907387
146	0xbee8fa06	-0.45503253
147	0x3e82dd7e	0.2555961
148	0x3f3d3b1d	0.73918325
149	0x3f0d5373	0.5520546
150	0x3f2789d8	0.6544471
151	0xbe920262	-0.28517443
152	0x3ef0388b	0.4691814
153	0xbe95a49a	-0.29227144
154	0x3f25f48f	0.6482629
155	0x3f369e30	0.71335125
156	0x3f2bfee6	0.6718582
157	0x3dba9267	0.09109955
158	0x3eeed65b	0.46647915
159	0x3f216b25	0.63054115
160	0x3f21ce26	0.6320518
161	0x3ef11d10	0.47092485
162	0x3f08a427	0.53375477
163	0x3f0eb270	0.55741024
164	0x3f081c8f	0.53168577
165	0x3e810ab4	0.25203478
166	0xbefdc5cf	-0.49564978
167	0xbea81d42	-0.32834822
168	0xbe9e6cae	-0.3094229
169	0x3f023d62	0.5087491
170	0x3e6bdefb	0.23034279
171	0x3d4725f9	0.048620198
172	0x3f0523e1	0.5200787
173	0x3f0966b8	0.5367236
174	0x3f219eca	0.6313292
175	0x3f0edb30	0.55803204
176	0x3f1607ee	0.5860585
177	0xbeb03a1a	-0.34419328
178	0x3f1a05a4	0.60164857
179	0x3d9a61f8	0.07538217
180	0xbebe86c5	-0.37212196
181	0x3edafe36	0.42772073
182	0x3e49a8f6	0.1969336
183	0x3f145fcc	0.57958674
184	0x3e79d1b9	0.24396409
185	0xbedd8117	-0.4326255
186	0x3ea6bf7a	0.3256796
187	0xbde98f58	-0.11404294
188	0x3ded379a	0.11582871
189	0x3f2c7904	0.67372155
190	0x3eed594a	0.46357185
191	0xbe89bd52	-0.26902252
192	0x3ec8dbe8	0.39230275
193	0x3edf1647	0.43571684
194	0x3f16d9c8	0.5892606
195	0xbe0b0194	-0.13574821
196	0x3f517d74	0.8183205
197	0x3f020d36	0.5080141
198	0xbed5a320	-0.41726017
199	0x3eef9fc8	0.4680159
200	0x3ef0e455	0.47049204
201	0x3f11abea	0.56902945
202	0x3f26d7ca	0.6517302
203	0x3e016e04	0.12639624
204	0x3ea2ca08	0.31794763
205	0x3ed44838	0.4146135
206	0x3eb3b6c4	0.35100377
207	0x3f2924fc	0.6607206
208	0x3f331ba4	0.6996405
209	0x3e663e22	0.2248464
210	0x3de654ec	0.11246666
211	0x3ece7a26	0.40327567
212	0x3f53d35b	0.8274438
213	0x3f12137d	0.57060987
214	0x3ed3afe0	0.4134512
215	0x3ed1f943	0.41010484
216	0xbec02662	-0.37529284
217	0x3f28b9ab	0.65908307
218	0x3eae7bd9	0.34078863
219	0x3ebfb257	0.3744075
220	0x3ed4fc5b	0.41598782
221	0x3eb2e1b1	0.34937814
222	0x3c50de55	0.012748321
223	0x3eee997f	0.46601483
224	0x3f427b1e	0.7596911
225	0x3edbabdb	0.42904553
226	0x3f22df90	0.6362238
227	0x3ed1e803	0.40997323
228	0xbe575230	-0.21027446
229	0xbe8f8dad	-0.28037778
230	0x3db7fe8f	0.089841
231	0xbe99f753	-0.30071506
232	0x3e907a6e	0.28218406
233	0x3ea023f8	0.31277442
234	0x3f1daf83	0.61595935
235	0x3f159d9b	0.5844361
236	0x3eeb1065	0.45910946
237	0xbece3935	-0.4027802
238	0x3f2933c5	0.6609462
239	0x3e20077a	0.15627852
240	0x3f22811c	0.63478255
241	0xbe9953c4	-0.2994672
242	0x3ea98c6f	0.33114955
243	0x3f229b95	0.6351865
244	0x3f2dc782	0.6788255
245	0xbe87ff81	-0.26562122
246	0xbf050d59	-0.5197349
247	0xbe479d42	-0.19493583
248	0x3f2e1cb3	0.6801254
249	0x3ec41faa	0.38305408
250	0xbea990ec	-0.3311838
251	0xbdc27d5a	-0.09496565
252	0x3f1c8bc4	0.61150765
253	0x3d06dc18	0.03292474
254	0xbea63dab	-0.32468924
255	0x3f161667	0.58627933
